Model/full_gcn_cwe_119_test_lr_0005.pth (torch, 348981 bytes, 11 tensors)

bias f4 [128]
000000 ed 2c 14 3f 4a 86 ae be 23 5b 02 3e 57 36 01 3f
       0.5788105 -0.3408683 0.12730078 0.5047354
000010 c7 ee 17 bd 90 75 b5 3b 46 f3 02 00 0e ad ae be
       -0.03709295 0.005537696 2.70941e-40 -0.34116405
000020 78 2c 06 bf 6b 7d 24 3f 64 ec b7 bb c3 50 1f be
       -0.52411604 0.6425387 -0.0056128968 -0.15558152
000030 fa b9 05 00 1c 66 e6 bc ec de db ae 50 d5 c6 3e
       5.25893e-40 -0.028124861 -9.998566e-11 0.3883462
000040 fa 72 18 3e 82 82 00 80 43 e5 2e bc fd d0 89 bc
       0.1488761 -4.6817e-41 -0.010674777 -0.016823286
000050 c5 dd 16 bd 3b 33 05 80 82 80 83 be d4 f3 d6 3c
       -0.03683259 -4.77556e-40 -0.2568398 0.026239313
000060 d9 49 48 b5 74 13 e8 3e c5 7d 7f 92 76 2f 96 be
       -7.461327e-07 0.45327342 -8.0618835e-28 -0.29333085
000070 89 99 3a b6 de 90 11 3d 40 25 94 be a3 9a 2b 3e
       -2.780553e-06 0.035538547 -0.2893467 0.16758208
000080 25 9e 6c 3b e8 ad e7 be c2 52 8b b7 2e aa b7 3d
       0.0036105004 -0.45249867 -1.6608628e-05 0.08968006
000090 12 0e 09 80 f0 96 ca bd a6 83 89 a0 bd eb 08 bd
       -8.31567e-40 -0.0989207 -2.329582e-19 -0.033427943
0000a0 0a b2 d2 3e 9b 33 03 b7 8a 2e 05 80 02 df 93 b2
       0.41151458 -7.820224e-06 -4.75873e-40 -1.7214465e-08
0000b0 a1 57 02 b0 db 17 9b 3e ea 90 7c b5 6b 88 75 bd
       -4.741825e-10 0.30291638 -9.4088193e-07 -0.05994455
0000c0 58 87 3d be 82 e8 b7 9e f3 38 5a be 11 04 97 b4
       -0.18508661 -1.9472042e-20 -0.21310787 -2.81289e-07
0000d0 01 4b 03 00 58 c5 1b bb e1 47 92 be 77 68 bd 3e
       3.02413e-40 -0.002376875 -0.28570464 0.36993763
0000e0 a9 48 68 bc d9 6f 88 be 06 cc 8f a8 16 cc 14 bd
       -0.01417748 -0.26647833 -1.596467e-14 -0.036327444
0000f0 df 4c 54 bc b1 8e 6a 3e 27 7a d7 be 68 a7 e1 be
       -0.012957781 0.22905995 -0.42085382 -0.44073033
000100 42 c6 89 3e 78 7b 28 a5 0e 40 3b 3f 0d d3 50 b3
       0.2690907 -1.461351e-16 0.73144615 -4.8620723e-08
000110 53 0e 7b bd 6e 65 08 be 19 cc a5 b1 cb aa 76 be
       -0.061292958 -0.13319942 -4.8253352e-09 -0.2408859
000120 07 11 73 3e 74 a9 f3 3c b6 42 08 80 bd 6f 5c 84
       0.23736964 0.029743887 -7.58615e-40 -2.5912183e-36
000130 48 fa 42 b6 37 ff 00 00 5b 87 3f be 45 6e 76 3e
       -2.9053936e-06 9.1554e-41 -0.18703978 0.24065502
000140 d7 38 00 80 a8 dc 9c b0 d6 ad f4 af a8 83 38 af
       -2.039e-41 -1.1413208e-09 -4.450686e-10 -1.6781476e-10
000150 d0 fd 36 be 58 0e 26 3f a5 1b f0 3e d6 ba 88 bc
       -0.1787026 0.64865637 0.4689609 -0.016690653
000160 a0 f9 b7 b0 ea 8d 97 3e f9 4b bd ae ae 8a 57 92
       -1.338595e-09 0.2960046 -8.6082204e-11 -6.8012974e-28
000170 2b 98 9c 3e 6f 97 98 3e b7 1a 8e 3d a7 61 d4 bc
       0.30584845 0.29803035 0.06938689 -0.02592547
000180 67 4c bb 3e 69 a0 00 00 62 c2 3a bc 2a 29 5a be
       0.36581728 5.7544e-41 -0.011398884 -0.21304765
000190 29 7a 29 bd 3d 12 f0 ad fc 78 9d b1 3f 88 ed be
       -0.041376267 -2.729294e-11 -4.5830557e-09 -0.4639301
0001a0 ef e7 0b b9 a4 06 07 80 e3 31 83 be 01 91 2f be
       -0.00013342475 -6.4523e-40 -0.25623998 -0.17145158
0001b0 35 f8 23 bd b2 46 f8 b8 eb 03 81 3d 8e f7 5e b7
       -0.04003163 -0.000118387296 0.062995754 -1.32898695e-05
0001c0 54 f5 4e 3f fb 45 02 80 30 cd 06 00 5c 2d 6f bc
       0.8084309 -2.08775e-40 6.2462e-40 -0.014598217
0001d0 55 56 16 bf 74 e8 21 bd 79 c3 12 be ca b6 0e 3e
       -0.5872548 -0.039528325 -0.1433238 0.13936916
0001e0 bd 68 dc be 25 1e aa bb 50 90 03 00 98 d3 81 bd
       -0.4304866 -0.005191582 3.27276e-40 -0.063391864
0001f0 59 4e 36 bd 69 d1 02 80 a8 4d 87 bd 38 04 04 80
       -0.044508312 -2.58793e-40 -0.06606609 -3.68855e-40

weight f4 [128, 2]
000000 1a c8 7e 3d be f2 24 bf 6c 10 2c 3e 82 54 ea be
       0.06220255 -0.64432895 0.1680314 -0.457676
000010 a2 8d 40 3d 67 3e 43 bf 22 0c ed 3c 28 9f 5b bf
       0.04701007 -0.76267093 0.02893645 -0.8578973
000020 e9 69 08 bc 8d c9 23 bc bb ae ba bc ac 72 c1 bc
       -0.008326032 -0.009996784 -0.022788396 -0.02361425
000030 12 d0 17 ba b2 05 05 00 15 11 cd ba ac 83 a8 be
       -0.0005791198 4.6122e-40 -0.001564535 -0.32912958
000040 73 43 fc bb a8 01 e9 3d 8e 31 3b 3c f5 5d 19 bf
       -0.0076984703 0.11377269 0.011425389 -0.5990899
000050 f9 9b 32 bd 30 1a 3f bb d4 48 fb bb 29 b7 95 be
       -0.04360578 -0.0029159896 -0.007668594 -0.29241303
000060 74 3b dd ba 29 9c 05 00 3d 4a e2 bc 5f f6 7b bd
       -0.001687868 5.15197e-40 -0.02762329 -0.061514255
000070 9e 7a 7f a7 b6 25 1a a6 82 79 86 be 38 02 c2 3e
       -3.545483e-15 -5.348059e-16 -0.26264578 0.37892318
000080 67 9e db 3d a9 84 76 be d3 37 1c 9c 98 73 69 9c
       0.10723572 -0.24074043 -5.168822e-22 -7.7242635e-22
000090 af f4 1c bd b6 3f 62 bc 46 cc ea ba cd ed 7c bd
       -0.038319286 -0.013809135 -0.0017913661 -0.061750222
0000a0 b2 70 38 bd e5 4e 72 bd 2c 1c 95 ba 5a e7 02 80
       -0.04502935 -0.05915727 -0.0011376194 -2.66664e-40
0000b0 46 38 96 bb 0d 0a 05 be 3e 93 54 bd 28 d9 63 bd
       -0.004584345 -0.12992115 -0.051898234 -0.05562702
0000c0 10 3f 90 b9 6c 90 0b ba 56 96 89 be b4 bf 8c 3d
       -0.00027512806 -0.000532395 -0.2687251 0.06872502
0000d0 3a 9c 6c b0 67 3c 26 95 90 c5 64 3c 0d c5 1b 3e
       -8.607831e-10 -3.3571082e-26 0.013963118 0.15211888
0000e0 b1 1e f1 ba 73 25 01 bb d1 9d 97 bb 3c 85 11 be
       -0.0018395988 -0.001970616 -0.0046269675 -0.14210981
0000f0 88 70 d6 bd 15 d8 f4 3d a2 7c 39 be 41 84 1e bc
       -0.104706824 0.11955277 -0.1811395 -0.0096750865
000100 23 f4 92 bc 26 a3 0e bc 4e 0a d1 bd 2b 49 73 3e
       -0.01793868 -0.00870589 -0.102070436 0.2375838
000110 c3 db bf bb 42 1b 47 ba 01 32 7f bd 0f aa 73 bd
       -0.005855055 -0.0007595309 -0.062303547 -0.059488352
000120 c5 83 58 9f 94 37 06 80 0e f1 30 b9 25 14 21 bd
       -4.5848776e-20 -5.7095e-40 -0.00016874468 -0.039325852
000130 d1 17 a3 b5 19 8f 06 9d 23 cf 7a 38 aa 07 08 be
       -1.2151378e-06 -1.7808732e-21 5.9797556e-05 -0.13284174
000140 93 1b 90 be 63 2f a7 3d 93 33 be bb fc 90 ff b8
       -0.28146037 0.08163335 -0.005804488 -0.00012186353
000150 11 dd 24 bb e0 ef a3 91 48 aa 1e bc 9f 20 81 b9
       -0.002515618 -2.58647e-28 -0.009684153 -0.00024629102
000160 ae d6 94 b3 31 4e 7e b4 1e b4 45 3d a1 3a b8 be
       -6.930837e-08 -2.3684039e-07 0.048267476 -0.3598223
000170 54 b3 a1 ba bb c4 ef ba 19 39 f1 bd d5 b3 6b 3c
       -0.0012336769 -0.0018292883 -0.11778469 0.014386137
000180 b8 b8 83 3d 98 47 5f 3d 16 55 84 a5 b7 a3 52 a8
       0.06431717 0.054511636 -2.2956006e-16 -1.1692842e-14
000190 2b b5 93 b9 92 01 83 bd 7c 74 b9 b9 32 da 0a bb
       -0.00028173006 -0.06396784 -0.00035372737 -0.0021187183
0001a0 12 c7 1e 82 c1 58 91 93 7c 4e 89 bd 62 3e 2a bb
       -1.1665137e-37 -3.6690664e-27 -0.06704423 -0.0025977124
0001b0 fe c9 6f bd a3 f2 b8 3d 9a 97 86 3d 9b a4 56 bf
       -0.058542244 0.09030654 0.065718845 -0.8384492
0001c0 29 a9 43 be d7 48 c6 3c 8c de 1d 39 aa f7 b5 bc
       -0.19107498 0.024204655 0.00015055592 -0.022212822
0001d0 40 96 0f b6 12 d7 08 b6 87 95 d9 bd 71 95 19 bd
       -2.1396118e-06 -2.0390767e-06 -0.10624223 -0.037496034
0001e0 f5 f6 f9 bc 86 68 dc 39 54 60 a4 3d d4 19 52 bf
       -0.030513266 0.00042039546 0.08026186 -0.8207066
0001f0 a1 03 1a 3e ac 58 17 bf 70 fa 39 bb e7 5e b7 3e
       0.15040447 -0.5911968 -0.0028378032 0.35814592
000200 18 8d 90 be 7a aa 04 3e 9e 0a 89 b3 97 f0 c4 b4
       -0.28232646 0.12955657 -6.381491e-08 -3.6682897e-07
000210 bc e3 92 3c 01 f4 23 bf b8 71 dd bb 78 9e 49 b6
       0.017930858 -0.64044195 -0.006757941 -3.0043575e-06
000220 5c a1 dd bc 76 10 e2 bb 3b ed 55 39 79 34 76 be
       -0.027054481 -0.006898935 0.00020401638 -0.24043454
000230 3d dd a0 bb ef 3b 34 b4 78 84 23 bc c1 aa 78 be
       -0.004909186 -1.678561e-07 -0.0099803135 -0.24283887
000240 88 1d c1 be f8 3e 1c 3e ea 78 c7 bc 5b 09 c6 bd
       -0.37717843 0.15258396 -0.024349649 -0.09669753
000250 a5 c5 62 b7 f5 1f 04 00 c7 5f 02 85 7d ce 19 a0
       -1.3516667e-05 3.78806e-40 -6.130162e-36 -1.3027925e-19
000260 87 12 85 ba 63 24 18 bb ae 7a a1 b9 a1 a5 06 00
       -0.0010152616 -0.0023215048 -0.00030799716 6.1043e-40
000270 6e fe 98 bb 04 fc ab bd 08 02 3f 3d 9d 6b 3b be
       -0.0046690023 -0.083976775 0.046632797 -0.1830277
000280 6e d9 d1 8f 9c 29 1b a8 12 0c 15 bb da e2 3c b6
       -2.0692742e-29 -8.613251e-15 -0.002274279 -2.8146228e-06
000290 46 80 df ba 63 cd f5 b0 b1 c2 c4 b7 c3 30 ee bb
       -0.0017051778 -1.7884471e-09 -2.3455681e-05 -0.0072689964
0002a0 ef b5 01 3e 4c be be 3c 4e e5 91 3c be d4 32 bf
       0.12667058 0.0232841 0.017809536 -0.6985587
0002b0 88 87 3c be 3b 96 0b 3e 23 90 6d bb eb 7d c2 bd
       -0.18411076 0.13631527 -0.0036249242 -0.09496673
0002c0 e0 83 10 b7 57 28 4d ba 27 e3 f8 be d5 fc 6f 3e
       -8.613773e-06 -0.00078261405 -0.48610803 0.23436292
0002d0 17 cc ee af f8 4e 27 b1 2f 9b 28 aa 1d 97 ae b2
       -4.3436962e-10 -2.4346587e-09 -1.4975238e-13 -2.0324984e-08
0002e0 b8 3d 42 be 22 10 4c 3e 1d bb b8 be 31 41 44 3e
       -0.18968856 0.19928029 -0.36080256 0.19165494
0002f0 89 b3 0a 3e eb 11 8e be a9 d8 0b be 25 58 a7 3c
       0.1354505 -0.27748045 -0.13656868 0.020427773
000300 a2 51 93 3d 63 fc 60 bf b2 15 e0 ba a4 82 00 80
       0.071933046 -0.8788511 -0.001709631 -4.6865e-41
000310 07 7e 5d bd 9c c7 ff bc 36 45 4b ba 9b 61 f4 bd
       -0.054075267 -0.03122311 -0.00077541487 -0.11932679
000320 4f 0b 7b be f5 4f 98 3e fb 99 98 bb 45 2e 9a b7
       -0.24516033 0.29748502 -0.004657028 -1.8379777e-05
000330 a7 f1 82 b9 ec 4f 0a ba 33 9d 63 3e b8 06 b9 be
       -0.00024975577 -0.00052761915 0.22227935 -0.36137938
000340 d6 c7 91 bb 17 9e 04 b9 0f c5 a8 88 c5 8c 50 9c
       -0.004448871 -0.00012647394 -1.01574605e-33 -6.9003367e-22
000350 a2 e6 a6 3d 31 6f 97 3d 60 6f 88 3d 58 85 18 3d
       0.081494585 0.07394255 0.06661868 0.03723654
000360 bc 9b 5d ba 60 60 36 be fd bc 12 bc b9 89 08 ba
       -0.0008453687 -0.17810202 -0.008956191 -0.00052085106
000370 1a de 20 bd c5 e0 cf bd 9e aa ba ba ea fe 84 bb
       -0.039274313 -0.10150293 -0.0014241522 -0.0040587084
000380 7b ce d7 3c 16 55 36 bf a4 fb e8 a6 1b 6b 06 80
       0.026343575 -0.7122358 -1.6166441e-15 -5.89435e-40
000390 03 5e 64 b9 c0 34 04 00 fb 86 11 bb d9 6c 70 bd
       -0.00021778797 3.86265e-40 -0.0022205699 -0.058697555
0003a0 70 14 ff bd e2 d7 37 3e d8 b5 70 bb f2 cf c4 bc
       -0.1245507 0.17953447 -0.003672948 -0.024024937
0003b0 3a 85 bb bb 25 76 81 bc 36 f5 f0 bd 24 b9 70 bd
       -0.005722669 -0.015803406 -0.1176552 -0.058770314
0003c0 aa 91 84 bb 3f 23 d9 3e 30 60 77 bd d9 71 3e bd
       -0.004045685 0.42409703 -0.060394466 -0.046495292
0003d0 a0 0d 09 bb 35 37 01 00 7d 9e 51 be 91 f0 90 3d
       -0.0020912662 1.1164e-40 -0.20470615 0.070771344
0003e0 a3 8b 93 bb 23 9a c1 bd 9b dd c3 a1 f5 16 03 80
       -0.00450273 -0.09453227 -1.3272372e-18 -2.83742e-40
0003f0 4a 11 84 bd bb 88 20 bd 33 67 53 bb 17 e6 03 80
       -0.0644861 -0.039192896 -0.0032257556 -3.58047e-40

bias f4 [128]
000000 05 76 15 be f1 a8 11 3c 57 09 1e 9b 45 10 c3 ab
       -0.14595802 0.008890376 -1.3072472e-22 -1.3860099e-12
000010 18 d5 0d 3e 1d 22 c1 bd 4f 7a 14 bc ad 96 b1 bd
       0.1385082 -0.09430335 -0.009062364 -0.08671317
000020 f5 98 9c ba 35 e7 99 3d a3 e2 01 be 4f 6d b3 bb
       -0.001194744 0.07514802 -0.12684111 -0.005475677
000030 76 62 df 8c f6 78 2e bc f4 40 10 bd c8 42 2a bd
       -3.441785e-31 -0.0106489565 -0.035218194 -0.041567594
000040 ba f0 84 bd 1b 82 12 be 08 eb 4d 3e 79 23 97 bd
       -0.064912274 -0.14307444 0.20109189 -0.07379813
000050 5c f0 f1 bd 8c 7b 88 ac 91 0b 09 bd d3 64 4a bd
       -0.11813423 -3.879069e-12 -0.033458296 -0.04941256
000060 d7 49 a5 87 5f 12 42 3e f4 5e c7 bd 1f 53 c3 aa
       -2.486984e-34 0.1895232 -0.09734908 -3.4696635e-13
000070 05 43 74 bd d9 9b a3 bb 82 18 7e bd 79 2b 5e aa
       -0.059634227 -0.0049929437 -0.06203509 -1.9732644e-13
000080 9f 2e 8b 3b f2 14 38 93 cf ca e5 3d ba ca 4e 3d
       0.004247501 -2.3234392e-27 0.11220323 0.050486304
000090 5c d0 33 bc b3 81 04 bf e4 e7 30 b9 49 fe bc 3c
       -0.01097497 -0.51760405 -0.00016871054 0.023070471
0000a0 64 d3 01 3e 22 db 83 bc 85 4f 98 ba a0 74 a4 bc
       0.12678295 -0.016095702 -0.0011620378 -0.020075142
0000b0 d8 87 4c bd 40 b1 d9 b6 0b 47 bc bd 9b c0 25 97
       -0.04993424 -6.4877386e-06 -0.09193238 -5.355748e-25
0000c0 41 bf 05 bd 8a 6f 85 91 b6 2a ec 3d fb fb 43 3b
       -0.032653097 -2.1052441e-28 0.11531584 0.002990483
0000d0 d7 43 a6 3e 3a 1b 9b b7 22 63 02 80 82 6d 83 bd
       0.32473633 -1.8490118e-05 -2.19233e-40 -0.06417371
0000e0 b1 81 59 3e 8a 2d 5e 3c 2b d8 b0 bd ec c5 b9 b9
       0.2124088 0.013560662 -0.08634981 -0.00035433413
0000f0 3a 4a 84 3e 5f 46 3f be 8b 1c a1 be 3b f2 57 bc
       0.2583788 -0.18679188 -0.3146709 -0.013180311
000100 90 e4 82 b5 4d 4c 9d bd 9f 6c e4 be 82 a4 4b bc
       -9.752275e-07 -0.07680569 -0.4461412 -0.012429358
000110 c5 9b eb bd 34 e3 9e 93 d5 8c 8a 3e 1f e8 44 3e
       -0.1150432 -4.0108847e-27 0.2706057 0.19229172
000120 e3 6a 26 3f b2 06 39 3e f8 9e 1c 3e 41 30 a8 bc
       0.65006846 0.1806896 0.15295017 -0.020530822
000130 25 e3 af bc 86 a1 c1 be 9e 26 b0 bd ab 4d b5 bb
       -0.021470616 -0.37818545 -0.08601116 -0.0055329404
000140 51 95 ac bb 23 6e 6a bd 41 6d 13 bb a7 03 c0 b7
       -0.0052668233 -0.05723394 -0.002249554 -2.2889884e-05
000150 82 2c b0 3e 35 9d 97 bd 41 ea 3b bd 3c 3c 1f be
       0.34408957 -0.07403032 -0.0458777 -0.15550321
000160 de 72 f7 bc 4c b6 2c b4 35 ec c8 bd 25 26 26 be
       -0.03020614 -1.6085068e-07 -0.09810678 -0.16225488
000170 74 0e a9 a1 51 3f 51 bd 46 e6 2c bd ab a1 8a bd
       -1.1455711e-18 -0.051085774 -0.042211793 -0.06769117
000180 92 58 9b b8 85 2e 8d bd 99 c1 01 be 4a 69 4a 3d
       -7.4074735e-05 -0.068936385 -0.12671508 0.049416818
000190 04 39 5b bd 93 bf fc bd a7 ee fe bc f5 d6 2b 9e
       -0.05352117 -0.123412274 -0.031119658 -9.097117e-21
0001a0 0e 83 03 3e a1 41 63 3e 1d 9c 2c bb 80 15 11 be
       0.12842962 0.22193004 -0.0026338168 -0.14168358
0001b0 1e 39 80 bb 71 a0 88 b2 3a 43 8e be 9e 09 91 90
       -0.003913059 -1.5905444e-08 -0.27785665 -5.7207233e-29
0001c0 70 30 d2 bc 5b fb e7 bb 9a d9 54 ba ba 46 23 3a
       -0.025657862 -0.0070795245 -0.00081195834 0.00062284956
0001d0 67 11 8c bd d0 dc 72 3e 5e f8 d9 3c 29 70 ef bc
       -0.06839257 0.23717046 0.026607689 -0.029228287
0001e0 33 d9 1e be 96 3c 82 bd eb b7 35 bd c0 78 8a bd
       -0.15512542 -0.06359212 -0.04436485 -0.067613125
0001f0 ed 5a 15 bd 89 17 e8 bc e1 40 a9 b6 01 56 8b bb
       -0.036463667 -0.028331535 -5.0441454e-06 -0.004252196

weight f4 [128, 128]
000000 25 59 02 bd b7 d0 81 3c c6 7d cf 3b ff 2c 5d bd
       -0.031823296 0.015846593 0.006332132 -0.05399799
000010 d3 50 01 80 c1 c6 05 00 1d 0d 0d 80 9f 19 03 80
       -1.2083e-40 5.30477e-40 -1.198566e-39 -2.84698e-40
000020 1d 85 0b b2 45 87 07 be 46 7f 00 80 38 06 04 80
       -8.121131e-09 -0.13235195 -4.5657e-41 -3.69573e-40
000030 eb 14 0b 80 6a f6 02 80 e5 13 01 00 15 97 8b bd
       -1.017694e-39 -2.72068e-40 9.8972e-41 -0.06815926
000040 23 cd fc bb cb 37 0e 00 64 06 0b 00 e9 b4 00 00
       -0.007714884 1.305712e-39 1.012483e-39 6.4898e-41
000050 3c 0e 06 00 87 27 01 00 86 6e 0a 80 cc 41 04 00
       5.5612e-40 1.06015e-40 -9.58003e-40 3.90945e-40
000060 0d 9b 02 00 a1 c9 f7 bb 49 3d 06 80 17 28 b3 bd
       2.39293e-40 -0.007561878 -5.72998e-40 -0.08747881
000070 15 7f 05 80 a4 9c 02 80 b2 fe 44 b8 49 e2 04 80
       -5.04766e-40 -2.39863e-40 -4.6967245e-05 -4.48518e-40
000080 df 53 02 00 64 4c d5 bb e1 61 09 80 9a bf 01 00
       2.13758e-40 -0.0065093506 -8.61632e-40 1.60569e-40
000090 85 bc 0a 00 dd 38 00 00 a0 d7 03 00 d7 1c 04 00
       9.85983e-40 2.0399e-41 3.52858e-40 3.77688e-40
0000a0 fd ef 93 bb 49 4c 0a 80 f0 26 08 80 83 d0 06 00
       -0.004514693 -9.45721e-40 -7.48652e-40 6.25813e-40
0000b0 e3 93 02 00 90 7c 84 bc d0 92 00 00 7e 8c 07 80
       2.36723e-40 -0.016172677 5.2666e-41 -6.93248e-40
0000c0 37 3c 19 bd 8a 79 0b 80 7d 63 07 80 82 2d 06 00
       -0.03741094 -1.05379e-39 -6.78538e-40 5.67338e-40
0000d0 80 82 07 00 d2 c0 0e 80 e9 9b 08 35 f2 21 82 bc
       6.89663e-40 -1.354868e-39 5.089083e-07 -0.015885327
0000e0 78 cc ab aa 9f d3 00 80 62 c6 03 00 fb e0 08 00
       -3.051758e-13 -7.5915e-41 3.46673e-40 8.15392e-40
0000f0 2e 8d 00 80 f9 d4 8c bb 09 de b8 3c 39 ce 84 bd
       -5.0646e-41 -0.0042978493 0.022566812 -0.06484646
000100 f1 f8 72 bb 1f 91 0b 00 6f ba ec bd b0 48 08 00
       -0.003707465 1.06225e-39 -0.11558997 7.6076e-40
000110 8c 4d 01 80 63 dd 00 80 6c d0 0c 00 f1 a0 07 80
       -1.19654e-40 -7.9419e-41 1.176794e-39 -7.00583e-40
000120 23 bb 24 b7 29 37 01 80 c5 a5 0a 00 a0 70 05 80
       -9.818733e-06 -1.11623e-40 9.77822e-40 -4.9958e-40
000130 ab 64 02 80 12 09 06 80 43 c6 06 80 ce 47 ce bc
       -2.19784e-40 -5.54267e-40 -6.22136e-40 -0.025180724
000140 67 56 0c 00 36 91 08 00 cb b1 02 00 9c cd 04 00
       1.133021e-39 7.86776e-40 2.47451e-40 4.41101e-40
000150 6a 86 39 bd d7 43 f3 bd 86 7e 4d bd c9 29 00 00
       -0.045294203 -0.11878174 -0.05016949 1.499e-41
000160 19 15 03 80 e8 d1 87 bb 41 e4 04 80 0e b0 07 80
       -2.83075e-40 -0.004144896 -4.49224e-40 -7.06005e-40
000170 c8 29 54 bd e8 1f 3c bc b7 21 74 bb 38 72 0a 00
       -0.05179766 -0.011482216 -0.003725154 9.59329e-40
000180 5a 1c 22 bc 36 77 01 00 4b c1 0c 80 71 00 06 00
       -0.009894455 1.346e-40 -1.171366e-39 5.51171e-40
000190 b3 6e 07 bd b7 c9 0a 80 8f f0 0a 00 21 6d 65 3c
       -0.033064555 -9.90717e-40 1.004651e-39 0.014003069
0001a0 7f c9 08 80 d3 01 0b 80 c7 cb 25 bd 6d 6b 37 bd
       -8.06967e-40 -1.010845e-39 -0.04047754 -0.044780184
0001b0 43 12 07 00 84 78 0b 00 b0 ab 01 00 97 74 08 80
       6.494e-40 1.053423e-39 1.53425e-40 -7.76509e-40
0001c0 95 b1 f2 bd 06 37 09 00 77 47 00 00 5c cd 05 80
       -0.11850277 8.46258e-40 2.5637e-41 -5.32847e-40
0001d0 9b fb 10 ba cb fb 06 00 f7 88 07 80 79 13 02 00
       -0.0005530656 6.41339e-40 -6.91982e-40 1.90656e-40
0001e0 4b 33 8b bd d7 75 07 80 41 13 0a 80 e8 eb 4d a6
       -0.06796893 -6.85121e-40 -9.25262e-40 -7.1443375e-16
0001f0 48 57 01 80 65 d6 00 80 93 27 07 00 ea 2d 0a 80
       -1.23146e-40 -7.691e-41 6.57045e-40 -9.34826e-40
000200 31 bc e5 be 2b 57 2e be f2 d1 0d be 82 04 26 be
       -0.4487014 -0.1702544 -0.13849619 -0.16212657
000210 9d bf 20 3d 33 88 86 98 1c 55 08 80 87 ca 4e 3d
       0.039245237 -3.4775714e-24 -7.65215e-40 0.050486114
000220 41 05 be bd 7a f1 ce be 09 fe 72 80 04 61 fd bc
       -0.09278346 -0.40418607 -1.0560377e-38 -0.03093005
000230 21 5e 01 80 63 9e aa bb 0a 3a 08 00 89 b6 48 3e
       -1.25603e-40 -0.0052068694 7.55504e-40 0.19600882
000240 23 22 c1 3d 6f 9e 00 80 c9 8b 01 80 23 69 f9 bb
       0.09430339 -5.6835e-41 -1.41981e-40 -0.00761141
000250 1c 18 b5 bb 2b 88 04 80 7a 9f 20 bd e0 27 6e 25
       -0.0055265557 -4.1619e-40 -0.03921459 2.065672e-16
000260 6e 05 88 88 d8 d8 c7 3e af 75 06 80 f1 5f be bc
       -8.186479e-34 0.39032626 -5.9323e-40 -0.023239108
000270 8a 15 01 00 cb dd 41 3d ab 8b ca bd 9c fc 60 bc
       9.9562e-41 0.04733066 -0.09889921 -0.013732102
000280 08 62 30 94 8d 9a a3 be bd 9a 00 00 ae ce 8d b5
       -8.9050625e-27 -0.3195385 5.551e-41 -1.056547e-06
000290 a4 5e 0b 80 34 92 8b bc e7 4c 04 80 70 b9 a2 3c
       -1.044141e-39 -0.017037489 -3.9493e-40 0.019863814
0002a0 5d 1f b8 3e 39 3c 03 00 66 a2 6d 8a 73 45 05 80
       0.35961428 2.9711e-40 -1.1441679e-32 -4.84091e-40
0002b0 80 0e 05 80 19 1d 0a be 92 68 02 80 e8 50 7c bd
       -4.64379e-40 -0.13487662 -2.21184e-40 -0.061600596
0002c0 f9 85 ff 3d 81 b8 04 80 06 9a 10 bc ac 5c 02 80
       0.12476725 -4.3353e-40 -0.008825785 -2.16915e-40
0002d0 e7 af 08 00 2c 12 77 b8 1a 98 d4 bc 4e 76 3b be
       7.97786e-40 -5.8906313e-05 -0.025951434 -0.18306848
0002e0 3a 2b 47 bb af c1 5b bd 71 05 00 80 75 8a 0f b9
       -0.0030390755 -0.053651508 -1.952e-42 -0.00013689122
0002f0 f3 ff 2a 3b 73 aa e0 3d eb ab 0f 3d c5 9f e0 bd
       0.00260925 0.109700106 0.035076063 -0.109679736
000300 de 8a da 3e b5 c7 08 80 c2 7c 31 bf 8a f6 06 80
       0.42684072 -8.06325e-40 -0.6933099 -6.39455e-40
000310 25 ac f5 3b d3 d8 3e bd 5e 3b 06 00 a0 74 a7 bc
       0.007497328 -0.0465935 5.7231e-40 -0.020441353
000320 87 e4 c4 3d 33 b6 08 ba e9 d4 08 80 09 cc 0b 80
       0.09613901 -0.0005215138 -8.11062e-40 -1.083384e-39
000330 52 5e 06 80 57 12 0d 80 c9 cd 42 bd 3d 61 9a 3c
       -5.84849e-40 -1.20044e-39 -0.047559533 0.018845195
000340 5f f4 07 00 eb 90 06 80 78 1e 28 19 95 39 02 80
       7.30512e-40 -6.03e-40 8.6915495e-24 -2.04328e-40
000350 26 9b 4f 3e d8 27 93 bf 07 19 3e 3e 53 f6 26 bd
       0.20274028 -1.1496534 0.18564235 -0.040762257
000360 13 c3 01 00 93 17 79 3a e6 15 03 00 34 b1 06 80
       1.61815e-40 0.0009502109 2.83362e-40 -6.14581e-40
000370 4f 48 80 3d 3e e8 00 3f eb a9 53 bd 17 58 9f bc
       0.06263792 0.50354373 -0.05167572 -0.019451184
000380 4e 06 b4 bd ef d1 03 80 e7 de 33 bc dd b1 44 bd
       -0.08790265 -3.50816e-40 -0.010978437 -0.048021186
000390 92 08 73 3e 98 f6 05 b8 5e d7 06 80 e0 9b 63 bd
       0.23733738 -3.193933e-05 -6.28272e-40 -0.055568576
0003a0 15 b1 c7 bb 16 d0 01 00 ab c5 0b 3e f6 e4 e3 3b
       -0.006094108 1.66483e-40 0.13649623 0.0069547845
0003b0 1a cb c5 3c c1 11 88 00 8f 4e 02 00 f1 a5 02 00
       0.024144698 1.2495996e-38 2.11853e-40 2.432e-40
0003c0 47 b0 3a bf f2 8b aa 32 a5 67 00 00 68 88 cc 3c
       -0.7292523 1.9854244e-08 3.718e-41 0.024967387
0003d0 be 62 56 be 40 e6 49 3b 3e e5 48 bd c4 6d b4 b9
       -0.20936105 0.0030807406 -0.049046747 -0.00034414057
0003e0 34 8e cc bc 68 8b 19 a6 b7 9b 03 80 ea cf 71 bc
       -0.024970151 -5.327147e-16 -3.31366e-40 -0.014759043
0003f0 15 3c 0b bc 37 e6 04 80 7e 54 19 bd cf 1f 48 30
       -0.008498211 -4.49928e-40 -0.037434094 7.280478e-10

bias f4 [128]
000000 da 41 c8 bd ac dd 1a bc 59 57 c6 bb bc 33 a2 3c
       -0.09778185 -0.009452265 -0.006052893 0.01980006
000010 cb 75 76 bb 4f ab fd bc e4 0a e8 3b 3a 6b 97 bc
       -0.0037606831 -0.030965475 0.0070813764 -0.018483747
000020 c3 99 cb ad d0 54 44 9e d1 d3 eb bc 22 39 9b b3
       -2.3146712e-11 -1.03936924e-20 -0.028787525 -7.228142e-08
000030 b0 73 d3 3e 3b e9 e9 bc e5 4a ab 3d 7d f8 79 bd
       0.412992 -0.028553596 0.083638944 -0.061027993
000040 f3 23 de 3b 78 6e b2 3c f9 28 02 80 9c 69 00 80
       0.006779188 0.021781191 -1.98369e-40 -3.7886e-41
000050 1f 93 84 bc 35 20 4c bb 4b 36 5d 3e b3 58 b6 bd
       -0.016183434 -0.0031147127 0.21602742 -0.08903637
000060 24 3e ba bd 35 f7 a3 b9 76 c0 ac b9 be 3c 8f bb
       -0.09093884 -0.00031273966 -0.0003294979 -0.0043712547
000070 46 de 9e bc 3f b2 02 bb 05 9d a2 ba 64 67 ff bc
       -0.019393098 -0.0019942669 -0.0012406415 -0.03117723
000080 a0 54 c0 3c 24 e1 0d bd ac e6 0e bd d7 78 f8 bc
       0.023477852 -0.03463854 -0.034887955 -0.030331058
000090 d1 04 1d be c2 c6 d9 3c 3b b0 3b b8 8f ed 8f bd
       -0.15333869 0.026584033 -4.47484e-05 -0.070277326
0000a0 c0 17 a8 bd 9e b8 99 bc e7 4d b4 a0 b9 5d f8 bc
       -0.08207655 -0.01876479 -3.0544738e-19 -0.030318128
0000b0 50 8b d2 3d df 22 9f bd c4 ce 29 bb 47 dc 94 3b
       0.10280478 -0.07770323 -0.0025910595 0.0045428607
0000c0 5e 86 84 bc a0 95 2d bc df f9 b5 bb 3f a7 fd bc
       -0.016177353 -0.010594755 -0.0055534686 -0.030963538
0000d0 5b 8b 37 bd cc 55 30 3d 44 34 f7 bd d3 13 24 bc
       -0.044810634 0.043050572 -0.12070516 -0.010014492
0000e0 27 89 d2 bb 0b c1 e6 3c 9f 77 da 3a 4c 5a 98 be
       -0.0064250412 0.028168222 0.001666773 -0.2975639
0000f0 81 9d 90 bd c4 17 5b 3c 47 99 a8 bd ca f6 d8 3e
       -0.070612915 0.013372365 -0.0823236 0.42375785
000100 42 9a 92 bb a4 bc a0 34 25 55 4a bd f4 c9 a3 3e
       -0.0044739554 2.9939577e-07 -0.049397606 0.31990016
000110 2c 2f 86 3a 81 3a 13 3d 0a 10 9c bd ee 08 c5 bd
       0.0010237447 0.035944466 -0.07620247 -0.09620844
000120 dc de 16 bd 5b e0 01 bd f5 ae 05 b8 df 47 96 bd
       -0.03683363 -0.031708103 -3.1872612e-05 -0.07337927
000130 b3 9e 1e bc 19 1e 32 85 eb 75 1a bc 7a 28 5f bd
       -0.0096813915 -8.375048e-36 -0.009427528 -0.05448196
000140 a7 13 06 bd 57 89 2b bd 69 68 03 bc a3 05 3d bd
       -0.032733586 -0.041879024 -0.008020499 -0.046147954
000150 54 3e c6 b8 de 25 03 bd a5 54 62 bd 88 c4 29 3d
       -9.452985e-05 -0.032018535 -0.055256505 0.041447192
000160 5f 3c 6c 3e 7d d9 39 bd ca f8 00 be a3 fc 30 3d
       0.23069905 -0.04537343 -0.12594905 0.043209683
000170 49 a3 5f bb 75 45 da bc 55 1e 9c b9 97 9a 20 be
       -0.0034124425 -0.026644448 -0.00029777238 -0.15683971
000180 c8 c3 77 bd 23 2e 3a ac df 80 0e 3d 49 04 08 8c
       -0.060489446 -2.64578e-12 0.03479087 -1.0478348e-31
000190 c6 3d 3d bd 8b da 98 bd 15 af 05 80 e6 7e 69 bd
       -0.04620149 -0.07463559 -5.21985e-40 -0.057005785
0001a0 1a d5 0a be 68 a0 8b 3d 57 ba a5 bb 88 4b 82 bd
       -0.13557854 0.068177044 -0.005057614 -0.06362063
0001b0 73 40 f6 3d 3d 20 32 93 cc 41 a5 bd 96 fe 73 3e
       0.120240115 -2.2482653e-27 -0.080691904 0.23827586
0001c0 42 f1 15 3f 8f 69 85 bd cc a0 25 bd a8 ef 87 bd
       0.58571255 -0.06514274 -0.04043655 -0.06637508
0001d0 1e 25 8e 3e e8 4d a1 b1 a1 97 01 ba 5b 58 48 3d
       0.27762693 -4.6945736e-09 -0.0004943554 0.048912387
0001e0 21 bd cb bd 4e 9a 97 bd b7 0b 83 bd cb b2 87 3c
       -0.09948183 -0.07402478 -0.06398719 0.016564747
0001f0 ca b4 6b bd 1e ff 6b be ef 3c cc aa ef 44 d7 bc
       -0.05754546 -0.23046538 -3.627996e-13 -0.026277987

weight f4 [128, 128]
000000 de a7 87 07 80 de 8f 3c 7d 19 13 1a 5c 63 00 00
       2.0411206e-34 0.017562151 3.0419477e-23 3.5643e-41
000010 1f 24 f2 bc 55 1d 04 00 aa 37 a1 3b 2f fc 3f ba
       -0.02955824 3.77864e-40 0.0049199658 -0.000732365
000020 d1 83 b8 b5 c3 05 11 3d 18 ed 68 bd 40 d9 08 00
       -1.3747432e-06 0.035405885 -0.056866735 8.12619e-40
000030 f4 8b 02 80 49 00 94 3c fe 19 01 80 73 6c b2 ba
       -2.33877e-40 0.018066542 -1.0116e-40 -0.0013612643
000040 b9 87 90 3d 03 09 0b 00 28 da 6c 3d e7 64 5b b6
       0.07057137 1.013423e-39 0.057825238 -3.2692276e-06
000050 e0 65 02 80 d0 63 18 3b b8 f6 86 bd 2c 42 0d 3a
       -2.20217e-40 0.0023252852 -0.065900266 0.00053885835
000060 df af 01 80 8e 6b 31 bd 35 86 10 bc 0a 05 7b 28
       -1.54926e-40 -0.043315463 -0.00882106 1.3934392e-14
000070 43 ba e8 3c e0 b6 ee bc 8b b3 24 3d b5 00 ea 13
       0.028409129 -0.029139936 0.040210288 5.90706e-27
000080 e4 ae 45 3d f5 da 00 80 3a 5b 6f bd 3f de 48 be
       0.04826249 -7.8547e-41 -0.05843661 -0.1961603
000090 6b af 9d 3d eb 01 fe 3c c5 ab 12 3c 99 9c ab 3c
       0.07699474 0.031006774 0.008952086 0.020948695
0000a0 27 79 7e bc 8e 47 1d b5 61 77 b0 3b f6 8f 7a 3d
       -0.015531815 -5.8591183e-07 0.005385325 0.061172448
0000b0 9f 27 cd bb e5 ba 79 39 08 f6 8e bc 9e 57 07 80
       -0.0062608267 0.00023816114 -0.017451301 -6.7428e-40
0000c0 7c 54 10 bb 11 68 08 80 d2 c3 c4 ba 54 88 c0 3a
       -0.0022023013 -7.72016e-40 -0.0015011972 0.0014689066
0000d0 f0 99 f0 3c 84 1a 77 28 d9 fc 42 a3 f7 90 89 3c
       0.029370278 1.3717004e-14 -1.0570304e-17 0.016792757
0000e0 4d 7c 69 bd a0 08 fd bc 59 e8 65 b7 57 aa 06 3c
       -0.057003308 -0.030887902 -1.3703561e-05 0.008219323
0000f0 11 75 a9 3d 8e a1 1b 3d e0 9c 02 be ed e5 18 b6
       0.08274282 0.037995867 -0.12755156 -2.27836e-06
000100 28 bf 88 37 e8 06 00 be 74 76 88 3c 82 2b 62 bc
       1.6301477e-05 -0.12502635 0.016658045 -0.013804318
000110 5a bf 1c 3d 01 2f ad ac 3e f5 f1 bc 1b ac 99 bb
       0.038268425 -4.922174e-12 -0.029535886 -0.004689706
000120 ef da 21 bd af 18 c6 bd 64 89 b8 bd ea 63 42 3d
       -0.039515432 -0.09672677 -0.0901058 0.047458567
000130 0e 2b 03 80 a5 4f 10 3e 77 a8 23 bd 4d 4a 7e 34
       -2.90952e-40 0.14092882 -0.039955582 2.3682624e-07
000140 ce d3 ca b2 6d 71 99 3c 05 35 40 3c d2 77 03 80
       -2.3612213e-08 0.018730843 0.011731391 -3.1849e-40
000150 76 ed 8e bd d1 a6 a8 bd 4e b6 09 be ca a4 7d 3d
       -0.06978886 -0.08234943 -0.1344845 0.061924733
000160 50 90 85 bc a0 6d 00 80 0d fe 80 3d df 31 aa 3d
       -0.016304165 -3.9326e-41 0.06298456 0.083102934
000170 06 a6 09 80 cd a4 d3 2a 00 c1 ab b7 b1 53 8b 3d
       -8.86077e-40 3.7595483e-13 -2.0474661e-05 0.06803072
000180 40 53 ba ba ce 08 b9 3c a0 68 d6 bb 20 c3 7c bd
       -0.0014215484 0.022587206 -0.006543234 -0.061709523
000190 2e 6a 41 bc ce a5 00 be ba 16 8c bd 3c 66 30 ad
       -0.0118051 -0.1256325 -0.06840272 -1.0027142e-11
0001a0 f6 e8 9c bd f7 1c c9 bd 54 2b 4f a5 e8 3f 24 bd
       -0.07661621 -0.09819978 -1.7969068e-16 -0.04010001
0001b0 c2 03 cc 35 43 7b 40 b1 aa 9c bb bd 3a 98 07 00
       1.5200278e-06 -2.8009743e-09 -0.09160741 6.97457e-40
0001c0 23 ab 7a 3d 10 7b a1 3c 24 e0 d0 3a 4f bb da 3b
       0.061198365 0.019712001 0.001593594 0.006675161
0001d0 cd e1 0b 80 cd 29 04 80 39 86 dd 3c 8c fa 72 a5
       -1.091193e-39 -3.82337e-40 0.027041541 -2.1075043e-16
0001e0 df 42 0b 3d e3 6e c8 bc e0 49 01 00 9e 58 01 3a
       0.03399932 -0.024466937 1.18337e-40 0.00049341645
0001f0 2f e7 6c 3c b1 b7 4b 31 82 9c fd 39 4b 9d 07 80
       0.014459415 2.9644804e-09 0.00048372528 -6.99275e-40
000200 aa 64 00 80 26 44 73 bc 07 98 04 00 2d e8 08 00
       -3.6111e-41 -0.014847791 4.21879e-40 8.17973e-40
000210 e1 0a ea bb 80 81 0a 80 87 80 6b 3b 35 22 82 b9
       -0.00714241 -9.64811e-40 0.0035934763 -0.00024821018
000220 e9 14 08 80 dd 61 54 bc df 1b 05 3d dc 60 0c 80
       -7.42185e-40 -0.012962786 0.032497283 -1.136773e-39
000230 cd 73 01 80 b6 a1 16 bb 1d 1a 0d 00 d3 5e 09 00
       -1.33377e-40 -0.002298457 1.203229e-39 8.60536e-40
000240 cd 1b 11 bc a2 0e 0b 00 37 c8 15 3d dc f5 19 37
       -0.008856726 1.01544e-39 0.036567893 9.176754e-06
000250 27 18 07 80 36 d2 d2 b7 72 77 9b b9 16 30 72 b9
       -6.51513e-40 -2.5131838e-05 -0.00029652898 -0.00023096832
000260 24 3d 0b 80 75 f3 3f bb 83 80 8d bb 6d 84 08 80
       -1.032124e-39 -0.0029289399 -0.0043182983 -7.8219e-40
000270 92 a7 2e bc 43 78 9b b7 b5 18 92 bb ac 82 04 80
       -0.010660069 -1.8533441e-05 -0.0044585117 -4.14218e-40
000280 d2 51 27 bc f7 90 01 00 b3 f1 c3 b9 5f b8 51 ba
       -0.010212379 1.43839e-40 -0.00037373378 -0.0008000191
000290 04 e3 fb bb 4e 23 a4 bc 5e 34 48 bb e9 c0 90 bb
       -0.0076869745 -0.020036366 -0.0030548791 -0.004417528
0002a0 df 71 ac bc 95 11 d2 34 1c 7f 6a bc 59 ea 0f bc
       -0.021050392 3.912834e-07 -0.014312532 -0.0087839
0002b0 a5 73 68 b9 5d 10 04 00 d3 df 48 bc 77 dd 0c 00
       -0.00022168325 3.73212e-40 -0.012260395 1.181473e-39
0002c0 04 b2 01 00 c0 b9 00 80 f8 78 af 25 2f d5 92 bb
       1.55695e-40 -6.6635e-41 3.0439632e-16 -0.00448098
0002d0 be 0f 02 3c 31 1b 0c 00 51 0d 09 00 22 0d a5 bc
       0.007938324 1.11178e-39 8.31296e-40 -0.020147864
0002e0 f5 73 8c 3c d0 f5 06 80 ae c4 22 37 0a 6a 66 3c
       0.017145136 -6.39194e-40 9.7017455e-06 0.014063368
0002f0 4f 65 49 bd bc e8 ed bc 0f cf cc 3c 83 3f d6 b4
       -0.04916888 -0.02904164 0.025001077 -3.9906817e-07
000300 f2 6a 06 80 0c 1a c7 3c ae eb 72 b9 5d bd 32 bc
       -5.89378e-40 0.024304412 -0.00023166716 -0.010909406
000310 2b b8 79 ba b0 bb 08 80 a0 a6 d4 bb d8 01 03 38
       -0.00095260394 -8.02014e-40 -0.00648959 3.123455e-05
000320 82 c0 8c bb 19 87 ec bb af 83 4e bb c0 e5 83 bc
       -0.0042954097 -0.0072182533 -0.0031511595 -0.016100764
000330 09 23 0a 80 53 4a a8 bc 36 9f 0e bb d7 1a 02 00
       -9.30923e-40 -0.020543253 -0.0021762378 1.933e-40
000340 e6 a0 01 80 a6 5b 20 3d ba c4 05 80 cb 2c 03 00
       -1.49555e-40 0.039149903 -5.2975e-40 2.91575e-40
000350 58 cf fa bb 7c e2 ad ba 20 f0 b3 b9 f4 35 25 bc
       -0.007654112 -0.001326635 -0.00034320448 -0.010083664
000360 72 c1 0b 80 3d e6 03 00 82 e4 ae bc 84 47 02 80
       -1.079586e-39 3.581e-40 -0.021349195 -2.09326e-40
000370 bc e2 00 80 49 f0 07 80 32 0c 80 ae 10 e7 bd 3c
       -8.1337e-41 -7.29047e-40 -5.8229324e-11 0.023181468
000380 58 8c 0b 00 4b cb 99 37 83 2a 2b bc cc af 10 39
       1.060536e-39 1.8333687e-05 -0.010447147 0.000137984
000390 2a 6a 86 bb 5c 52 18 bd 70 0b f1 b6 19 33 06 80
       -0.004102011 -0.03718792 -7.183691e-06 -5.69343e-40
0003a0 b7 c1 30 b8 ce 79 40 34 f5 32 87 a1 36 03 55 bb
       -4.214208e-05 1.7925706e-07 -9.161444e-19 -0.0032503135
0003b0 b3 9c cd b5 99 0b 00 80 a5 96 b1 3c 59 3d 04 00
       -1.5319296e-06 -4.16e-42 0.021678278 3.8935e-40
0003c0 8d e6 e1 bc c6 4c f2 39 3a 5e 0e 80 91 fd 00 80
       -0.027575755 0.00046215038 -1.319499e-39 -9.0962e-41
0003d0 4d 1f 0c 80 9a 48 08 b0 13 de 8b bb cb e7 04 80
       -1.113255e-39 -4.9579685e-10 -0.0042684167 -4.50494e-40
0003e0 e9 c4 34 3a 11 3c 00 80 65 f8 07 00 35 6a cf 3c
       0.0006895797 -2.1548e-41 7.31956e-40 0.025319198
0003f0 ab b5 58 ba c2 01 4b b1 cc 0c 05 00 18 2e 06 00
       -0.0008266817 -2.9541387e-09 4.63768e-40 5.67548e-40

weight f4 [128, 256]
000000 2f 52 0d bc e8 4f b4 3c fe 84 02 00 09 90 a8 ba
       -0.008625551 0.022010759 2.3138e-40 -0.0012860309
000010 0a c6 03 80 4a 42 f8 bb 0d 6e 01 00 32 8b 8a 3b
       -3.4655e-40 -0.0075762616 1.31314e-40 0.004228019
000020 1f 9a 09 00 f2 dd 06 80 10 f2 aa b4 c8 5f 0a 00
       8.81808e-40 -6.30632e-40 -3.184109e-07 9.52715e-40
000030 ae 41 84 3a 3d 41 0e 00 b1 ce 09 80 4f 80 7a b9
       0.0010090375 1.3091e-39 -9.00666e-40 -0.00023889657
000040 a0 4d 02 80 ee 6d e0 b9 1a 5c 07 80 5c a0 0b 00
       -2.11518e-40 -0.00042806513 -6.75888e-40 1.067717e-39
000050 33 0c d9 bc 38 fd 0a 00 9c 85 0b 00 a4 dd 66 3b
       -0.026495075 1.009193e-39 1.05812e-39 0.0035227323
000060 93 05 3b bd 1d 45 00 80 92 b1 0c 00 58 31 04 80
       -0.045659613 -2.4793e-41 1.165726e-39 -3.85043e-40
000070 28 b3 3b bd 02 0a 16 bd f6 a2 0e 80 79 63 01 00
       -0.045825154 -0.036630638 -1.344156e-39 1.2752e-40
000080 c9 74 a4 1b 56 a6 84 3c 54 8a 08 80 1c f1 31 bc
       2.7206995e-22 0.016192596 -7.84307e-40 -0.010860708
000090 64 66 f0 bc 02 0a 78 b4 19 6a 57 32 96 21 0c 80
       -0.029345699 -2.310044e-07 1.2538771e-08 -1.114074e-39
0000a0 75 35 91 3c eb c0 65 33 f5 1e 0a 00 32 82 a1 3c
       0.017725686 5.3493675e-08 9.2946e-40 0.019715402
0000b0 1c 65 d5 bb 61 49 d5 bc f0 dd 0c 00 a8 37 05 bc
       -0.0065122973 -0.026035966 1.181642e-39 -0.008130945
0000c0 f2 30 04 80 f0 9c b1 bc 3b 8b 01 80 25 3e 1f 34
       -3.849e-40 -0.021681279 -1.41782e-40 1.4830637e-07
0000d0 98 f8 9b bb 57 a7 04 00 24 49 0d 80 60 fe 02 80
       -0.0047598593 4.27372e-40 -1.2201e-39 -2.74924e-40
0000e0 17 9f f2 3b a9 6e 7e bc 7a 02 01 bb d3 19 0e bd
       0.007404219 -0.015529313 -0.0019685314 -0.034692597
0000f0 d6 31 9c bb a8 e2 04 00 70 82 89 87 5b c4 12 bc
       -0.004766683 4.48651e-40 -2.0690133e-34 -0.008957948
000100 8c bd 03 80 d2 d6 0a 00 f1 11 24 10 f8 ae 2f 3c
       -3.43503e-40 9.95418e-40 3.235712e-29 0.010722868
000110 be 43 c2 38 08 4f 04 00 7c 7b 0c 00 ea d8 83 bd
       9.263259e-05 3.95693e-40 1.146324e-39 -0.064378574
000120 f2 10 00 80 c7 a9 07 80 1d bd 08 80 cb 3d 7a bd
       -6.079e-42 -7.03753e-40 -8.02525e-40 -0.061094087
000130 fe a9 55 3a c2 88 0a 80 4e 9f 04 80 a1 c8 05 00
       0.0008150636 -9.67414e-40 -4.2449e-40 5.3115e-40
000140 c5 a3 ae bb c2 0d 20 b5 f9 29 08 00 03 15 20 3c
       -0.0053295814 -5.9624665e-07 7.49741e-40 0.009770635
000150 5f 92 19 ba 74 d4 0e 00 74 95 c8 bc 32 6e 0b 80
       -0.0005858298 1.361911e-39 -0.024485327 -1.049721e-39
000160 72 fe 6b bd 83 0a 5b 3c 67 d3 f8 bc 9e ca 01 00
       -0.057615705 0.013369205 -0.030374242 1.64521e-40
000170 90 05 07 00 ad 65 02 80 5c c8 51 bd 44 f0 04 80
       6.44844e-40 -2.20145e-40 -0.05121647 -4.53533e-40
000180 bb 1c 2d bc 34 e6 03 80 d4 37 14 2e e7 7a 01 80
       -0.010565932 -3.58088e-40 3.370089e-11 -1.35925e-40
000190 22 c6 ee b0 83 01 47 ae 25 5c 0d 00 a8 01 a4 bc
       -1.7373092e-09 -4.5248704e-11 1.226917e-39 -0.020020321
0001a0 e0 9b 85 38 e5 a0 a5 bc 5c aa 06 80 4c cf e7 3b
       6.370968e-05 -0.020218322 -6.12126e-40 0.0070742723
0001b0 d5 00 0b 00 1b 9e 0c 80 97 0d 00 80 57 9d ef 3b
       1.010489e-39 -1.158744e-39 -4.875e-42 0.0073124575
0001c0 60 08 d6 3a 91 21 00 80 a1 ce b6 2b cb 8e 22 bd
       0.00163294 -1.2041e-41 1.2989229e-12 -0.03968696
0001d0 de 48 99 bc e5 4d 58 a6 c1 f2 ba bc 69 32 70 3b
       -0.018711504 -7.504562e-16 -0.022820832 0.003665114
0001e0 8d f6 2e bd 62 17 02 00 bc c7 75 ba ce eb 7e 36
       -0.042715598 1.92059e-40 -0.0009375771 3.7986206e-06
0001f0 11 0a a2 bc da a9 25 39 29 fa 0c 80 73 32 1c a2
       -0.01978019 0.00015798901 -1.191767e-39 -2.116865e-18
000200 42 83 22 bd e5 5c 96 bc 9d 89 08 80 76 ad d9 b7
       -0.03967596 -0.018354842 -7.8405e-40 -2.594919e-05
000210 b3 42 06 00 4f f1 9b bc c8 f6 00 00 16 b2 23 bc
       5.7494e-40 -0.019035963 8.8528e-41 -0.009991189
000220 19 12 00 00 30 e3 04 80 6f 6f 77 9b 43 7d 0a 80
       6.492e-42 -4.48842e-40 -2.0467367e-22 -9.6329e-40
000230 b6 1f b6 3a 42 e2 01 00 df b5 0d 00 11 6b 39 ba
       0.0013894949 1.73002e-40 1.259105e-39 -0.0007073144
000240 aa 16 01 80 64 3c 12 b9 d5 74 05 80 72 68 07 00
       -9.9966e-41 -0.00013946142 -5.01089e-40 6.80316e-40
000250 ca b3 b5 bc 66 d9 09 80 a2 41 0b 80 e1 12 07 bc
       -0.022180457 -9.04507e-40 -1.033735e-39 -0.008244247
000260 be 20 23 bd d9 f6 01 80 b6 43 0d 00 b6 b0 06 00
       -0.039826147 -1.80388e-40 1.218152e-39 6.14405e-40
000270 53 5e c5 bb ff f3 9c bb e4 07 05 80 8e c0 06 00
       -0.006023207 -0.004789829 -4.62008e-40 6.20089e-40
000280 7d 8d 07 80 41 f8 17 bd 24 af 0c 00 85 b7 6b ba
       -6.93605e-40 -0.037101988 1.164855e-39 -0.0008991885
000290 82 b9 00 bc 91 f7 28 9c 09 26 04 00 3c 40 07 00
       -0.0078567285 -5.590651e-22 3.80986e-40 6.65891e-40
0002a0 63 d6 1a bc ab 55 c5 16 c3 b9 09 00 c2 bc 88 3b
       -0.009450528 3.188113e-25 8.93158e-40 0.0041728923
0002b0 8a ce 17 3c b4 2d be bb e1 c5 0a 80 fd c1 0a bc
       0.009265551 -0.005803788 -9.8934e-40 -0.008469102
0002c0 5a 87 0b 00 7b 14 f6 bb ff 44 0f 80 73 0f ad ab
       1.058745e-39 -0.0075097657 -1.402284e-39 -1.2296677e-12
0002d0 96 72 40 b8 1c b0 06 00 41 dc 03 00 3c 93 09 00
       -4.5883084e-05 6.14189e-40 3.54519e-40 8.79337e-40
0002e0 86 af b1 bc 6d 87 0a bc 44 e6 70 3a 5f 90 43 3c
       -0.021690141 -0.00845514 0.00091895857 0.011936276
0002f0 af fc bb 3a fc 66 02 80 8a 29 0a 00 4b 10 e5 bb
       0.0014342273 -2.20615e-40 9.33256e-40 -0.0069904677
000300 fd e7 00 80 13 5b 0c 00 bf a5 07 00 12 fb 77 bc
       -8.3222e-41 1.134697e-39 7.02307e-40 -0.015135543
000310 2e 54 c7 b6 c2 72 09 00 3c 52 0d 00 07 14 43 bb
       -5.940462e-06 8.67687e-40 1.223362e-39 -0.0029766576
000320 4a 29 0e 00 71 ee 04 00 15 33 0c 80 6a cc 90 bb
       1.300509e-39 4.52879e-40 -1.120351e-39 -0.0044188993
000330 64 94 7d bb 4c 94 00 00 de f0 03 00 fc 1c 04 80
       -0.0038693184 5.3199e-41 3.61913e-40 -3.7774e-40
000340 e8 3c e3 b7 5f f6 6c 21 79 26 06 80 19 53 6a 3c
       -2.708887e-05 8.028598e-19 -5.64814e-40 0.014302039
000350 ef 2c 8a 35 26 f9 03 80 5e 3d 1d bd a7 cb 05 00
       1.0294879e-06 -3.64884e-40 -0.038388602 5.32234e-40
000360 65 7e 0e 3c 21 91 27 bc 8c 04 9b bc 94 79 0c 00
       0.008697127 -0.0102274725 -0.018923067 1.14564e-39
000370 3a 7a 09 00 6f d2 0b 80 c5 be 1b 3c 9f f7 06 80
       8.70366e-40 -1.08568e-39 0.009505932 -6.39843e-40
000380 a8 ce 49 38 77 cf 0c 80 8a c1 07 80 53 c1 0a 80
       4.8114598e-05 -1.17645e-39 -7.12277e-40 -9.87707e-40
000390 a5 80 04 00 f4 52 01 80 26 e6 0a 80 12 ad 81 3c
       4.13491e-40 -1.21593e-40 -1.000917e-39 0.015829597
0003a0 e0 82 7a ad d6 3e 79 bc 3b ec 05 80 b3 ff be b9
       -1.4239915e-11 -0.015212735 -5.43921e-40 -0.00036430135
0003b0 b4 30 07 00 1d 51 0c 00 f8 a9 05 00 6e 5f b1 bc
       6.6032e-40 1.131124e-39 5.20151e-40 -0.02165195
0003c0 37 82 17 37 b0 ef 01 80 c4 dc 04 80 f2 56 83 bb
       9.030619e-06 -1.77819e-40 -4.46538e-40 -0.0040081674
0003d0 22 08 8b bb bd 1c 02 80 9f 6a e0 bb ea 21 7a bc
       -0.004242913 -1.9398e-40 -0.0068486477 -0.015266875
0003e0 5c 10 dd bc f3 4e 00 00 a5 1d 59 b4 2e 2d 00 80
       -0.02698534 2.8322e-41 -2.0220484e-07 -1.6207e-41
0003f0 80 cd 8b 3a 35 9c f0 bc 7a a9 02 00 6f 2c 05 80
       0.0010666102 -0.02937136 2.44468e-40 -4.75117e-40

bias f4 [128]
000000 8f 82 b4 b8 47 12 ba 3e ca 48 50 be e0 b8 0f b8
       -8.607387e-05 0.3634207 -0.20340267 -3.4266035e-05
000010 dd 40 13 be cc 68 64 8b 33 4b 24 3e e8 af 95 b9
       -0.14380212 -4.3990043e-32 0.16044311 -0.00028550555
000020 0d cc 85 bb ff e0 47 bc 8a 85 d6 bc 2b 9e 4a be
       -0.0040831626 -0.012199639 -0.026186723 -0.19786899
000030 15 f6 b4 91 cf b4 30 3e 1d ca 49 bc 6f df 97 3e
       -2.8550652e-28 0.17256473 -0.012316254 0.29662654
000040 6b 24 3c be 59 49 95 a4 f8 43 87 9c 06 68 3f bb
       -0.18373267 -6.4742705e-17 -8.95112e-22 -0.002920629
000050 fb 5e ce 3e 57 18 a9 bd 4b 85 92 bc d3 02 b8 ba
       0.4030684 -0.082565956 -0.017885825 -0.0014038928
000060 60 39 2a 3e ed 12 24 b8 83 b1 f1 3e ec f5 55 ae
       0.1662345 -3.9118273e-05 0.47205743 -4.8649015e-11
000070 f7 66 a2 bc 3b dd 23 ba 9a 71 7e 3e 0b f8 7b 3e
       -0.019824488 -0.00062509225 0.24848023 0.2460634
000080 96 6b 3f b9 08 f5 53 98 df 43 f9 bb e2 ed 78 b9
       -0.00018255258 -2.739482e-24 -0.007606968 -0.00023739741
000090 da 3b 1d bc 42 9a 0d bd c3 e1 43 ba a8 aa 4d bd
       -0.009596789 -0.03457094 -0.0007472301 -0.05021158
0000a0 1a 9e 00 b9 67 de 2d be fd cc 8b ba fa 92 14 bb
       -0.00012265929 -0.16979371 -0.001066595 -0.0022670613
0000b0 25 df e6 3a 3c 31 7b ac ce f2 1d be 31 28 ad bc
       0.001761411 -3.5696576e-12 -0.15424654 -0.021137329
0000c0 fe ea f5 bc 23 05 19 b6 47 d3 12 b9 99 4d ad ba
       -0.03001928 -2.2801767e-06 -0.00014002352 -0.0013221978
0000d0 dd be 59 3e 8a 83 fd bc aa 5c b3 bc 17 4c 99 3e
       0.21264215 -0.030946512 -0.021894772 0.29940864
0000e0 7d f9 ec bd aa ef cb bd b3 7d 57 a9 4f 95 02 ac
       -0.115710236 -0.09957822 -4.7848617e-14 -1.8556994e-12
0000f0 5d e7 b6 ba 8f 7d d8 b8 4b 3e 27 b4 e6 54 92 bb
       -0.001395445 -0.0001032307 -1.5575749e-07 -0.004465687
000100 ce a4 25 bb 32 95 21 be b1 07 68 b7 f7 c2 98 b9
       -0.0025275233 -0.1577957 -1.3830068e-05 -0.0002913696
000110 31 f3 83 be f1 63 87 8f 0b 4c ef 3e 0f 5b ec ba
       -0.25771478 -1.3350524e-29 0.46737704 -0.0018032509
000120 05 63 55 3e 9f 37 99 bb 3e e8 d4 b3 3f cb 4d be
       0.20838554 -0.00467582 -9.914264e-08 -0.20097063
000130 93 a0 f9 b9 f9 68 13 be 6a cc af bc f4 3b 13 bb
       -0.00047612618 -0.14395513 -0.021459777 -0.0022466155
000140 2b 08 7b be 07 48 f6 ae e4 9b 78 3e 8c 36 bb bc
       -0.24514835 -1.11995795e-10 0.24278218 -0.022853158
000150 e5 d9 98 a9 6c f3 d6 b4 f0 89 2a bd c3 36 7d bb
       -6.787955e-14 -4.003772e-07 -0.041635454 -0.0038637377
000160 11 40 eb 3d b2 79 de 3e ad 37 07 b0 33 37 3a 3c
       0.11486829 0.4345222 -4.9191834e-10 0.0113657
000170 2b d2 78 ba 55 89 aa b8 d1 7b a6 97 7d d2 31 bd
       -0.00094917667 -8.131812e-05 -1.0758754e-24 -0.043413628
000180 28 4b 1c b1 66 66 8c bc e6 52 a4 be da 21 27 ba
       -2.274371e-09 -0.017138671 -0.32094496 -0.0006375589
000190 00 ed e0 9e 61 b1 60 be 52 55 a1 be 73 bd 56 3e
       -2.3814943e-20 -0.21942665 -0.31510407 0.20970707
0001a0 57 61 f4 ba 19 29 4f aa 43 8f 12 3d 82 e1 aa 3d
       -0.0018644732 -1.8399552e-13 0.035781156 0.083437935
0001b0 12 0b 8a bb 90 6f 5b 3e 12 87 55 be 51 1f ca be
       -0.0042127455 0.21429276 -0.20852306 -0.39477018
0001c0 ce 70 41 be d2 72 5e ba 4e 8f 17 3d b5 27 b0 3e
       -0.18890688 -0.00084857375 0.0370019 0.34405294
0001d0 55 12 b1 3a 0a 8d 5a bb f2 3a 06 b7 e5 55 12 ac
       0.0013509492 -0.0033348226 -8.000747e-06 -2.079553e-12
0001e0 c2 2b 62 ba 67 15 7d 3e 3b 99 53 bd b2 8c 22 bd
       -0.0008627736 0.24715196 -0.051659804 -0.03968496
0001f0 15 df 19 3e 69 26 1a ba eb c3 7a 3e 72 b6 57 bb
       0.15026505 -0.00058803573 0.244888 -0.0032915142
