Model/full_gcn_cwe_119_test_lr_0005_p5_01.pth (torch, 349065 bytes, 11 tensors)

bias f4 [128]
00000000: 2dc9 f63e 9906 8fbe 0117 b33e e202 a53e
00000010: 7dbd 60bd eb26 043f 42cd 0700 717e d43e
00000020: c63e a2be 6569 82be 48c6 bdb9 32c7 173f
00000030: 2bfa 8b8c b24e 66be 065a 26bd 9554 a33e
00000040: 365a 0cbe baba 0580 f853 26bd 15bf 583f
00000050: 32c3 d315 a858 9eba 1fc1 4fbe 13c5 ec26
00000060: 91f5 07bd da92 ae3e e855 46bb ed4f a7be
00000070: a159 76a4 e5d3 2cbe e118 993d 2594 383e
00000080: f90a d5bd 8d20 92be 322d 0480 e0d6 e5b5
00000090: 995d 110a 9e02 c63b 6be1 d6af 2522 dabd
000000a0: 0ac7 353e 3b2f 19a5 144d 63af 6daf f6bc
000000b0: dfb2 2492 48a3 6d3d fe68 09bc 997e b0be
000000c0: a1cd d9bd bf19 cfbb 6a81 9bbe 123f 803d
000000d0: 8f56 26b3 e6a9 4cbc 80ca 3abe 8edb 643f
000000e0: c7ec 0f80 ca69 93be c14d cbbd 461e 48b1
000000f0: d7f1 85be 70a9 c9be 7167 51bf 2bd7 2ebe
00000100: 8f3e cdbd 2bf9 113c 5191 8f3e 7f5e cba1
00000110: 116a babc c940 4bbd 8201 8aba 3107 ebbe
00000120: 84cc d83e e2e0 ff3d 48f8 0500 ac6c fdb4
00000130: 0c7f 2f90 bb44 0380 6f74 2abe 5745 3cbe
00000140: a7ed 5d12 1866 36bb 6f9b 0380 c44f 0cbe
00000150: e388 a6be 92e6 0500 2a0b ed3e 028f 0bbf
00000160: c2de 3ebe d4aa bf3d a8f7 39be 8c68 03b9
00000170: f867 813e 6d66 613d e202 a2be 8545 3f3e
00000180: bd57 203f 2347 0780 e820 1bb8 8abd d13e
00000190: e3b8 7ebe 24aa c0b4 681e 10bf c94b 05bb
000001a0: 2628 abbb e8b5 3298 ba7a 61be 2b3e c0be
000001b0: 1b3b 3fbe 3520 113f b1c1 183f 2a38 0cbf
000001c0: c7d9 513f 7996 c3b7 a906 46b6 1d13 9c3e
000001d0: f091 d6be b911 34be 96a8 45bc 0e5c d5a5
000001e0: 851e 1cbf db80 beb3 0aab 0500 8d2b 0ebe
000001f0: c75e c9be 491d 61bc 9f4c bbba d64f 8f10
0.4820036 -0.2793472 0.34978488 0.32228762 -0.05486821 0.51621884 7.16481e-40 0.41502717
-0.31688517 -0.25471035 -0.0003619662 0.5928832 -2.1566905e-31 -0.22490957 -0.040613197 0.31900468
-0.13706288 -5.26162e-40 -0.040607423 0.8466657 8.5530185e-26 -0.0012080865 -0.20288514 1.6429207e-15
-0.033193175 0.34096414 -0.0030263606 -0.32678166 -5.3418666e-17 -0.16877706 0.074754484 0.18025263
-0.104024835 -0.2854046 -3.83555e-40 -1.7124366e-06 6.9991e-33 0.0060427925 -3.9086542e-10 -0.10651044
0.17751709 -1.3286637e-16 -2.0672913e-10 -0.030112946 -5.196975e-28 0.058017045 -0.0083868485 -0.34471586
-0.10634924 -0.006320208 -0.30372173 0.0626203 -3.872861e-08 -0.012491679 -0.1824131 0.89397514
-1.462472e-39 -0.28791648 -0.0992694 -2.912104e-09 -0.26161072 -0.39387083 -0.81798464 -0.17074268
-0.10021698 0.008909504 0.28040555 -1.3780828e-18 -0.022755655 -0.04962233 -0.0010529014 -0.45903924
0.42343533 0.12494065 5.48244e-40 -4.7203991e-07 -3.4610538e-29 -3.00162e-40 -0.16645978 -0.18385826
7.0028233e-28 -0.0027831849 -3.31266e-40 -0.13702303 -0.3252631 5.4189e-40 0.4629758 -0.5451509
-0.18639663 0.09358755 -0.1816088 -0.0001253208 0.25274634 0.05502932 -0.31642824 0.18678863
0.6263388 -6.68368e-40 -3.6985526e-05 0.4096492 -0.24875216 -3.588658e-07 -0.56296396 -0.002033936
-0.005223292 -2.30978e-24 -0.22019473 -0.3754743 -0.1867489 0.5668977 0.5967055 -0.547732
0.81972927 -2.331588e-05 -2.9508176e-06 0.30483332 -0.41908216 -0.17584886 -0.01206412 -3.701199e-16
-0.6098407 -8.871003e-08 5.20535e-40 -0.13883801 -0.39330122 -0.013739892 -0.0014289803 5.652656e-29

weight f4 [128, 2]
00000000: 6bbf d03d 2207 52bf 6493 5abd 4d0e 3abe
00000010: 743c 883d 80fb 85bf 689f 9bbd dbcb 31bf
00000020: 32b4 c3bc a582 74bc eb03 65be c64f 12be
00000030: 2d3d 83ba 928a 0400 b26c 02bd ee0c 3ebf
00000040: d3b9 dfbd 5231 1c3d bcd3 13bd dd56 63be
00000050: adb0 a3bb 2ed6 6ebc 1cc9 2c3d 3cc7 85bf
00000060: 12ea e2bb 9e5b 6b94 8287 91bc 40a6 1dbe
00000070: c672 96bd f8a5 2fbd 1b93 88be 79f3 b93e
00000080: 7df9 0a3e 3b95 c6be fc75 81ba c932 0780
00000090: 7c9f 9cbd 44a3 03bd f1d4 073d 3549 40bf
000000a0: 149b 90ad 479c d2af 3265 28bc 6c28 3fbb
000000b0: e95c fbbc 3a48 01bd b76d ebbb 986a 05ac
000000c0: cab4 9fbe f355 873e b283 78be 8930 fe39
000000d0: e7f5 dcbc 4e70 39bc edb0 50ba 65fb 44bd
000000e0: 8978 86bc 4c2a 89b5 a3c9 46bb 756a 8d3a
000000f0: 32e5 4abe 9c6c 763d 30f4 4dbe 2a2b 1cbc
00000100: bd1c 01be a3a3 e1bd 6443 cbbc a69b c53c
00000110: 7179 5fa0 679e 0600 18b0 8bb8 fb4f 81bc
00000120: f745 3dba d7be 15a0 00d8 22bb 9479 6cbe
00000130: 0058 19bc a441 d3b3 d341 02bc 3b49 82bd
00000140: 7eaf 9abe ad26 f73d f907 5bbb d7b6 86af
00000150: f455 7cbc 59b1 c6b3 36ea 81bd 057b 26bd
00000160: 8091 d7a7 ed0c f3b0 8d09 9ebb c3b3 c0be
00000170: 30e1 34bd 7004 2fbc 3e36 28be e62a a53d
00000180: 7769 63bc bb4c ddbc 944d bebc 2967 39bc
00000190: f42d 24bd 5ec6 533d 6096 56be 54a2 bc3e
000001a0: 48f5 adbb 1c1a 05b6 24c8 25bd c6b3 a8bc
000001b0: 8f55 40bd be33 923c 706f aa3c 3f09 81bf
000001c0: d642 caad ac47 0000 f385 cc3d a737 cdbd
000001d0: 483d cdbd 1189 b1bd 2e29 0dba f09c 9cb2
000001e0: 814c 0abe f9bc 493d 1bcf 9abd 82a3 a9be
000001f0: a6ea 163d 565f 4fbe 5ddf 81bb 0852 ab3a
00000200: 11d5 8fbd ab9f 953b 9e61 4dbd e707 babc
00000210: eabd 3bbd 9960 abbe d419 84bc f0a5 72ab
00000220: 19f5 05bc b265 d7bc 4929 9138 1fd9 4cbe
00000230: 0620 13bc e240 01bc 1ead bfba 0930 aebe
00000240: 4569 a9be 25a3 113e 2dc0 1abd 02d3 ecbd
00000250: a932 04bc b107 0400 5e04 bebb c3d8 59ba
00000260: edbe 06b1 bd59 84b5 4fc2 13bb d512 0200
00000270: d417 37ba 6232 82bc 4ec1 e3ba 3050 72bd
00000280: 3893 cbac c80c e7b8 d393 4bbc 7b77 d1bb
00000290: c2d9 d9bb 9b8b 0380 8c28 e6be f90f 453e
000002a0: 3dc2 213c a67c 2c3b 3a6a 17bc 5372 0500
000002b0: 7b6b a1be b79d c43d 268f b3bb 929c 2a3e
000002c0: 2f1a 80be ea41 cd3d 8d28 46be 40b4 ac3e
000002d0: 975d cbbd 993d 7abe 63b2 5cb5 23fa 92b9
000002e0: c8f4 a1be 5614 133e fd6f bfbe b4f4 383d
000002f0: 9e52 e33d 3acb e3bd c071 6dbe a649 ae3e
00000300: 46de 4b3c fed9 49bf da98 5cb2 254c a7a4
00000310: 51ce d0b8 6314 b9b9 f56b f2bd c9a5 19be
00000320: 3175 02be 39cd 5f3e 45b0 e3bb 1b3c 31ba
00000330: 60ce 2e3e c400 153e 7a73 bbba b474 e4bb
00000340: a1d5 19bc cd97 3ebc a7ed 4cbb 3afe 9e91
00000350: f68f 983d 81a0 8fbd 8d39 aaba 31f7 3b3c
00000360: 4801 6839 9375 6cbe 1003 babe d79d e83d
00000370: 13f2 7a3b 9aaf d8be 2889 15be 3a39 8f3e
00000380: eff5 b83c 8419 37bf 009b 56bc 24d6 c6b9
00000390: 6319 39bc c06e 00b9 7b5f d2bc f9b5 03bf
000003a0: 48bb aa3d c686 363e 1ce7 86bc af54 2cbb
000003b0: 2dc5 9dbb 8a0e fdbd 3cf4 42bc 0e17 f2ab
000003c0: 37d7 ee3a 2a55 1b3f 3add 03bc 532d cfb6
000003d0: fb1f 04bc 1b32 0100 4135 c8bd 6508 6a3c
000003e0: 49d0 acbd 2cf8 8e3d eeac 7abc 4761 1cbd
000003f0: 6b9a d0bb bf8c d4bd c385 35bc 8031 4500
0.1019276 -0.82042134 -0.05336322 -0.18169518 0.066521555 -1.0467377 -0.07598764 -0.69451684
-0.023889635 -0.014923726 -0.22364776 -0.14288244 -0.0010012739 4.17052e-40 -0.03184194 -0.7423848
-0.10924115 0.038132973 -0.036090598 -0.22201104 -0.0049954266 -0.014577432 0.04218398 -1.0451427
-0.006924876 -1.1882536e-26 -0.01776481 -0.1539545 -0.0734611 -0.04288289 -0.26674733 0.36318567
0.13571735 -0.3878573 -0.0009877081 -6.61067e-40 -0.07647607 -0.032138124 0.03316206 -0.75111705
-1.6439773e-11 -3.830982e-10 -0.010278033 -0.002916838 -0.030683951 -0.03156302 -0.00718471 -1.8959608e-12
-0.3119262 0.26432762 -0.24268988 0.00048482817 -0.026972724 -0.011318279 -0.00079609343 -0.04809131
-0.016414898 -1.0219605e-06 -0.0030332587 0.0010789173 -0.19813994 0.06016217 -0.20112681 -0.0095317755
-0.12608619 -0.11017539 -0.024812408 0.02412207 -1.8929016e-19 6.07837e-40 -6.6608365e-05 -0.015785208
-0.00072202034 -1.2683935e-19 -0.0024847984 -0.23093253 -0.00935936 -9.837393e-08 -0.007950264 -0.06361624
-0.30212015 0.12067924 -0.00334215 -2.4504374e-10 -0.015401352 -9.252353e-08 -0.063435 -0.040644664
-5.983224e-15 -1.7684251e-09 -0.004822916 -0.37637147 -0.044160068 -0.01068221 -0.16426942 0.08064823
-0.013880125 -0.027014127 -0.023230352 -0.011316099 -0.040082887 0.05170285 -0.20955801 0.36842597
-0.005308781 -1.9833742e-06 -0.040474072 -0.020593535 -0.046956595 0.017846938 0.02080509 -1.0080947
-2.2994422e-11 2.5711e-41 0.09986486 -0.100203805 -0.10021454 -0.086687215 -0.00053848594 -1.8232157e-08
-0.13505746 0.049252484 -0.075590335 -0.3313256 0.036844872 -0.20251212 -0.0039633946 0.0013070712
-0.07023061 0.004566153 -0.050141923 -0.022708846 -0.045835413 -0.33472136 -0.016125597 -8.6205956e-13
-0.008176112 -0.02629361 6.921829e-05 -0.200047 -0.008979803 -0.007889004 -0.0014623736 -0.34021023
-0.33088127 0.14222391 -0.03778093 -0.11563684 -0.008068719 3.70101e-40 -0.0057988605 -0.0008310193
-1.9608095e-09 -9.860884e-07 -0.0022546237 1.90427e-40 -0.00069844467 -0.015893165 -0.0017376335 -0.059158504
-5.7859516e-12 -0.00011017319 -0.012425381 -0.006392417 -0.006648273 -3.25587e-40 -0.4495281 0.19244374
0.00987297 0.0026319413 -0.009241635 5.00189e-40 -0.31527314 0.09600394 -0.005479711 0.1666129
-0.25019976 0.10022338 -0.19351406 0.3373127 -0.0992996 -0.2443756 -8.2215973e-07 -0.00028033656
-0.31632066 0.14363226 -0.37390128 0.045155242 0.11099742 -0.11122747 -0.23187923 0.34040564
0.012443131 -0.78848255 -1.284044e-08 -7.25537e-17 -9.956642e-05 -0.0003530114 -0.118369974 -0.15004648
-0.12740017 0.2185563 -0.006948503 -0.00067609706 0.17070913 0.14551073 -0.0014301382 -0.00697192
-0.009389312 -0.011632872 -0.0031269582 -2.5084684e-28 0.07449333 -0.070130356 -0.0012987122 0.011472509
0.00022125721 -0.23091726 -0.36330462 0.113582306 0.003829126 -0.42321473 -0.14603102 0.27973348
0.022578208 -0.7152331 -0.013098478 -0.0003792505 -0.011297557 -0.00012248289 -0.025680294 -0.51449543
0.08336502 0.1782485 -0.016467623 -0.0026295593 -0.004814765 -0.12356289 -0.01189905 -1.7201533e-12
0.0018222098 0.60676825 -0.00804835 -6.174357e-06 -0.008064265 1.0981e-40 -0.097757824 0.014284228
-0.08438165 0.06980929 -0.015300019 -0.03817871 -0.0063660643 -0.10378408 -0.011079255 6.354406e-39

bias f4 [128]
00000000: faa1 0cbb a0a9 33be c6ec e8bc 89d9 24be
00000010: b6b4 1abd 91a9 70bb b3ed 32bb 635f edbd
00000020: 05f0 b2b8 c761 8bbd 8acd 13be e3fd 2dbc
00000030: c006 e8bd 0dc3 6dba 6cd5 adbc b93f eeb8
00000040: da99 d13c 564a 1abe ac17 7a3e ad33 c5bc
00000050: 76f9 54bb 4d0a 0fbc 1b8f 27ba 0f32 4ebb
00000060: 67e1 a7bd 3ccd 953e 61c8 173f 4211 04a1
00000070: bd80 32bd 6201 dcbc 8644 8ebd 2209 38bc
00000080: edbc d13e 11cc 41be 00e1 d8bc d7fc 03bf
00000090: a587 dbbd c692 273e fb3e 0dbe a14c 873e
000000a0: 1970 613e e5a7 51be 8d22 ffbd a707 47bd
000000b0: 905b 8c3e b128 02b8 d777 b33d b405 13a2
000000c0: c9e5 e63d 5260 aa9d 6b8f 8ebd bf65 01bd
000000d0: 3376 55bc f0a3 28bc 7117 81b9 9189 11bd
000000e0: 924f adbc 5032 13bb 4125 cebd 3ce5 cabd
000000f0: 3cbd a53e 92d0 5a3e 007f 273e f2ea e9bd
00000100: c23d 66b9 8faf eebd f137 83be 9aed 27bd
00000110: a59a 48bc 8ffe 88bd 0c5c abbc 9077 7a3d
00000120: 626c be3e a982 083d ab82 283d 676d 5fbd
00000130: ef36 3fbd 191a 9cbc 16de 0dbd 50ce b8bc
00000140: 40cf bdb4 2450 c6ba c48f 8cbc 6a2b ada0
00000150: 1654 8c3e b28c 52be 0092 0bbd 28e4 3d3e
00000160: cc6d 1bb8 4818 14bc 08db e4bd f3e4 c2bd
00000170: 9352 aeab adec c396 e6f1 09bd 9504 83bd
00000180: c132 9fbe ac80 12be b950 16be 13be 60bd
00000190: 5a07 3cba bdb6 22be 397e 103e e726 3abe
000001a0: 7729 d63d a1bc 15be 6d34 f2bd 833e fc3c
000001b0: eb36 ecbc 82ac a3ab ec30 c8bd 307f 6fb2
000001c0: b5b0 413e 79c4 84bd be4e 29bc fa7e 8dbc
000001d0: 6755 6bbd f6e6 10bd cb46 983e 853a 48b4
000001e0: eb63 d4bd b51b 22ba 6fe8 2ebe 7e00 603e
000001f0: 2366 8fbe 88f9 43bb d74c 57bb d1cf f8b9
-0.002145885 -0.17545176 -0.028433215 -0.16098608 -0.037769996 -0.0036722163 -0.0027302324 -0.11590459
-8.5324085e-05 -0.06805759 -0.14433876 -0.010619613 -0.113294125 -0.00090698974 -0.021219932 -0.000113605936
0.025586057 -0.1506742 0.24423093 -0.024072492 -0.0032497323 -0.008730483 -0.0006391869 -0.0031462943
-0.08197289 0.29258144 0.5929013 -4.474618e-19 -0.043579806 -0.026856128 -0.069466636 -0.011232646
0.4096445 -0.18925501 -0.026474476 -0.5155768 -0.107192315 0.16364583 -0.13793556 0.2642565
0.22015418 -0.20474203 -0.12457762 -0.048591282 0.27413607 -3.1032312e-05 0.08763092 -1.9925234e-18
0.11274297 -4.509822e-21 -0.069609486 -0.031591173 -0.013028669 -0.010292992 -0.00024622263 -0.035531584
-0.021156106 -0.0022460409 -0.10065699 -0.09907004 0.32370937 0.21368626 0.1635704 -0.114217654
-0.00021957516 -0.11654579 -0.25628617 -0.04099808 -0.012243901 -0.06689178 -0.020917915 0.06114918
0.37192065 0.033327732 0.04114024 -0.054547694 -0.046683248 -0.019055413 -0.034635626 -0.022559315
-3.5354788e-07 -0.0015130085 -0.017158397 -2.933607e-19 0.27407902 -0.20561484 -0.034074783 0.18544066
-3.7057136e-05 -0.009038992 -0.111745894 -0.09516325 -1.2386363e-12 -3.1653313e-25 -0.033677958 -0.06397358
-0.3109341 -0.14306897 -0.14679231 -0.05486877 -0.00071727263 -0.15890022 0.1411065 -0.18178903
0.104571275 -0.14622737 -0.11826406 0.030791527 -0.02883478 -1.1629727e-12 -0.09774956 -1.394055e-08
0.18915065 -0.06482787 -0.010333715 -0.017272461 -0.057454493 -0.03537651 0.2974151 -1.8647741e-07
-0.1037062 -0.0006183938 -0.17080854 0.21875188 -0.28007612 -0.002990337 -0.0032852197 -0.0004745708

weight f4 [128, 128]
00000000: afdd 0100 d770 0980 1857 0980 5072 0000
00000010: 32e1 0700 108f 0a80 eb7f 0900 d23f 0380
00000020: 71a1 0000 731c 1000 ff36 0100 1957 0500
00000030: 892d 0580 7ba7 0100 86cc 0780 aaac f2b2
00000040: e24b 2eaf 470d 1480 9103 0e80 deac 0400
00000050: 4532 0680 a270 0880 4e76 0780 7a60 0e00
00000060: b23c e5af c7e7 0780 40ce 0f00 9487 1780
00000070: 41bd 0980 30b1 5606 94d2 e2a0 a2d3 0900
00000080: 98bc 0200 4efc f40b 931d 1600 b85b 0b80
00000090: 1e65 0b80 d6b6 0700 2ed7 0900 6355 0300
000000a0: dff8 0880 99b2 0e00 f4b9 0b80 81df 1280
000000b0: 64a0 1500 e623 e181 f707 0c00 1c50 0580
000000c0: c19b 9482 d75c 0c80 abbe 0a00 4ad8 a5ad
000000d0: 1359 0780 e39f 0200 6476 0700 dc41 0e80
000000e0: b29e 0080 38df 4db2 7921 1900 3376 0e00
000000f0: 549b f780 4ca9 c080 a2a9 0000 0607 0580
00000100: c3d8 0a80 4fc0 0500 59e4 0680 a8b1 0f80
00000110: 39da 0080 39f9 0500 bf98 1100 ae91 0280
00000120: fe03 1bb0 368a 0480 5196 0200 0f31 0800
00000130: a807 1680 7a36 0000 b891 0400 c0ea 0180
00000140: 2370 0c80 9f0b 0a00 83b3 1400 a39f 0880
00000150: 2261 4c15 09e0 1400 f26e eaac ba90 0700
00000160: 11c2 0e00 48cd adad ade6 0f80 bdb7 0680
00000170: 47e5 0800 49e9 0c80 d75d 19ac 9dd2 9eb1
00000180: 6a2a 0000 3d69 0b00 0332 0880 1236 0200
00000190: 236b 10a8 e579 0d00 4255 c8a7 7908 0500
000001a0: 268e 0580 0830 0d00 cf80 6fad d477 96af
000001b0: 7c75 1080 d9ac 0280 e4ce 0d80 53b6 b486
000001c0: ddd4 0980 90e1 0b80 a7bb 0c80 c2d5 0680
000001d0: e07e 95b6 bc2a 0080 471d 0680 0567 0200
000001e0: 91ef 01b3 934f 0d80 7c63 0b80 218d 0280
000001f0: b9ff 0380 01e4 0680 03eb 0100 d365 0580
00000200: 2116 84bd 3542 f4bc a657 13be 60af 78bd
00000210: 966e 3b3d c98f 68bb cd8c 0380 a0b4 b83c
00000220: dc30 cc3c 1e1b 9a3c c91b 0200 2434 86bd
00000230: b52e 0280 c0f8 2abc 14f9 10bc 3dad 473b
00000240: e7c4 39bc c697 0b80 1f25 5bb5 e157 8fbd
00000250: 9190 0980 2cbe 0180 b84f 55bc 34c2 0400
00000260: 2ed1 ed3d 8c8f 19bc b2ef 0000 efc5 eb3a
00000270: 0337 ff87 7ff0 d23b 7320 d0bd ae55 f2bc
00000280: 562e 0a80 4e7e adbd 4e3f 1300 2f86 0590
00000290: 6e8e 0780 11ca 75bd cb8d 0180 d74c d43c
000002a0: a805 253d 5b08 0a80 c9b5 a9af a522 af34
000002b0: 3cf1 0d80 27c0 6f3d bcd8 0080 a6da 1abd
000002c0: 42e6 803d ffba c585 0fcc 8fbd a63a b13d
000002d0: cc2b 0700 8809 b603 1e96 4a3d 9d86 99bd
000002e0: ef56 0100 d81e 1cbe 6df6 1680 a52e 0380
000002f0: 79ed c73c 712c 4e3d c275 8cbc 7963 00bd
00000300: d432 183e f202 2fb2 85d4 20bd be14 0500
00000310: 4dbe 9b3c 604c 59bd 78fc 2b88 5a52 acbc
00000320: a83b 14bd 0d3e bebb 8b80 0580 5ef4 1c98
00000330: 3c8a 0600 eafa 0680 6259 8dbd a5a2 56bd
00000340: cebe 0500 ee0c 0580 e753 0580 e3e1 84bd
00000350: d89a 7f3c 7781 0180 91a5 6e3d 5566 15be
00000360: bda0 87bd b04f 06bc b405 bd14 c000 2613
00000370: baf7 fa3c 6483 373d 64b2 53be 131b 7dbc
00000380: bc24 bebc 8107 0980 ac1a 0880 8ca5 a0bd
00000390: 63ea b33d 3c78 b5ba 157c bd3d 02cd 0f3c
000003a0: 8616 02bd 3403 b18a 83aa 9b3c f4d5 d9bd
000003b0: d219 b3bd 49d4 1bbe 4e25 37bd 8a56 a5bc
000003c0: 1b53 6aba b92c 0500 7edf 0700 dc31 073d
000003d0: eb39 11bc 4949 523c b850 22bd 455b 0080
000003e0: af1b 96bd d783 b4ac 6c63 0300 7d00 5c3d
000003f0: 3e52 2abd 85b4 94b3 bf7f 9f9a 6fdc 6336
1.7136e-40 -8.66999e-40 -8.57763e-40 4.1008e-41 7.23633e-40 -9.69676e-40 8.72408e-40 -2.98401e-40
5.7914e-41 1.479574e-39 1.11564e-40 4.90422e-40 -4.75512e-40 1.51916e-40 -7.16218e-40 -2.8251026e-08
-1.5852167e-10 -1.841473e-39 -1.286976e-39 4.29355e-40 -5.69046e-40 -7.75089e-40 -6.85288e-40 1.320306e-39
-4.1697984e-10 -7.25995e-40 1.451521e-39 -2.160853e-39 -8.94411e-40 4.0379103e-35 -3.8425238e-19 9.02439e-40
2.51326e-40 9.436501e-32 2.03099e-39 -1.043093e-39 -1.046464e-39 7.08438e-40 9.03711e-40 3.06137e-40
-8.23962e-40 1.349766e-39 -1.076898e-39 -1.733217e-39 1.986083e-39 -8.270346e-38 1.104883e-39 -4.87915e-40
-2.1836044e-37 -1.13533e-39 9.86754e-40 -1.885438e-11 -6.74802e-40 2.41028e-40 6.85319e-40 -1.309323e-39
-5.6929e-41 -1.19833246e-08 2.307895e-39 1.328099e-39 -2.2739089e-38 -1.7693148e-38 6.0853e-41 -4.61697e-40
-9.96114e-40 5.28165e-40 -6.32929e-40 -1.441263e-39 -7.8284e-41 5.48582e-40 1.615998e-39 -2.35931e-40
-5.6394345e-10 -4.16923e-40 2.37594e-40 7.52283e-40 -2.023127e-39 1.9543e-41 4.19616e-40 -1.76048e-40
-1.142253e-39 9.22524e-40 1.901107e-39 -7.91951e-40 4.1274096e-26 1.917079e-39 -6.6629974e-12 6.94767e-40
1.355315e-39 -1.9758986e-11 -1.460283e-39 -6.16926e-40 8.16933e-40 -1.185713e-39 -2.17947e-12 -4.622349e-09
1.5215e-41 1.047943e-39 -7.52625e-40 2.03068e-40 -8.016837e-15 1.237589e-39 -5.560359e-15 4.62217e-40
-5.10171e-40 1.211092e-39 -1.3614178e-11 -2.7369984e-10 -1.511513e-39 -2.45677e-40 -1.26808e-39 -6.7976376e-35
-9.0288e-40 -1.091107e-39 -1.169343e-39 -6.27695e-40 -4.4553162e-06 -1.533e-41 -5.61516e-40 2.20627e-40
-3.0253037e-08 -1.222407e-39 -1.045879e-39 -2.34299e-40 -3.67242e-40 -6.32805e-40 1.76142e-40 -4.95705e-40
-0.06449533 -0.029816726 -0.14388904 -0.060714126 0.04575976 -0.0035486093 -3.26016e-40 0.022547066
0.024925642 0.018811759 1.93638e-40 -0.06552914 -2.00426e-40 -0.010435283 -0.008848447 0.0030468248
-0.011338449 -1.064637e-39 -8.1637876e-07 -0.069991834 -8.7838e-40 -1.60056e-40 -0.013019495 4.37009e-40
0.116121635 -0.009372603 8.5986e-41 0.0017988066 -3.8400469e-34 0.006437361 -0.10162439 -0.02958187
-9.34977e-40 -0.08471356 1.767584e-39 -2.6332996e-29 -6.93943e-40 -0.06000716 -1.42701e-40 0.025915546
0.040288597 -9.21352e-40 -3.0870087e-10 3.2621497e-07 -1.2804e-39 0.05853286 -7.775e-41 -0.037806176
0.06293918 -1.8594482e-35 -0.07021343 0.086537644 6.5856e-40 1.0699187e-36 0.04945957 -0.074963786
1.23021e-40 -0.15246141 -2.108782e-39 -2.9224e-40 0.024405228 0.05033535 -0.017145995 -0.031344865
0.1486314 -1.018701e-08 -0.039265174 4.66618e-40 0.01901164 -0.053051353 -5.1755216e-34 -0.021035362
-0.036189705 -0.005805737 -5.0529e-40 -2.0285901e-24 6.00602e-40 -6.41024e-40 -0.06901814 -0.052401204
5.27625e-40 -4.63816e-40 -4.89276e-40 -0.06488397 0.0156008825 -1.38279e-40 0.058263365 -0.14589818
-0.06622455 -0.00819771 1.9086373e-26 2.0952515e-27 0.030635703 0.04480304 -0.2067352 -0.0154483495
-0.023210876 -8.29211e-40 -7.44252e-40 -0.078440756 0.0878494 -0.0013845037 0.092521824 0.008776905
-0.03175976 -1.7045685e-32 0.019002205 -0.106365114 -0.08745159 -0.15217699 -0.04471331 -0.020182867
-0.0008938775 4.75221e-40 7.23022e-40 0.033006534 -0.008863906 0.012834855 -0.03962776 -3.2741e-41
-0.07329499 -5.130545e-12 3.11172e-40 0.053711403 -0.04158234 -6.9246234e-08 -6.5967244e-23 3.3953945e-06

bias f4 [128]
00000000: 7c5c 0c3f 6b45 32bb e797 d1bd cb14 09be
00000010: c00c 9abc 6b98 5abd 6f3c a4bd 4f42 76bb
00000020: 6d97 a8bb d775 9abc 3424 f8bd a468 63be
00000030: 049a 9ebd c7b1 39be ab1e f43b b962 acbd
00000040: c1e2 72bd 1ffe 34bc 13a7 3cbd 3652 9bbc
00000050: 2131 5e3d c310 42b8 32ae 96b6 deaa 8fbd
00000060: 6b09 15be 99ff c8bc b59e d9bb 3f8e 76bc
00000070: 2f6d 08be 578d 933e 6ce5 9eba c607 4dbe
00000080: f68f 15be e09b 2cbd 0488 39be 387a f2bc
00000090: 1ad2 b7bc 013e 203d 6e48 33bb 76fb 42bd
000000a0: 6eb4 30be 94a9 e4bd 2ad6 a79b 96e3 a3bd
000000b0: f43b 51bd eb25 22bb 40fb eabd ed36 01bc
000000c0: 73ac ed3b 2271 3aba 0ed8 3dbd 7257 31bd
000000d0: e593 62bd 8de7 a93c b3d2 87bb 2084 3cb2
000000e0: 3847 76bb 3045 8ebe c8be 0b3d fbc1 903e
000000f0: 60e0 aebd 46a4 3e3d 5973 8cbc 2c6b 20bd
00000100: c6cf a83d a026 32ba 1686 73bd d6c9 ad3e
00000110: 4187 88bd 44f0 0e3c 1445 c2bc ab3a f9bc
00000120: 5f82 06bd 5955 ecba 3a7e 110b 62a4 26bd
00000130: d705 ffbd 93e3 d4bb 9a28 1cb7 64ee 743e
00000140: c964 60be 48f1 d9bd d7f8 5cbb dd37 e7bb
00000150: 3217 32bb ea7d 77bd 8aaf debd 3f13 3cbb
00000160: e9c9 9cbd c338 9bbd 47eb 05bd 58a7 323d
00000170: 2c56 6bbd 7fc8 353d db9a 1abd 4c00 debd
00000180: 46d7 2fad 3bc8 2dbd 4abf 693d aa5e 0200
00000190: 75fd b9bd 276e 8cbd 6880 a6bc 946f fdbd
000001a0: fc53 c6bc 1b72 b9bc 88b7 81b0 2afa afbd
000001b0: 4115 ddbc ddb0 033d 3eb5 afbd 5dcc b23e
000001c0: c59a 34bc 9d00 9cbc 1294 c2bd 9d5a 96bd
000001d0: f8e2 dc3c c839 c5bd e2ec 60bd a48c b9bd
000001e0: f17b 2fbe 9c19 99bb fbeb dbbd 744b 3f3d
000001f0: 2f47 f5bc d915 fbbd 082a 0000 0a07 38be
0.5482862 -0.002720202 -0.10234051 -0.13386838 -0.018804908 -0.053368013 -0.08019339 -0.0037576144
-0.0051450045 -0.018855019 -0.1211628 -0.22207886 -0.0774422 -0.18134223 0.007449945 -0.08417267
-0.05929828 -0.011046915 -0.046057772 -0.0189601 0.05424607 -4.6268815e-05 -4.4906274e-06 -0.07015012
-0.14554374 -0.024535941 -0.006641234 -0.015048563 -0.133229 0.2881877 -0.0012122816 -0.20022497
-0.14605698 -0.04214084 -0.18118292 -0.029599294 -0.022439051 0.03912163 -0.0027356404 -0.047603093
-0.17256328 -0.11165157 -2.7766233e-22 -0.08002393 -0.051082566 -0.002474184 -0.114737034 -0.0078866305
0.0072532236 -0.0007112195 -0.046348624 -0.043296285 -0.055316824 0.020740295 -0.0041449904 -1.0973082e-08
-0.003757907 -0.2778716 0.03411749 0.28272995 -0.0853889 0.046543382 -0.017144846 -0.039164707
0.08242755 -0.00067959167 -0.059454046 0.3394305 -0.06666423 0.008724276 -0.02371458 -0.030423483
-0.032839175 -0.0018030807 2.8020947e-32 -0.04068411 -0.12452286 -0.0064968555 -9.307778e-06 0.23919064
-0.21913446 -0.10641724 -0.0033717656 -0.00705622 -0.002717447 -0.060422815 -0.10873325 -0.0028697995
-0.07655699 -0.07579186 -0.03269508 0.043616623 -0.057455227 0.04438066 -0.037745338 -0.108399004
-9.995399e-12 -0.042427283 0.057067193 2.1763e-40 -0.09081546 -0.068569474 -0.0203249 -0.123747975
-0.024209969 -0.022637418 -9.438148e-10 -0.08592637 -0.026987674 0.03215109 -0.08579491 0.34921542
-0.011023228 -0.019043261 -0.095008984 -0.07341502 0.026963696 -0.096301615 -0.05491341 -0.09060028
-0.17137124 -0.0046722423 -0.10738369 0.046702817 -0.02994117 -0.122600265 1.5078e-41 -0.17971435

weight f4 [128, 128]
00000000: c571 0939 1fc3 173d e4de c93d b0f0 b1bd
00000010: 2f87 6bbf 4cfc 593c 317d 9e3c 5d74 b53b
00000020: a1d1 0180 f481 b13d 6ae1 c8bd 5d77 32b9
00000030: e5b0 e2bd e416 f83c 5a86 1115 f660 163c
00000040: 97ea 893d 4a1a 6dbc eb3e d73e d4e0 63bc
00000050: 264a 0280 263f 9a3c e259 dfba 81e2 0d3c
00000060: 835a 69bd 626c 8cbf ce30 73bf c2dd 7132
00000070: a2e9 6b3d 339d a9bd 391b ab3d b3b3 72bb
00000080: c989 483d 17ef 363e c99e 54bf 6579 c4be
00000090: 9a8a a23d b120 c33e 4b49 003d bb8b c03e
000000a0: d801 87bb 6188 78bd 29b7 5abc 0fef 4b3e
000000b0: 8340 2bbf a0ee 5d3c ab21 b9be dfae 0900
000000c0: 3518 ef3d 70b0 0b80 ce60 fe3d b610 e43b
000000d0: 92fc 063d 6c80 c43c e016 0000 0bbc c73d
000000e0: 320c a8bb a3cc 1ebb 6413 de3d 1eac 583c
000000f0: 98e1 293e 41c7 5bbf a872 86bd dee1 8cbd
00000100: c4ba f9bb 2fc4 64bd 1334 04be 6110 a2bc
00000110: 28d6 8b3d 93fe 1a3e a254 243d 6247 213e
00000120: 1176 3ebf 3e2c c6be 0f88 2fbe 2b58 943d
00000130: b92d 1c3e 11a2 643d 4315 eb3d 2d73 9d2c
00000140: cd71 bd25 bcd7 a93c 5a74 fb3c 1ad1 940c
00000150: 99f4 113c c265 c7bd d824 d8bd e9c5 353e
00000160: a549 aea6 e13e 0780 9d3e c23d c593 59bc
00000170: c505 0900 b7bb 0c00 4c4a 32bb 0c87 263c
00000180: b8fe 0bbe d22f 013d afa5 23bc f321 7d3d
00000190: fde9 e618 41cc dcbd 431c aebd 260e f6bd
000001a0: a2d5 98bc 2762 9fbd c432 7c3c ff47 443d
000001b0: 167e 063a b8d1 0900 5ec7 ccbd 6c0c 0580
000001c0: 59ba 0c3f d548 633d 4b54 923c 158d 4b3c
000001d0: 0655 90bb 2aa6 5934 6bbd 613e 7c8d 0780
000001e0: ab31 b53d 72c8 1f1d a81f 82bc 6de5 623d
000001f0: 6599 a5bd ca81 8f3b 8d33 09bc 4b67 603c
00000200: 3d2a 1780 9255 a2bc 7ca6 0a00 b2a6 0300
00000210: de6d f997 32bd 0780 4542 573c 33fc 1ebb
00000220: f7b6 0180 fe3d 5bbd 7151 353d 3827 0880
00000230: ede9 0c80 4527 80bc 07fd 0380 243c 0000
00000240: 92ed a7bc 64e2 0c80 e1b7 5a3d 5013 293a
00000250: de6e 0500 8b33 3eb9 c20b 6ebb cd27 31bb
00000260: acc5 0080 ba12 0280 d426 0000 2f1d 0380
00000270: d74a c2bc b336 04b9 0d9d 2abc 2611 0a80
00000280: 0c02 37bc e9d5 0780 73df 0200 bd59 fdbb
00000290: 69e2 5abc 7d5a 48bd 9c69 2bbc 3d75 a4bc
000002a0: 477f 7cbd 6cbc b638 0bae 3abd fc59 9bbc
000002b0: 71e8 0600 745e 0880 c7cf f6bc 4426 0180
000002c0: 0b86 0000 7b35 0180 656c 0c00 dcbe c6bc
000002d0: c609 a53c 1bcf 0f80 80ff 0a00 20dc 33bd
000002e0: dcae 083d 8172 1100 e9c7 f239 a351 fc3c
000002f0: 7a51 b9bd 1d48 2abd fe81 3f3d e6c9 c6b7
00000300: 5510 0b00 d176 4d3d 2e09 bcbb 0297 ebbc
00000310: 7913 c8bb 9898 0400 7ba1 50bc 125d 103b
00000320: b852 e6bb dc6c 0280 d38b 2fbc 07db 61bd
00000330: 3a98 1300 bf15 55bd 67aa e0bc 9d75 0980
00000340: 50a3 0280 8c65 5d3d f00c 0680 6e7f 0380
00000350: eb13 0180 c2b0 85bb d60c 2b3b 4363 fcbc
00000360: a93c 0b00 45f2 0680 7ec9 64bd cfb6 0680
00000370: fceb 0980 f9e1 0480 487d e0b5 7917 6d3d
00000380: 12f1 0680 6cc7 e03a b868 00bd e0ec 8e3b
00000390: 416c cd86 aa3b 87bd d5d4 42bb e154 1380
000003a0: 2a92 87bb c531 c239 3450 bfb0 a97f 8b3b
000003b0: ba09 7cb9 17b6 0900 99c8 d83c ddd7 0480
000003c0: 6c9a 3abd fe62 a53b 7bbe 1f80 9552 1200
000003d0: f2ed 1480 49fa 0d00 ed74 87bc 93a3 0180
000003e0: 540f 403c 1023 0800 c362 1280 74d7 133d
000003f0: 92b9 79bc f614 8cb6 7fb3 1280 0dc5 1800
0.0001310772 0.037051316 0.09856966 -0.086884856 -0.9200315 0.013304781 0.019346805 0.005537553
-1.67036e-40 0.08667365 -0.09808619 -0.00017019869 -0.11068896 0.030284353 2.93885e-26 0.009178391
0.067341976 -0.0144716 0.4204019 -0.013908584 -2.1027e-40 0.01882894 -0.0017040337 0.00865996
-0.056971084 -1.0970576 -0.94996345 1.4078468e-08 0.057595856 -0.082819365 0.08354802 -0.0037033379
0.048959527 0.17864643 -0.83054787 -0.38373867 0.079365924 0.3811088 0.031319898 0.37606606
-0.004120093 -0.060676936 -0.013349333 0.19915412 -0.6689531 0.013545662 -0.361585 8.89251e-40
0.11674539 -1.073484e-39 0.12420808 0.00696 0.032955714 0.023987018 8.206e-42 0.09752663
-0.005128407 -0.002423086 0.10843542 0.01322463 0.16589963 -0.8585091 -0.06564838 -0.06879018
-0.007621141 -0.055851158 -0.1291049 -0.0197832 0.068279564 0.15136175 0.040119775 0.15749887
-0.74398905 -0.3870563 -0.17141746 0.07243379 0.15251817 0.05581862 0.11478665 4.4749955e-12
3.2863388e-16 0.020732753 0.03069513 2.292886e-31 0.008908414 -0.09736206 -0.105539024 0.17751278
-1.2093637e-15 -6.65405e-40 0.09484599 -0.01327986 8.28589e-40 1.169365e-39 -0.002720493 0.010164034
-0.13671386 0.031539746 -0.0099882325 0.061799955 5.9689874e-24 -0.10781146 -0.08501484 -0.12014417
-0.018656556 -0.07782393 0.015392963 0.047920223 0.00051304826 9.01752e-40 -0.09998964 -4.63634e-40
0.54971844 0.05548938 0.01786246 0.012423773 -0.004404667 2.027015e-07 0.22044913 -6.93604e-40
0.08847364 2.1147103e-21 -0.015884236 0.05539458 -0.08085898 0.0043794857 -0.008374107 0.013696502
-2.127369e-39 -0.019816194 9.78078e-40 3.35305e-40 -1.6118982e-24 -7.10719e-40 0.0131383585 -0.002425921
-1.57471e-40 -0.053525917 0.04426712 -7.48753e-40 -1.185943e-39 -0.015643725 -3.66276e-40 2.1574e-41
-0.020499025 -1.18324e-39 0.053398017 0.0006449716 4.98949e-40 -0.00018139013 -0.0036322926 -0.002703178
-7.0911e-41 -1.90389e-40 1.3929e-41 -2.85976e-40 -0.023717327 -0.00012608878 -0.01041342 -9.24507e-40
-0.011169922 -7.19585e-40 2.6383e-40 -0.007731645 -0.013359644 -0.04891442 -0.010462191 -0.020075435
-0.06164482 8.7135326e-05 -0.045576137 -0.018963806 6.34397e-40 -7.68567e-40 -0.030128373 -1.05563e-40
4.8086e-41 -1.1102e-40 1.14091e-39 -0.02426093 0.020146262 -1.451828e-39 1.010011e-39 -0.0439111
0.033369884 1.60228e-39 0.00046306782 0.030800646 -0.090487435 -0.04157268 0.04675483 -2.3697456e-05
1.016049e-39 0.05016214 -0.005738399 -0.02875853 -0.006105837 4.22082e-40 -0.012733812 0.002202813
-0.007028904 -2.22722e-40 -0.010714489 -0.05514052 1.799483e-39 -0.05202269 -0.027425004 -8.68711e-40
-2.42256e-40 0.05405192 -5.55654e-40 -3.2122e-40 -9.8981e-41 -0.004079909 0.002610018 -0.03080905
1.031951e-39 -6.37923e-40 -0.05585622 -6.16592e-40 -9.11175e-40 -4.48406e-40 -1.6725762e-06 0.057883713
-6.37493e-40 0.0017149276 -0.031349868 0.004361734 -7.7271494e-35 -0.06603177 -0.0029728909 -1.775323e-39
-0.004137297 0.00037039645 -1.3919874e-09 0.0042571616 -0.00024036216 8.91841e-40 0.02646284 -4.44779e-40
-0.045557424 0.005047201 -2.915232e-39 1.682664e-39 -1.922069e-39 1.283647e-39 -0.016535247 -1.50515e-40
0.0117224045 7.47262e-40 -1.688468e-39 0.036094144 -0.015241997 -4.1747653e-06 -1.71743e-39 2.27474e-39

weight f4 [128, 256]
00000000: c9ba 19bc 4e6f cc3c 953e 1380 f460 27bc
00000010: d275 1400 9177 19bc 2f90 1700 e95b b83b
00000020: fa6c 1880 14f1 1b80 ab69 f3b8 0e82 1a00
00000030: 40a5 e93a e007 1300 804b 1e00 f363 30ba
00000040: 15aa 0280 5a6c 45bb cd98 1800 c2e5 1200
00000050: a6a3 f4bc 7002 0100 c386 1580 d39e b73b
00000060: 8d3f 61bd 2e71 0500 0b59 1a00 ab22 ce0f
00000070: 69f1 6fbd cb32 6abd d0af 0680 41fc 0392
00000080: 7d09 202a 672e 913c 4de0 0d80 db0f ebbc
00000090: 4e4f 3abd f89c c2b8 f93a 2137 1f9a 0900
000000a0: 5784 be3c ad7a ca37 32e4 0980 506d c83c
000000b0: 55c4 f9bb 2338 13bd 046d 0500 d4f5 1ebc
000000c0: ba7c 0a00 b3f0 05bd e862 0280 4a43 9c37
000000d0: 24fd 90bc 27f0 1200 0fe4 0900 c0e8 1500
000000e0: c7be 163c e07c 9fbc 415c 6abb 51c4 1fbd
000000f0: 9fe5 08bc 6e72 e834 07cf 7fa0 a217 73bc
00000100: 8936 0100 88f5 0480 7c91 1c22 d602 5f3c
00000110: 6ee8 613a 9758 0400 e107 0000 43da 9abd
00000120: b5c7 0900 4638 0e00 a33f 0e00 fd86 8ebd
00000130: c2d8 873a 33ef 0080 3aa5 ae84 baf9 72b5
00000140: 530b 88bc 1404 b5b8 8048 0880 5618 373c
00000150: 4b86 39bb edba 1580 455a d7bc 0208 0d80
00000160: caa5 8bbd a53e 8b3c aa92 13bd a134 0180
00000170: 3be8 0400 754c 1a80 76a1 77bd f641 0d00
00000180: 4262 d2bc a719 1480 7c23 1235 b779 1d00
00000190: ed98 67b6 cfa4 31b5 aa6f 0e80 a424 b7bc
000001a0: 46d3 983a 4809 ccbc 3be2 0500 e6a4 453c
000001b0: 73fa 1a80 a556 0980 16df 1600 1cca 1f3c
000001c0: db7b a53b cb13 0880 059c a433 4f44 59bd
000001d0: 6661 03bd 2706 92b1 9c3c 21bd bed5 883b
000001e0: 5e79 4cbd 2dc8 1200 8896 dabb 130d 2639
000001f0: 5425 e1bc 1a0e 3739 c20d 1680 8e29 90ad
00000200: d756 44bd b05a c7bc 1070 1300 7689 3fba
00000210: 81ad 0780 4daa f6bc 2df1 0600 578e 98bc
00000220: 5f20 1380 f6db 1380 4b2f 6faa 5046 0e80
00000230: 003c 943b 5de1 0100 df22 0c00 54a4 89bb
00000240: c586 0180 35e3 46bb 7728 0200 db72 1680
00000250: f311 edbc eabc 1b80 edd4 1300 daab bcbc
00000260: 5e50 71bd d1bb 0880 e966 0580 3381 0000
00000270: bda3 39bc c7c8 2fbc befc 1680 93b2 0000
00000280: 4c6b 0580 c691 3abd eb7d 1580 6d85 b2bb
00000290: 1861 c2bc e9ec bdae f9cc 0180 2319 1900
000002a0: 5630 8abc 1b07 3c29 45c4 1000 5562 dc3b
000002b0: d1d7 583c b889 4cbc 33d4 0800 f610 4bbc
000002c0: ab31 0780 1dae a3bc 93cf 1580 3be6 8bb3
000002d0: 3105 b5ba 653a 1480 9da9 0800 f57c 0600
000002e0: 97b2 14bd 4869 64bc 8fa0 633b 6ee8 7c3c
000002f0: 6068 833b f7b9 acb4 23a8 0900 5fc5 b2bc
00000300: fd70 1380 f9a7 0f00 3380 0580 959e 09bd
00000310: bf2c 90b9 186d 0200 0d15 1580 c061 8cbb
00000320: 518d 1080 4271 1000 8dc5 1700 7e88 c2bb
00000330: bf53 dfbb 9b0b 1400 a219 0200 506e d632
00000340: ab0b 71ba cd69 632d 07cd 1480 d173 9e3c
00000350: 4f05 6338 2409 0300 2b9f 38bd 6d4f 0300
00000360: 83ed 4f3c 6d77 91bc 5568 e5bc 285f 1180
00000370: 2cf1 0b80 b4bb 0800 b566 5d3c fcf2 0680
00000380: 59d1 d139 4a83 0080 70ab 0500 0615 0600
00000390: e3d4 0480 a88c 0480 fc63 0c00 bf65 a53c
000003a0: 1c3b 9fb4 5cb3 cbbc 988e 0b80 9f54 98ba
000003b0: cc82 1080 57f7 0f00 76c8 1a00 e836 25bd
000003c0: c5b9 ac39 fd6f 0800 ad7b 1c93 6dbf 01bc
000003d0: 0f56 84bc c865 0180 14bb 9dbc 7fe6 a6bc
000003e0: b5b9 1fbd 27b9 1100 5f01 8db8 4851 0400
000003f0: 3ef4 193b 87c3 16bd 9e50 1200 e7a0 0200
-0.009382912 0.024955418 -1.767325e-39 -0.0102159865 1.878976e-39 -0.009366886 2.16394e-39 0.005626191
-2.243145e-39 -2.566041e-39 -0.00011606825 2.434378e-39 0.0017825738 1.7477e-39 2.782149e-39 -0.0006728761
-2.44685e-40 -0.0030124397 2.258866e-39 1.73546e-39 -0.02986319 9.271e-41 -1.976889e-39 0.00560365
-0.054992247 4.99779e-40 2.419665e-39 2.0326522e-29 -0.058579836 -0.057177346 -6.14083e-40 -4.164724e-28
1.4214147e-13 0.017722322 -1.274325e-39 -0.028694084 -0.045485787 -9.2798786e-05 9.610078e-06 8.81808e-40
0.023256464 2.4137402e-05 -9.0838e-40 0.024466187 -0.0076222816 -0.035942208 4.98285e-40 -0.009702165
9.63098e-40 -0.03270025 -2.19152e-40 1.8627983e-05 -0.017698832 1.73919e-39 9.08331e-40 2.01204e-39
0.009200758 -0.019468725 -0.0035760554 -0.03900558 -0.008355527 4.3296626e-07 -2.166784e-19 -0.0148371775
1.11399e-40 -4.55422e-40 2.1218961e-18 0.013611516 0.00086177036 3.99122e-40 2.826e-42 -0.07561161
8.98161e-40 1.305884e-39 1.308525e-39 -0.06959341 0.0010364281 -8.5809e-41 -4.105894e-36 -9.0515425e-07
-0.016606962 -8.631512e-05 -7.60692e-40 0.011175236 -0.0028308805 -1.995602e-39 -0.026288161 -1.196734e-39
-0.06818731 0.016997645 -0.03602854 -1.10715e-40 4.5065e-40 -2.41515e-39 -0.060456716 1.217524e-39
-0.025681619 -1.845912e-39 5.4440875e-07 2.706892e-39 -3.4510697e-06 -6.6177466e-07 -1.325754e-39 -0.022356339
0.0011659644 -0.02490677 5.40334e-40 0.012063241 -2.477567e-39 -8.57602e-40 2.100409e-39 0.0097527765
0.005050165 -7.41784e-40 7.665225e-08 -0.05304366 -0.03207531 -4.2498587e-09 -0.039364442 0.0041758707
-0.049920432 1.724848e-39 -0.0066707768 0.00015835864 -0.02748362 0.00017457493 -2.025316e-39 -1.6389359e-11
-0.04793438 -0.024335235 1.785075e-39 -0.0007306555 -7.0509e-40 -0.030110503 6.3753e-40 -0.01862256
-1.756487e-39 -1.823782e-39 -2.1243872e-13 -1.31092e-39 0.004523754 1.7268e-40 1.114535e-39 -0.0042004976
-1.40182e-40 -0.0030347828 1.98187e-40 -2.061583e-39 -0.028939223 -2.547328e-39 1.821258e-39 -0.023031164
-0.058914535 -8.0206e-40 -4.96095e-40 4.6348e-41 -0.011330542 -0.010729021 -2.111048e-39 6.406e-41
-4.97668e-40 -0.045549177 -1.973716e-39 -0.0054480345 -0.023727939 -8.6368086e-11 -1.65366e-40 2.304905e-39
-0.016868751 4.175055e-14 1.539776e-39 0.0067255893 0.013235048 -0.012484007 8.10807e-40 -0.0123941805
-6.60666e-40 -0.019980485 -2.003009e-39 -6.5145706e-08 -0.0013810751 -1.857658e-39 7.9553e-40 5.95839e-40
-0.03630313 -0.013941117 0.0034733152 0.015436275 0.004010245 -3.2172804e-07 8.86836e-40 -0.02182263
-1.785407e-39 1.43779e-39 -5.05167e-40 -0.0335985 -0.0002749916 2.22806e-40 -1.936097e-39 -0.0042841136
-1.520063e-39 1.509997e-39 2.183084e-39 -0.0059366813 -0.0068154032 1.840873e-39 1.92866e-40 2.4963043e-08
-0.0009195159 1.2926949e-11 -1.91026e-39 0.019342335 5.412596e-05 2.78786e-40 -0.04507367 3.03999e-40
0.012690905 -0.017757142 -0.028003851 -1.595339e-39 -1.096707e-39 8.02019e-40 0.013513257 -6.3818e-40
0.00040019563 -4.7098e-41 5.20678e-40 5.58555e-40 -4.43711e-40 -4.178e-40 1.137894e-39 0.020190118
-2.9659066e-07 -0.024865799 -1.061343e-39 -0.0011621899 -1.516289e-39 1.466261e-39 2.459635e-39 -0.040335566
0.00032944806 7.74858e-40 -1.9750945e-27 -0.007919175 -0.016154317 -1.28348e-40 -0.019254245 -0.020373581
-0.038995463 1.627624e-39 -6.723659e-05 3.965e-40 0.0023491527 -0.036807563 1.681959e-39 2.41392e-40

bias f4 [128]
00000000: da7a 14bc 7b68 7d3e 7541 a3be 0a56 aabb
00000010: 309a c8bd 3bbc 27bd 87a4 05be 3832 d0bd
00000020: 73b9 ccbb 03b1 1ebc 6a1b d5be f9a0 39be
00000030: 7a5b 01bd eb65 fdbd 8072 01bf c831 8fbd
00000040: dcff 2fbe 2d99 c4af 3cc9 3dbe e413 e9ba
00000050: db75 b13e f621 a1bd a606 86b8 f70a a5bc
00000060: 5b98 c3bd 9bd7 24bc 43b3 1f3f 330f 65b4
00000070: a72c 87bc 257d f0bb d662 c6bb 264f 943e
00000080: 188b a9bb 32aa eb9b 9ce5 5fbc 5a0e 10bb
00000090: 6c91 f6bc 8f16 e0bc d19c 9db9 0979 f0ba
000000a0: 1110 ddba b8db 543e 22dc 99bb 47ce 5cb3
000000b0: 6a5f 8a3e 0fb6 bcbe 9d9c 98be 91d1 24bd
000000c0: d908 48bd 0c9a b7b4 891f 20bb cb4a d4bc
000000d0: 82ba 853e a526 1eaa 5040 51a0 152f 1e3d
000000e0: cac9 13aa 348a 57be 225b 08ba 4eef efb0
000000f0: bc08 e1b7 f094 32bd 3468 1db9 6e90 ecbc
00000100: fa00 28bc a159 c3bc 40bd 50b3 f48c 02bd
00000110: b91a 8abe 6c12 27b8 5fbd ce3e a873 49bc
00000120: 2eaa a73e 1bb7 05b2 2534 99ba 8451 51be
00000130: 0eb0 60ba df9e b1bd e23a 16bc 7889 7abb
00000140: 9bcf 80be 9ac5 2fb6 6e33 c43e 627e a73e
00000150: 80d8 50b5 47e4 10ba bf33 2fbd beae 06bd
00000160: d575 bcbd 3f4d c33e 300f e5b5 9eaf 68bc
00000170: 9a03 6e3e d26b cebd 7a6b 74b5 1adf 7ebd
00000180: 87ea c8b7 7bec 07be 8e93 b6be ba36 25be
00000190: b429 0bbb 1998 82be 2550 0dbe c585 183e
000001a0: 51b3 93bd 5c3f 35bb 3154 ebbd 3d0a d43d
000001b0: d81a 78bb 667b 123e f070 eebd 5edb 3ebd
000001c0: ccca 26be 806e efbd f441 f63e 1029 7dbc
000001d0: a531 45bc 7939 25bb c779 84b9 0121 1cbd
000001e0: 2430 e0bd e02e 0c3f 6085 acbb 1125 7abd
000001f0: 9110 e4b8 d756 6ab6 f701 03bd 37ad c4b0
-0.009062493 0.24746887 -0.31885877 -0.005198245 -0.09795034 -0.040950995 -0.13051043 -0.101658285
-0.006247693 -0.009685758 -0.41622478 -0.18127812 -0.03158138 -0.12372955 -0.5056534 -0.06991917
-0.17187446 -3.576103e-10 -0.18533796 -0.0017782417 0.3466023 -0.07867806 -6.390856e-05 -0.02014683
-0.09550544 -0.01006117 0.62382907 -2.1332816e-07 -0.016500784 -0.007339137 -0.0060542626 0.28966635
-0.005174052 -3.8987475e-22 -0.013665583 -0.002198121 -0.03009864 -0.027354507 -0.0003006221 -0.0018346618
-0.001686575 0.20786941 -0.0046954313 -5.141035e-08 0.2702592 -0.3685765 -0.29806986 -0.04023892
-0.048836563 -3.419849e-07 -0.002443286 -0.02591457 0.26118857 -1.4046627e-13 -1.7724268e-19 0.03861912
-1.3126232e-13 -0.21048814 -0.0005201568 -1.7457553e-09 -2.6826157e-05 -0.04359907 -0.00015011505 -0.028877463
-0.010254139 -0.02384645 -4.8600896e-08 -0.031872705 -0.26973513 -3.983306e-05 0.40378854 -0.012295641
0.32747024 -7.783252e-09 -0.0011688514 -0.20441252 -0.0008571156 -0.086728804 -0.009169312 -0.003822891
-0.2515839 -2.6192051e-06 0.38320488 0.3271361 -7.780109e-07 -0.000552718 -0.04277396 -0.03288149
-0.09202162 0.38144872 -1.706625e-06 -0.014202027 0.23243561 -0.10079159 -9.105348e-07 -0.062224485
-2.3951068e-05 -0.13273804 -0.3565945 -0.16134158 -0.0021234574 -0.25506666 -0.13800104 0.14894779
-0.07211936 -0.0027656173 -0.114906676 0.10353515 -0.0037857797 0.14304885 -0.11642635 -0.046595924
-0.16288298 -0.11690998 0.48097193 -0.015451685 -0.012035762 -0.0025211258 -0.00025267733 -0.038117412
-0.10946682 0.54759026 -0.005264923 -0.061070506 -0.00010874973 -3.4919265e-06 -0.031984296 -1.4310108e-09

weight f4 [128, 128]
00000000: a896 673a c202 aeb7 153d 1f3b 5205 fb36
00000010: fba2 183c c1d5 bf2b 157c 91bc 73a9 b235
00000020: 02d2 d83b 98d1 0900 7c55 74ba f470 59bc
00000030: c448 d93a 3ec1 123c 84a3 3b3c fc09 01ac
00000040: 2252 7fbb 7f1f 0a80 08c0 8c39 f5ee 4d23
00000050: bad9 433a 77b8 023a 3396 549f be07 ba3b
00000060: 5c01 dc3b ac55 1ca6 cff7 a5bc d4a4 0700
00000070: 1fe4 ac38 5781 61b3 eca3 323a 1f05 10ba
00000080: fecd 3b37 f9d1 0380 4a6b 3c3a 4d3d 0180
00000090: 0dd5 0000 e946 3ab5 9fcd 2639 fde3 d68b
000000a0: ce2a 01b5 71a9 c43b 8f4b 02bb 691d 1aaa
000000b0: 05bf 2eb7 1c88 78b6 b37d 44bc 975d 5d3b
000000c0: 00d2 f4bb 8c6e 0100 1249 06b8 3823 1300
000000d0: 6df4 9cb8 366d 1a80 3c9b 0e00 70e9 c3b7
000000e0: a096 1000 466f f539 9177 60b4 ab85 5cbc
000000f0: dc2b 0580 789d 11ba 2572 dea4 99e6 2535
00000100: 2be7 18b8 2d49 1836 8213 1a80 7c45 a8ba
00000110: 332b d4bb eccc 0500 64e5 b23b 6ab2 88b1
00000120: 6d5a 01bb 3cfb 0b80 e411 9d38 b8d0 1dbc
00000130: 6460 3d0d 7be0 593b f34d 9037 0d11 14bc
00000140: 45f6 f8bc 6971 0500 4960 553c ec25 59bb
00000150: e53b 0200 1271 0700 01da 1a3b e4f2 61b2
00000160: cc7b 19bb 7bde 7fbb 0d50 9cb8 81a1 4b39
00000170: 98d7 1939 d701 1bbc a047 0a00 e6bb 0780
00000180: a645 0200 87ff 0080 c2e6 4f3c 3c10 f33b
00000190: 1d77 48b3 8228 63bc 4161 513b fced 0236
000001a0: eec7 9dbb d74b f9b6 a077 ae3c 8836 fbbb
000001b0: 81ef 72b7 80a2 b7b6 8059 b2bc dbea b6ba
000001c0: cf61 46bb e58a 73b6 f38f 7db5 03a7 9c37
000001d0: 6a5a 7338 11d6 a0bb db36 7f3a 6262 0ab8
000001e0: 7123 0abb 1960 08bb 66b7 953a f63c 09ba
000001f0: 5e27 c7b4 b334 1380 72aa 1abb 4d3a 2b33
00000200: 040e 32b3 4110 8c3e 5841 61be 536f 5528
00000210: 399d 9cbc ca55 eb25 3fd4 01bd 281f 30ae
00000220: 0d3f 312d 1a20 a134 d74d 38bd eb48 97be
00000230: 3384 e83d 7aec debd 62c0 733e 62c6 a53d
00000240: 190c 67be 4249 0580 3e29 343c 0d82 d021
00000250: f4a8 4fbd 9f13 363d cd0f 2fa3 617c aa3c
00000260: 2466 90bd 2d7b 0a3a d14b eb3d fcf2 0d80
00000270: fc7d 8f39 1fb1 e237 bc0c a52b 6f79 a63d
00000280: ddac 0500 fbff 1480 8f52 0780 3317 0800
00000290: 3f09 f338 a531 4fbc 4b20 168f 67ca a1bb
000002a0: fd5c 1000 ff37 6ebd b57d 0300 7d2c 0000
000002b0: 0fbf 7a3e 6810 073e 2f5e d3bd 9d37 823c
000002c0: c527 473b 972d 0c00 ea81 0080 a807 2f3c
000002d0: 9131 a03e 757b ac0e 20f6 0100 9ac2 fe3d
000002e0: 06e2 1780 4a9e e3bd 33cf 8630 f32d 0800
000002f0: dc88 b4b7 87e9 d718 d2df 0298 6ae4 9e3c
00000300: 0f70 1000 893e 18bb 3a8b 0100 779c 8c3b
00000310: d7c8 93bd 3054 08a8 46b6 0b3e e4f0 0b80
00000320: 81bb 66bd fb1e 1000 6934 6495 c53f 3abe
00000330: 1980 ceb7 2593 f13b cbc7 23bc 5c6c 9c3a
00000340: 6de3 9cbd 8c29 0800 9a10 073e f888 953e
00000350: 7dd4 0b00 d279 081b 3ff1 37bd 0a9e f7bc
00000360: 1176 85bd 99e0 c4bc 9d3b 0180 227b f003
00000370: 7f49 00be 54ab 3d3c ce77 0d11 28f8 c923
00000380: a59c 1580 0936 75bc 4cb8 05be ea85 f4bb
00000390: cf27 1bab 65db d4bd 38be 8dbd 2c92 c63d
000003a0: 500b fabc 62dd 203e 529e adbc 7832 053d
000003b0: 33cf 8a2a cbbc bc3d 802a 5c3d a4a5 083d
000003c0: 1dce 92be 4337 1d3c d926 643e 67ee 473b
000003d0: fccd d7bc 5e15 9e2a c973 0c2e 18bc b93b
000003e0: 1532 ae3d 6308 3e3e ae23 23bc 7731 403d
000003f0: b7e3 ad34 c111 1023 1160 47bd 05e4 e22f
0.00088344 -2.07437e-05 0.0024297882 7.4810023e-06 0.009316201 1.3630695e-12 -0.017759362 1.331135e-06
0.0066168318 9.01708e-40 -0.00093205995 -0.013271559 0.0016577472 0.008957205 0.011452559 -1.8337545e-12
-0.0038958867 -9.29654e-40 0.00026845955 1.1163673e-17 0.00074711035 0.0004986594 -4.5016988e-20 0.0056771925
0.0067140292 -5.423948e-16 -0.020259766 7.01978e-40 8.24409e-05 -5.250453e-08 0.00068145874 -0.0005493927
1.119403e-05 -3.5083e-40 0.0007187618 -1.13826e-40 7.6428e-41 -6.939359e-07 0.00015907593 -8.277284e-32
-4.8118534e-07 0.0060016443 -0.0019881462 -1.3688151e-13 -1.0415683e-05 -3.7034106e-06 -0.01199286 0.0033777708
-0.007471323 1.31492e-40 -3.201614e-05 1.757509e-39 -7.4841875e-05 -2.4269e-39 1.341385e-39 -2.3354514e-05
1.523402e-39 0.00046812947 -2.0905124e-07 -0.013459603 -4.74911e-40 -0.00055547757 -9.647052e-17 6.1802854e-07
-3.6454916e-05 2.269236e-06 -2.394721e-39 -0.0012838091 -0.0064748763 5.3269e-40 0.0054594744 -3.9784043e-09
-0.0019737736 -1.100316e-39 7.489676e-05 -0.009632282 5.8356148e-31 0.0033245373 1.7202436e-05 -0.009037268
-0.030390868 4.99861e-40 0.013023444 -0.0033134175 2.05157e-40 6.8341e-40 0.0023628476 -1.3151951e-08
-0.0023419736 -0.003904252 -7.45357e-05 0.00019419754 0.00014671532 -0.009460888 9.44049e-40 -7.10254e-40
2.08656e-40 -9.1666e-41 0.012689294 0.007417707 -4.667446e-08 -0.013864638 0.0031948837 1.9510035e-06
-0.0048150932 -7.429607e-06 0.021297276 -0.0076664127 -1.4480088e-05 -5.4727425e-06 -0.021771193 -0.001395549
-0.00302707 -3.629067e-06 -9.445932e-07 1.867442e-05 5.801992e-05 -0.004908331 0.0009735652 -3.299339e-05
-0.0021078254 -0.0020809232 0.0011422455 -0.0005235219 -3.7095282e-07 -1.76378e-39 -0.0023600128 3.9867064e-08
-4.14566e-08 0.2735615 -0.21997583 1.1848015e-14 -0.019117938 4.0824135e-16 -0.031696554 -4.004544e-11
1.0075285e-11 3.0011944e-07 -0.04499611 -0.2954782 0.1135334 -0.10884948 0.23803857 0.08094479
-0.22563209 -4.85457e-40 0.010996161 1.4129052e-18 -0.050698236 0.044452306 -9.490115e-18 0.020811262
-0.07050732 0.0005282637 0.1148907 -1.281028e-39 0.0002736895 2.7023778e-05 1.172749e-12 0.0812863
5.21189e-40 -1.928538e-39 -6.72465e-40 7.43006e-40 0.00011588865 -0.0126461135 -7.4017904e-30 -0.0049374583
1.502726e-39 -0.05815887 3.20602e-40 1.596e-41 0.24486946 0.13189852 -0.103206985 0.01589566
0.0030388695 1.11838e-39 -4.6604e-41 0.010682978 0.31287816 4.252016e-30 1.80129e-40 0.12439461
-2.193298e-39 -0.111141756 9.808673e-10 7.51167e-40 -2.1521402e-05 5.5812e-24 -1.6915107e-24 0.019396026
1.509567e-39 -0.0023230633 1.4178e-40 0.004291113 -0.072160415 -7.567772e-15 0.1364375 -1.096606e-39
-0.05633116 1.480482e-39 -4.6085578e-26 -0.18188389 -2.4616764e-05 0.0073722773 -0.009996365 0.0011934149
-0.076605655 7.49588e-40 0.13189927 0.2920606 1.086417e-39 1.1289019e-22 -0.044907805 -0.030226726
-0.0651666 -0.024032878 -1.13221e-40 1.4134202e-36 -0.12528037 0.011576492 1.1159856e-28 2.1897562e-17
-1.984739e-39 -0.014966496 -0.13058585 -0.007462253 -5.512231e-13 -0.10393409 -0.06921047 0.09695849
-0.030522972 0.15709451 -0.021193657 0.032518834 2.4657498e-13 0.09215697 0.05375147 0.033361092
-0.28672877 0.009595695 0.22280444 0.003050709 -0.026343338 2.8081265e-13 3.1935152e-11 0.0056681745
0.08505646 0.18557887 -0.009957237 0.046922173 3.2389445e-07 7.810015e-18 -0.0486756 4.1271178e-10

bias f4 [128]
00000000: 1c90 f8bb 24ae af3e 10dd c3bc 3ef6 4cba
00000010: 5563 8abc 0391 d1bc 56c7 aa3e 343f 933e
00000020: 6ca7 cb3e eea2 12be 9140 8dbe 9905 a4a3
00000030: ed03 0ebe 4bc8 673e e88c c7bb 2c41 3c3e
00000040: ea5a d33e f9b8 b5b7 b677 59bb 272b 2e3e
00000050: 7a21 04bd 57ed 82bc ddac 33be e9d5 fcbc
00000060: 2007 e6b8 91aa b0bb 9319 b23e 63e7 18b6
00000070: e30b ba3e e75b a3bc cfd9 adbd f1e6 5ebc
00000080: 34c2 7a3c 28d4 37be b8bc db3d 5dff 33bd
00000090: 3c1c b93e 5d01 bd3d 9b8b 92bd 8b9c 893e
000000a0: 5d84 c7bd 9084 203e fb23 5ebd 87eb 89bd
000000b0: 1a02 303e a429 6ebd 70d3 d73e 2130 a3bd
000000c0: 7b8f 813e 30a9 dfbb a2c1 45bd 722a be3d
000000d0: 77c9 9e3e dcf3 90bb c9a4 38bc 8e48 cfa4
000000e0: c1d3 c33e dd7f 23bd 0b2a a8bc fe2a 1fbc
000000f0: ca8a 2dbc 6035 bd3e 8acd dbbb e876 d13e
00000100: 5ec7 c6bd c429 08bd dcff e3bc 77e5 92bd
00000110: 8869 73b7 cdd1 66bb 6572 4b3d 1068 21be
00000120: 55f4 003e efb8 6bbd 5fb8 a73e b8a2 153e
00000130: fc36 0100 227d 96bd 8f52 6cbc 3861 66bc
00000140: 1e25 02bb 8208 8b3e 7971 b5b9 8389 8117
00000150: 1b41 4cbc b8da 2abd 78f5 e6bd d740 8eba
00000160: 4a25 8023 1caf 23bc 43be 89bb d7a1 68b9
00000170: 8df8 92bd d9d9 a8bd 7d44 5abb b6b5 81bc
00000180: 23f3 59bb d00d f13d 4987 403e 49f7 b03e
00000190: de39 1cbb f983 793e ae95 aabc 0459 cbbb
000001a0: 940a babd 26d5 63bd fc2a cdbd 68c9 08bd
000001b0: cf35 8e3c 5e8f c83e 1706 963e 5b89 20bd
000001c0: 524e fa3c e85c 47bd 292f 18b8 2a0e 0680
000001d0: 7601 983e ab9c d9bb a750 cab4 86f7 703d
000001e0: 4895 21b8 243b 82bd be79 b03e 7d59 b13e
000001f0: bcf5 ba3e d4a1 9fb8 6b95 35bc 2f47 06be
-0.0075855386 0.34312546 -0.023909122 -0.00078186754 -0.016893068 -0.025581842 0.33355206 0.28759158
0.3977617 -0.14319965 -0.27588323 -1.7783286e-17 -0.13868685 0.22635 -0.0060897954 0.18384236
0.412803 -2.1663016e-05 -0.0033182926 0.17008649 -0.03225849 -0.015982313 -0.17546411 -0.030863719
-0.00010968582 -0.005391427 0.34785137 -2.278445e-06 0.36337194 -0.019941283 -0.08488809 -0.013604865
0.015305091 -0.17952025 0.107293546 -0.043944705 0.36154354 0.09228776 -0.07155534 0.26877245
-0.09742043 0.15675569 -0.054233532 -0.067343764 0.17188302 -0.05814518 0.42153502 -0.07968164
0.2530478 -0.0068255886 -0.048280366 0.092854396 0.3101308 -0.0044236016 -0.011269757 -8.989485e-17
0.38247493 -0.03991686 -0.02052786 -0.00971484 -0.010592172 0.36954784 -0.006707852 0.4091103
-0.09705995 -0.033242956 -0.027831964 -0.07172673 -1.45085e-05 -0.0035220266 0.049669642 -0.15762353
0.12593205 -0.057549413 0.3275785 0.14612854 1.1156e-40 -0.07348086 -0.01442398 -0.014061265
-0.001985855 0.27154928 -0.00034607554 8.371142e-25 -0.012466694 -0.041712493 -0.11277288 -0.0010853064
1.389358e-17 -0.00999048 -0.004203589 -0.00022185534 -0.071763135 -0.08244676 -0.0033304982 -0.015833717
-0.0033256493 0.11770213 0.18801607 0.34563664 -0.0023838202 0.2436675 -0.020823326 -0.00620568
-0.09084049 -0.055623196 -0.10017964 -0.0333952 0.017359642 0.3917188 0.2930152 -0.039193492
0.030554924 -0.048672587 -3.6283545e-05 -5.56094e-40 0.29688615 -0.0066409907 -3.7684114e-07 0.058829807
-3.852442e-05 -0.063589364 0.34467882 0.34638587 0.36515605 -7.611854e-05 -0.011082987 -0.13113092
