Model/full_gcn_cwe_469_test_lr_00001.pth (torch, 343650 bytes, 11 tensors)

bias f4 [128]
00000000: 00fe e1bc fc66 18bb 2f62 ecbc bd7c 77bc
00000010: 4980 0f3d 0000 0000 0000 0000 be1e c6bc
00000020: a911 1b3d 8fda 1ebd 8c53 b43b 3d1b afbc
00000030: 0000 0000 0000 0000 0000 0000 72cf e4bb
00000040: 2e71 1abd 0000 0000 0000 0000 bf63 46bc
00000050: 0000 0000 0000 0000 0de0 fa3a 0000 0000
00000060: c5b8 273d 19d0 613b 6603 e13b 30d3 e3bc
00000070: 8476 9bba 0b41 e73c 6cf2 1c3d b61b 373d
00000080: 0000 0000 9a2a 1e3d 0000 0000 0000 0000
00000090: 0000 0000 63de c63c 0000 0000 0481 18bc
000000a0: c068 df3c 0000 0000 0000 0000 0000 0000
000000b0: 0000 0000 2acf 01bd 20fe 8eba 6c64 f93c
000000c0: 1493 a93c 0000 0000 a285 f9bc a6b0 2a3d
000000d0: 0000 0000 0000 0000 7abd 65bc 961b a0bc
000000e0: 0000 0000 ad25 0dbd 0000 0000 0000 0000
000000f0: 129e fe3c cf67 b5bc 41df 56bc f319 c23c
00000100: 81d3 0d3d 0000 0000 e727 013d 0000 0000
00000110: dc22 183d 5179 c0bc 0000 0000 9a70 e8bc
00000120: 029b f83c 8ace 073d 0000 0000 0000 0000
00000130: f5bd 403c 0000 0000 bd2d 053d b171 0ebd
00000140: 0cd3 b63c 0000 0000 0000 0000 00bc 573b
00000150: bc9e cdbc 0000 0000 dbcc 0eba 9733 403c
00000160: a754 243d 9849 893c 0000 0000 e7b1 41bc
00000170: 0644 eb3c 9684 143d 6275 08bd 0bdf 0d3d
00000180: 1885 d4bc 0000 0000 71e0 cc3b 51c7 0fbd
00000190: bc1d 9b3c 5f9d 79ba d4b0 dbbc 6e2d eabc
000001a0: 1524 fcbb 0000 0000 c6df 0c3d 59f4 d93c
000001b0: 8391 00bd d22a 253d 0000 0000 09c3 0abc
000001c0: 76b5 b73c c045 eb3b 0000 0000 177e 14bd
000001d0: 95e6 0d3d 3d5f 2cbc 93fa afbc 0000 0000
000001e0: 7da6 e83c 0000 0000 0000 0000 7d2e 1e3d
000001f0: b269 c63c 0000 0000 0000 0000 28c8 9d3c
-0.027586937 -0.0023254743 -0.028855411 -0.0151054235 0.03503445 0.0 0.0 -0.02418458
0.03785864 -0.038782652 0.0055031236 -0.021375293 0.0 0.0 0.0 -0.006982737
-0.037705593 0.0 0.0 -0.012108742 0.0 0.0 0.0019140259 0.0
0.040947694 0.0034456311 0.00686686 -0.027810663 -0.0011860882 0.028229257 0.03831713 0.04470416
0.0 0.038614847 0.0 0.0 0.0 0.024275964 0.0 -0.0093081035
0.027271628 0.0 0.0 0.0 0.0 -0.031691708 -0.0010909475 0.030443393
0.020700015 0.0 -0.030459229 0.04167237 0.0 0.0 -0.0140222255 -0.019544404
0.0 -0.03445976 0.0 0.0 0.031081233 -0.022144226 -0.013114751 0.023694014
0.034625534 0.0 0.031532194 0.0 0.03714262 -0.023495348 0.0 -0.028374005
0.030347351 0.033155955 0.0 0.0 0.011764039 0.0 0.032514323 -0.034776393
0.022317432 0.0 0.0 0.0032918453 -0.025100105 0.0 -0.0005447396 0.01173105
0.040119793 0.016758725 0.0 -0.0118222 0.02871896 0.036259256 -0.03331507 0.03463654
-0.02594237 0.0 0.0062523414 -0.035102192 0.018935077 -0.00095220463 -0.026817717 -0.028586116
-0.007694731 0.0 0.034393094 0.026605772 -0.03138877 0.04032404 0.0 -0.008469352
0.022425395 0.0071799457 0.0 -0.03625306 0.03464373 -0.010520753 -0.021481788 0.0
0.0283997 0.0 0.0 0.038618553 0.024220321 0.0 0.0 0.019260481

weight f4 [128, 2]
00000000: 45f6 f43d 997c 26be 3f09 d73d 6caa d13d
00000010: 0ba0 203e 9f46 3bbe 34dd 1e3e a66e e1bd
00000020: a806 9e3d 857a 5a3e 01ac c5bb d816 b42a
00000030: 0ce7 a7bc 0aad 14be 655e d13d e956 65be
00000040: 7dd2 063e cd2f 363e 6ace 4e3e 697e 83bd
00000050: 88c2 27be 8fbc 633d af20 f63d 0c12 66be
00000060: 4711 a3bc ee3e c3bd e450 69ba b542 95bd
00000070: eddf 63bd f457 18bd 7e30 3fbe 876a 463e
00000080: 36f1 393e 243c 54bd a7c6 3dbb b754 63bd
00000090: 3882 23be 9ecc 32be 0801 a43d 8390 06be
000000a0: 94fb d5bd 4796 f6b9 4803 25bd fe44 1dbd
000000b0: 69d5 f33b cb15 17bd 8047 2ebd 0c8d 8fbd
000000c0: 9fc1 18be 75d5 493e b4e5 94bd b88d 8e3d
000000d0: e534 8bbd ed6d b93c 3e88 4d3e 4ff7 be3d
000000e0: 278d 37be 9e8a b83d 05cf 503e fba3 8a3d
000000f0: f084 133e e152 6b3e 25fa ccbb b451 853d
00000100: 7d8d ecbd 399b 84bc 010a 263e 3312 033e
00000110: f09f d1bd 3679 0dbe 2d7f e7bd 3ecc 35be
00000120: f4e5 06be 79b4 c1bc 53f0 173e e052 233d
00000130: 4380 04be 148c 0dbe f5f9 d73d e03a 1ebe
00000140: 6994 8abc dfcc e93d 4bc1 88bd 8c02 20bb
00000150: b18a 63ba 146f b1bc 5a95 9bbd 69f9 20be
00000160: 9de1 0ebe bebe a7bd e427 573e b470 f7bd
00000170: c2c0 12be e96f 573d 6d2f 663d 4625 053e
00000180: 7da9 2a3e bc66 ec3d aece 36be f3a8 7a3a
00000190: 5f0a 063e fbd4 fabc 667e d1bd 08f5 633e
000001a0: 34d9 46bd 7049 b6bd 0b2e 23be 1116 3f36
000001b0: e6fb c63d a051 3f3d 1e9d 463d 09aa 30be
000001c0: 493b 2abe 49e4 c22d 890d 463e 3578 e03d
000001d0: a2d4 bbbd 3d90 97bb cad4 febd 2917 91bd
000001e0: 6ec2 1e3d a8bb fb3d b951 363e 56f5 54be
000001f0: 4aa3 133e 0bb0 22be f5ab ab3d 7dfe 3c3e
00000200: 9966 533a 1d3d 563e 6a64 18be fe72 4dbd
00000210: dc31 043e 967b 08bd 61a5 82bc 069e 6abd
00000220: 390e 173e 832f fd3d ce6b 923d 60c3 07be
00000230: 919e 0fbe 5cdc 1a3b 3b48 843d e9a2 dcbd
00000240: 501b 48bd 40d9 1f3e 199c 6d3c f3bb b13c
00000250: 4ae0 bfbc 3e0f 24be 169f 2bbe f336 8fbd
00000260: 8974 ddbd a4a5 893d 6d23 03bd d72d 55bd
00000270: f792 543e 54ff b63d 2d9c 1e3e f798 00be
00000280: dffd 87bd 2371 d43d a119 e0bd a2a9 dabd
00000290: f7b2 04b7 63fc 3fbd ea68 0cbe b1d3 1c3e
000002a0: 9fa8 333e 8bf0 ca3c cae8 31bc 0b92 28be
000002b0: 39fb 85bd b2c4 873d 828e d03d 0008 afbc
000002c0: 93b4 80bd 5d79 0d3e 8b74 19be 9554 213e
000002d0: 3e73 52bd a4ed deac aa58 f0bc dd43 293d
000002e0: 329c 6cbd 8399 263e a3ef b8bb 3c57 3f3e
000002f0: d6c9 523e 8964 fcbd 4d0f 11be 6146 343e
00000300: 338a 2c3e d3f8 38be 152f e9b9 3aa2 35be
00000310: 0750 22be 7958 3e3d 0327 763d c776 f43c
00000320: 6dac 7abd d41a 4d3e fd89 c93c 1907 07be
00000330: 84a6 abbc 784e 443d 8b95 983d 4291 2cbe
00000340: d78c a63d c101 f0bd aecb 13be 175a acbd
00000350: fe4d 513e 9d49 4b3e 1179 493e 0585 063e
00000360: 4d4d 273e 1c38 46bd f3e0 b8bd 0c51 013e
00000370: 3f59 a0bd 4fd1 e3bd ebd8 8abd 6f4e 3d3d
00000380: 4055 e33d ac8b 9cbd 702a f1bd 5c63 0e3d
00000390: d9ed bebd 3185 d9bd 0ed8 e53d 7d03 6bbd
000003a0: f59f 483e b101 673e 6ec5 853d b5ca 893d
000003b0: bbf7 563d 34ad fabb 93bf 9eb9 bd7f b4ac
000003c0: c19a a33d 92e0 533e 96f9 d3bc 719a 6fbd
000003d0: 9de1 b9bc 8763 91bd 1838 053d dc36 363e
000003e0: de2f 2a3e 3448 eb3d af49 febd 1c47 a8bd
000003f0: 6f55 98bc b3de 4cbc 7627 ab3c 27dd 3cbe
0.11961035 -0.16258468 0.104998104 0.102375835 0.15686052 -0.18288659 0.1551407 -0.11007433
0.07716113 0.213358 -0.0060324674 3.1990274e-13 -0.020495914 -0.14519134 0.102230825 -0.22396435
0.13166232 0.17791672 0.20195928 -0.06420595 -0.16382802 0.055599745 0.12017953 -0.22467822
-0.0199057 -0.09533487 -0.0008900298 -0.07288114 -0.055633474 -0.037193254 -0.18670842 0.19376574
0.18158421 -0.051815167 -0.0028957517 -0.055500712 -0.15967643 -0.17460868 0.08008009 -0.13141064
-0.10448375 -0.00047032742 -0.040286332 -0.038395874 0.007441212 -0.036886018 -0.042548656 -0.070093244
-0.1491761 0.19710334 -0.07270375 0.069606245 -0.06797198 0.022635425 0.20071504 0.09324514
-0.17924939 0.09010814 0.20391472 0.06769558 0.1440618 0.22980835 -0.0062554055 0.06509724
-0.11550424 -0.016187297 0.16214754 0.12799911 -0.10235584 -0.1381577 -0.11303554 -0.17753693
-0.13173658 -0.023645626 0.1483777 0.039873958 -0.12939553 -0.13822967 0.105457224 -0.15452147
-0.01691647 0.11416029 -0.06677493 -0.002441558 -0.00086800294 -0.021659411 -0.07596846 -0.15720142
-0.13953252 -0.08190678 0.21011311 -0.12082043 -0.14331344 0.05259696 0.056197572 0.130025
0.16666217 0.115430325 -0.1785228 0.00095619186 0.13089894 -0.030619135 -0.10229187 0.22261441
-0.048546985 -0.08900726 -0.15935533 2.8474062e-06 0.097160146 0.046708703 0.048489682 -0.17252363
-0.16624178 2.2156625e-11 0.19341101 0.10960428 -0.09171416 -0.004625349 -0.1244293 -0.070844956
0.03875964 0.12291652 0.17804612 -0.20796713 0.14417759 -0.15887468 0.083824076 0.18456455
0.00080642995 0.2092175 -0.14882055 -0.050158493 0.12909645 -0.033320986 -0.015948 -0.05727961
0.1475152 0.12362578 0.07149468 -0.13258123 -0.14025332 0.002362988 0.06459089 -0.1077326
-0.048854172 0.15610218 0.014502549 0.021696066 -0.023422379 -0.1602144 -0.16759905 -0.069929026
-0.10813243 0.067210466 -0.032016207 -0.05204567 0.20759188 0.08935419 0.15489264 -0.12558351
-0.06640219 0.103731416 -0.10942388 -0.10676886 -7.909482e-06 -0.046871554 -0.13711897 0.15315129
0.17544793 0.024772903 -0.010858724 -0.16461961 -0.065420575 0.066293135 0.10183431 -0.02136612
-0.06284442 0.13815828 -0.14985864 0.15754922 -0.051379435 -6.336003e-12 -0.029339153 0.041324485
-0.057766147 0.16269498 -0.0056438013 0.18685621 0.20584807 -0.12323863 -0.14165993 0.17604972
0.16849594 -0.18063669 -0.00044476302 -0.17737666 -0.1585084 0.046471093 0.0600958 0.029841794
-0.061199594 0.20029765 0.02460193 -0.13186301 -0.020953424 0.047926396 0.07450398 -0.16852286
0.08132332 -0.117190845 -0.14433166 -0.08415621 0.20439908 0.198523 0.1967509 0.1313668
0.16338082 -0.048393354 -0.09027281 0.12628573 -0.07829522 -0.11123907 -0.06779655 0.04621738
0.111002445 -0.07643828 -0.117756724 0.034762725 -0.093227096 -0.10621107 0.1122285 -0.057376374
0.19592269 0.22559239 0.06531797 0.067281164 0.052482348 -0.007650042 -0.00030278842 -5.1300895e-12
0.07988501 0.20691136 -0.025875848 -0.058496896 -0.022690589 -0.070990615 0.0325242 0.17794365
0.16619822 0.11488381 -0.12416398 -0.08216688 -0.018595425 -0.0125042675 0.02089284 -0.18443738

bias f4 [128]
00000000: 0000 0000 3e8a fabc 4ae5 bd39 0000 0000
00000010: ad7b 1b3d 0000 0000 e5c4 d4bc c2a1 0d3d
00000020: 8333 07bb 0aba 79bc 20a7 f63c 0000 0000
00000030: 0000 0000 007d 03bd e76d dcba 0000 0000
00000040: 7ef5 eebc a6de 153c e708 9dbc 9aa0 003b
00000050: 4f35 133d 3ef5 debb 2431 8abc 46d9 95bc
00000060: 0bdb 103a 53b2 2c3d 762c 1a3d 0000 0000
00000070: 9663 c0bc 4ee5 013d 8a17 083d 0b82 493b
00000080: e8ec c03c 0000 0000 5407 303d 30d3 a4bc
00000090: 2bc1 e23c b928 e3bc d9fa aabc 475c 733c
000000a0: dd1e 0dbd a270 1c3d f3b9 143d a5b4 8abc
000000b0: 31ca 233d 0000 0000 39d2 e93c 7e2e d5bb
000000c0: 0000 0000 609a 083d 0000 0000 bbc8 173d
000000d0: faa2 f43c 0000 0000 0000 0000 bc92 02bd
000000e0: a99f 123d 0000 0000 e77b 8fbc 891c 0d3d
000000f0: 7956 a03c d336 a2bc 11d4 ffbc f583 11bc
00000100: 0000 0000 ef40 083b aeb0 883c d66a 08bd
00000110: 8d18 dd3c 0000 0000 d93b 1b3b 34bf d03a
00000120: bfc6 be3c bf7d 233d 3acf 113d 8ed4 c6bc
00000130: d0e4 2bba 01a6 c9bc c493 bdbc 0000 0000
00000140: 17ae 253d 1357 b3ba 0000 0000 0000 0000
00000150: 7921 a63c 3f79 e53b 9c82 94bc ceec acbc
00000160: 7c8c 4abb 934f 0b3d 4d7b 84bc 0000 0000
00000170: 2e1f f2ba 0000 0000 ca72 203d 2a6f 093d
00000180: 0000 0000 bfd9 a3bc 91b3 e83c d8e0 8a3c
00000190: 03d5 153d 2dcf aa3c 1408 4cbc 0000 0000
000001a0: 1f56 17bc 6995 003d 7d04 183d d124 35bc
000001b0: 52b1 0f3d 0000 0000 3f8a c4bc 0000 0000
000001c0: d9df 043d f432 5dbb 0000 0000 0000 0000
000001d0: 0000 0000 0000 0000 de37 f4bb f9db 053d
000001e0: 9192 ad3c ce44 193d 0000 0000 db83 c4bc
000001f0: 5435 d5bb 8e5b 74bc 606f 3e3b 0000 0000
0.0 -0.030583497 0.00036219723 0.0 0.037959743 0.0 -0.025972793 0.034578092
-0.0020630069 -0.015242109 0.030108988 0.0 0.0 -0.03210163 -0.0016817421 0.0
-0.029169794 0.009147322 -0.019169284 0.0019626976 0.03593951 -0.0068041375 -0.016869135 -0.01829208
0.0005525804 0.04216225 0.037640058 0.0 -0.023484986 0.031712823 0.033225574 0.0030747678
0.023550466 0.0 0.04297574 -0.020120233 0.02768 -0.027729379 -0.020871567 0.014853544
-0.03445326 0.038193353 0.036310147 -0.016931841 0.039987747 0.0 0.028542625 -0.0065057864
0.0 0.03335035 0.0 0.037056666 0.02986287 0.0 0.0 -0.031878218
0.035796795 0.0 -0.017515136 0.03445104 0.019572483 -0.019801533 -0.03122905 -0.008881559
0.0 0.0020790657 0.01668581 -0.03330501 0.026989246 0.0 0.0023686795 0.0015926124
0.023288129 0.039914843 0.035598017 -0.024271276 -0.0006557228 -0.02461529 -0.02314175 0.0
0.04044923 -0.0013682566 0.0 0.0 0.020279633 0.007002979 -0.018128686 -0.021109011
-0.003090649 0.034011435 -0.016172076 0.0 -0.0018472427 0.0 0.03917197 0.03355328
0.0 -0.02000129 0.028405936 0.016952917 0.036580097 0.020850742 -0.012453098 0.0
-0.009236841 0.03139249 0.037113655 -0.011056141 0.035081215 0.0 -0.023991702 0.0
0.03244004 -0.0033752294 0.0 0.0 0.0 0.0 -0.007452949 0.032680485
0.021188052 0.037419133 0.0 -0.023988655 -0.0065066013 -0.014914406 0.0029058084 0.0

weight f4 [128, 128]
00000000: dda9 c6bd 6c59 d03d cddd a3bd d2fd 0cbd
00000010: 3ef3 3bbb 6a31 b72a 503b 1fba e57e a53d
00000020: 05c5 a63d 1a2a d2bd 28e2 ddbd f090 edbd
00000030: 5f7b c03d 3538 5bba bb36 35bd 98dc 8bbd
00000040: 4ccd 9f3a a57c 813c 66f8 633d 33cb b83d
00000050: 68f8 d13d e3f6 8dbd ab32 0cb4 2ea1 84bd
00000060: f5d0 d0bc db31 0dae 1830 5c3d a052 1abd
00000070: bffe 5dbd 5af7 58bc fee9 053d 7b96 cdab
00000080: de1d a73d d35b d5bd 8abc d33c 1390 a93d
00000090: 8fd9 823d bd26 ccbd 5834 8ebd a5ae a92b
000000a0: 76aa f4aa 291e 713d 0263 bb3d 4c70 bab6
000000b0: 0357 89bc 26eb 523d 7b68 88bd 768d 1ebd
000000c0: 8c66 6c3a fd1b 66bb fe5f 763d 1ed0 c6bb
000000d0: 21fe cc39 c9d0 7e3c e9ed aab8 0a43 a6bc
000000e0: cca8 803d bb1d 5a3d ec8d 1ebb 65f9 85bd
000000f0: 6206 adbc 5b94 953d 4fd5 6a3d ce20 abbc
00000100: 67cd 533d e5a3 3bba ceae 87b5 ebc6 26bd
00000110: 7986 57ae c8a9 e8bb ba47 413c c011 e5bd
00000120: c4de bab5 d813 b1bd d64f debd 2f89 f1bd
00000130: cff9 41bb 1cd1 a43b e20f b839 7ea6 213c
00000140: fb22 0fbd a8a4 8cbd 7483 00bc df7e a7bd
00000150: ae4c 7dba c0ac eb3b 4f68 d83a 4ae3 d7bd
00000160: c19e e43d 1274 c93d 42c3 19bd 6a7c c6bd
00000170: b2e0 033b f553 103c afb4 5dbc 5067 20bd
00000180: f2cb d837 a9dc 78bd 6657 46bd 7087 a43c
00000190: 8f0b 153a 354a 003d cd9f c43d 4114 12ab
000001a0: 986c ba3c 7b4f 9c3d 7dab 81bd 7cce 8d3d
000001b0: 67a6 933d b43f e8bc dbf9 b03d a9dd 1fbd
000001c0: 12ca 2abd 6240 9d3d ef04 233d f3ce 85b7
000001d0: b385 b3bd b3f3 613d fd1e 343c 01e0 71bd
000001e0: 2804 0cb0 8cea 9e3d 4efa 0a3d d0a3 20bd
000001f0: ceba 592a 36b8 c8bc fff5 8b3d 4a2e 263d
00000200: 44bf b3bc 1c12 98bc 98fa e2bd be59 0abd
00000210: 33c6 963d 9b88 e7bd be46 8e3a 5be6 153e
00000220: a503 853d 6fb1 9b3d ea10 bdbc 6acc 47bc
00000230: 3324 c7bd b9bb 2ebd 00d2 3e3c d2ba 863d
00000240: 69c4 b83d 65c0 5dbd 7e91 823c 369b abbd
00000250: 0f76 a3bd c003 eabc 5ef1 d2bd dedb ac3b
00000260: d1d3 f23c a7e4 d53d 6766 6e3d 4679 f13c
00000270: 772e 6c3d 9b28 3e3d f646 15be b5c0 abbd
00000280: 5fa3 bbbd 444c b7bd 494b cd3b 7592 e23d
00000290: d6c3 953d 3284 80bd 7f3f 1c3c 1310 d93d
000002a0: 2a9e c13c 4610 bcbd 2c0d 683a 496d 023d
000002b0: cbf1 4f3b 1d40 0f3e 60f6 e73d d1de b1bd
000002c0: a519 ed3d 42c6 d3bd dcf4 b1bd a3c0 6b3d
000002d0: 8c72 bcae f71e ca3d 6b75 b93d 1b17 01bd
000002e0: 0bac e63d d9bd e1bd 916a a33b b4ba a33c
000002f0: c368 f13d 1dff 193e 4809 9a3d eb1b 8ebd
00000300: a84e ee3d 4392 943d ede4 5bbb 2e86 9d3d
00000310: 1281 c13c f287 4dbc 2cfe 983c 0962 9d3a
00000320: 2d83 44bd 2f38 a63c 738b 5d28 f624 94bd
00000330: b62b d1bd 37c9 ad3c 4852 76bd 68c2 843b
00000340: 1d98 113e ae92 a33d dd18 593d 3b52 c13d
00000350: cdc5 d33d 4729 8fbd 3371 163e 648e e7bd
00000360: 65fb d4bd 28a5 4abd 8a2d ed3d 59a1 c23d
00000370: 46c5 1e3d 185b a03d b397 15be 41ed 0dbe
00000380: a0be 453d 209f 69bc b359 703d 5cb9 debd
00000390: d3f9 0e3e 46b2 07be c7c1 aa3d 33d4 a63d
000003a0: 86aa a6bd 174c d03d 3cde a13d e960 90bd
000003b0: b0e0 8dbd 6602 fc3d 6794 35bc 381d 823c
000003c0: 8ac9 8f3d eb9e 5d3d 2898 38bd 5d4e ec3d
000003d0: f1dc 3a3d 75e5 473d 83ce 91bd 2f6b 1b3d
000003e0: 40b0 a6bc 21dc 9a3d e6ae 3f3d 99f2 dd3d
000003f0: 2a2f afbc b0e5 883d 7136 ad3d 0bb0 053d
-0.097003676 0.10173306 -0.080012895 -0.03442175 -0.002867892 3.2541618e-13 -0.0006074207 0.08080844
0.08143047 -0.102619365 -0.108341515 -0.1159991 0.09398531 -0.00083625625 -0.04424165 -0.06829184
0.001219192 0.015806505 0.055656813 0.09023132 0.10252458 -0.069318555 -1.3056949e-07 -0.06476055
-0.025490263 -3.210397e-11 0.053756803 -0.037676454 -0.054198023 -0.013242567 0.032693855 -1.4607893e-12
0.081599936 -0.10417905 0.025846738 0.08279433 0.06389152 -0.09968326 -0.069435775 1.2056646e-12
-4.3461388e-13 0.058866654 0.091497436 -5.556305e-06 -0.016765123 0.051493786 -0.06660553 -0.038709126
0.0009017966 -0.0035111897 0.06015014 -0.00606729 0.00039099253 0.015552708 -8.150546e-05 -0.020295639
0.062821954 0.05325101 -0.0024193479 -0.06541709 -0.021121208 0.07303687 0.057332333 -0.020889666
0.05170956 -0.0007157906 -1.0109159e-06 -0.040717047 -4.9004776e-11 -0.0071003176 0.011796886 -0.11185026
-1.3922913e-06 -0.08646363 -0.10855071 -0.11793744 -0.002959836 0.0050298106 0.00035107048 0.009866355
-0.03494547 -0.06867343 -0.007843841 -0.081784956 -0.000966261 0.0071922243 0.0016510579 -0.10541399
0.111630924 0.09836592 -0.037539728 -0.09691699 0.0020122943 0.008809079 -0.013531848 -0.039161026
2.5844176e-05 -0.060757313 -0.048423193 0.020084113 0.0005685621 0.03132077 0.09600792 -5.189773e-13
0.02275686 0.07632347 -0.06331537 0.069241494 0.07209473 -0.028350689 0.08641406 -0.03902975
-0.041696616 0.07678296 0.039799627 -1.5951204e-05 -0.087657355 0.05516405 0.010993716 -0.059051517
-5.093761e-10 0.0775958 0.033930115 -0.039218724 1.9338283e-13 -0.024501901 0.068340294 0.04057149
-0.021941788 -0.018563323 -0.11082953 -0.03377699 0.07362022 -0.11305352 0.0010854823 0.14638655
0.06494836 0.07602202 -0.023079354 -0.012194732 -0.09723701 -0.042659495 0.011646748 0.06578602
0.09021837 -0.05413856 0.015938517 -0.083792135 -0.07981502 -0.028566241 -0.102999434 0.0052752336
0.029642018 0.104440026 0.058203127 0.029476773 0.0576615 0.046425443 -0.1457785 -0.08386365
-0.0916202 -0.089500934 0.006265078 0.11063091 0.07312743 -0.06275214 0.009536623 0.10598769
0.023634989 -0.091827914 0.00088520604 0.031842504 0.0031729813 0.13989301 0.11326289 -0.08685077
0.11577157 -0.10340549 -0.08689281 0.05755676 -8.569598e-11 0.09869187 0.09055599 -0.031516176
0.11263283 -0.11022539 0.004987069 0.019986488 0.1178756 0.15038724 0.075213015 -0.06938919
0.11636096 0.0725446 -0.0033553198 0.07691608 0.023621116 -0.012544619 0.018675886 0.0012007366
-0.04797666 0.020290462 1.2298203e-14 -0.07233612 -0.10213415 0.02121411 -0.060137063 0.0040514953
0.14218183 0.07986961 0.053002227 0.09439512 0.10340462 -0.06990295 0.1469162 -0.11306456
-0.10399512 -0.04947391 0.115809515 0.09503431 0.038762353 0.07829875 -0.1460865 -0.13860036
0.048277497 -0.01425913 0.058679294 -0.10875198 0.13962488 -0.132516 0.08337741 0.081459425
-0.081379935 0.10170763 0.07903716 -0.07049734 -0.06927621 0.12305145 -0.011082745 0.015883073
0.070208624 0.054106634 -0.045066983 0.11538384 0.045620862 0.04880281 -0.07119467 0.037944015
-0.020347714 0.075615175 0.046797656 0.108372875 -0.021384794 0.066844344 0.084576495 0.03263859

bias f4 [128]
00000000: e09e 44ba b1a3 8f3c 0000 0000 8738 d43c
00000010: 0000 0000 754c 903c 0000 0000 584b c23c
00000020: 0000 0000 0000 0000 2c19 07bb 0000 0000
00000030: d36f 35bc 0000 0000 0000 0000 e4c8 f93c
00000040: 67e5 12bb 01c4 033d 0000 0000 0000 0000
00000050: 9ef2 f93c 0000 0000 0000 0000 a388 f33c
00000060: 8344 2a3b dc7f 3fbb 0000 0000 9c21 ee3c
00000070: bcfc 50bc 8fc9 353c 0000 0000 28fb 1cba
00000080: 7bf7 063d a631 a23c 0000 0000 5279 e63c
00000090: 05e6 1ebc 7540 d73c a932 9bbc 0000 0000
000000a0: 7068 013d d44f ec3c 0000 0000 a18c dd3c
000000b0: 32c8 a0bc 901b 31bb ca7e a3ba ec95 8dbc
000000c0: 0000 0000 9f56 07bc 0000 0000 455b df3c
000000d0: 41be f53c 0000 0000 0000 0000 0000 0000
000000e0: ed54 86bc 834d f23c b328 8c3c d30a debc
000000f0: 964c be3c 9cba dbba 4583 a4ba 8053 f43b
00000100: bf48 003b 0000 0000 cf61 f93b b5cf 70bc
00000110: b07f e73c f4e1 023d 2c7d 7339 fd5f 8fbc
00000120: 0000 0000 5b5d 023d 0000 0000 0201 8dbc
00000130: 566f c93c 0000 0000 33fe e73c 113a 043d
00000140: fe0b b6bc ce22 d0bb 465d 1a3b 5b56 86bc
00000150: 74c0 a43c dc28 0dbc a445 ccbc 0000 0000
00000160: 6eef 893c 6d29 a03c ec44 11bc 0000 0000
00000170: 9e26 ee3c a847 003d 72c0 eb3c 0000 0000
00000180: a73b 2d3b 0000 0000 f882 fc3c 0000 0000
00000190: d595 053d b643 f33c 0000 0000 cc1d 4abc
000001a0: e5e6 3fbb 1769 b53c 0000 0000 4ce9 b13c
000001b0: 0000 0000 0000 0000 7073 123d 8176 0abc
000001c0: dde5 a4bc f2e7 fd3c 9453 de3c 5777 f5bb
000001d0: b6af 6abc e160 053d 646b f13c 3231 da3c
000001e0: 6e2b 61bc 0000 0000 0c1d 75bb 3fac fd3c
000001f0: 8d40 7abc 0216 8dbc 0000 0000 8905 23bb
-0.0007500481 0.017534109 0.0 0.02590586 0.0 0.017614583 0.0 0.023717567
0.0 0.0 -0.002061437 0.0 -0.011074024 0.0 0.0 0.0304913
-0.0022414566 0.032169346 0.0 0.0 0.030511197 0.0 0.0 0.02972824
0.0025980778 -0.0029220497 0.0 0.02906876 -0.012755569 0.011095419 0.0 -0.0005988353
0.03295086 0.019799065 0.0 0.028134022 -0.009698396 0.026275853 -0.018945055 0.0
0.03159374 0.028846659 0.0 0.027044596 -0.01962671 -0.0027024485 -0.0012473699 -0.017283402
0.0 -0.008260398 0.0 0.0272652 0.029997947 0.0 0.0 0.0
-0.016397918 0.029577976 0.01710925 -0.02710477 0.023229878 -0.0016763988 -0.0012551328 0.007456243
0.001957461 0.0 0.0076105366 -0.014697959 0.028259128 0.031953767 0.00023220916 -0.017501825
0.0 0.031827312 0.0 -0.017212395 0.024589222 0.0 0.028319454 0.03228194
-0.022222515 -0.0063518053 0.002355413 -0.0163986 0.0201113 -0.008615699 -0.024935551 0.0
0.016837802 0.019551003 -0.00886653 0.0 0.029071148 0.031318337 0.028778289 0.0
0.002643326 0.0 0.03082417 0.0 0.032613594 0.029695373 0.0 -0.012336206
-0.002928191 0.022144837 0.0 0.02171769 0.0 0.0 0.03575462 -0.008451105
-0.020129139 0.03099439 0.027139463 -0.007491033 -0.014324119 0.032563094 0.029470153 0.026634786
-0.013743265 0.0 -0.0037401346 0.030965922 -0.015274179 -0.017222408 0.0 -0.0024875125

weight f4 [128, 128]
00000000: d63c 803d ca0b 763d 6216 863d 2aaa e3bd
00000010: 9df1 b8bc 74bb c8bd 222f 873d d97a 153d
00000020: c1dc 3ebc 6cd4 0e3e e204 c6bd 0911 c7bc
00000030: 8afb 2038 2b2e 8b3d b513 f23b 2097 0c3c
00000040: a331 043e 17d7 473d 091e 1d3e 5a46 9abd
00000050: 0602 0d3d 9510 133e 9707 f2bd 1708 1e3e
00000060: 494b b7bc ff02 a83b ac0b 1ebc e263 dd3d
00000070: b967 1b3d 721b 14be cb8e 1e3e b6e1 8abc
00000080: d3e0 d73d bec1 f4bc de23 fabd cd06 16be
00000090: 0179 1b3e d8c7 1a3e 4a03 b63d 3ed4 093e
000000a0: 0246 c53d 1d0e 14be 3d22 313d 850f fb3d
000000b0: d1db 283e 204d ce3d b685 e3bc 80a5 df3d
000000c0: d360 f53c b526 443d a0ea 65bd 6bff 333d
000000d0: 6c43 ac3d 2532 b13d efe0 a9bb 5296 823d
000000e0: 5f15 883c 7af6 cabd 6c84 12be 7aaa f63c
000000f0: 7e2f e03d d73b 283d a165 00be 59e9 66bd
00000100: f792 abbd e3b1 fdbd 70a9 f8bd 6b51 afbd
00000110: ea71 c23d daa9 86bc ce95 703d 1134 3f3d
00000120: bb0b 6e3d 61a2 fd3c 5053 efbc c30a 183e
00000130: a44c a53d c586 f93d 6bcf 50bb 7003 ea3d
00000140: 43be 203e edf1 dc3c e63e bb3d f1ba 513b
00000150: f364 b43d 9c1c d4bd b5eb e5bd aa2b 953d
00000160: ad11 6ebd 7f04 09be 940a 113e 67ae ff3b
00000170: ae10 e03d dc8c 363a 8828 9c3c 4cd1 1d3d
00000180: dd09 cfb9 41bf 3f3d f3e2 f6ba 02ff 1a3e
00000190: 083e cbbd da88 d6bd 3e0b 80bd f92a 73bd
000001a0: 7660 f6bc a4b7 4ebd 0e9e 79bd f66f 90bd
000001b0: d672 de3d aa3b a2bb 8d6f c9bd e80b 6bbd
000001c0: e7cc 053e 70d6 023e ada9 8d3b 47e3 2abc
000001d0: afc5 04bd 9d92 e1bb 48b6 a73d ecff 86bd
000001e0: da0f 133e 22b7 0ebd 992e f2bc c659 c13b
000001f0: 55d5 423d d5e8 5f3c 0be1 1f3d 31a1 a83d
00000200: 942d 993c a6f0 c6bc f8d7 eabd 3e3e 5dbc
00000210: 5877 ae3c a302 93bc 8723 be3d ce54 be3a
00000220: 1713 a0bc 12aa 0cbe 4398 cd3d afd0 823c
00000230: 48a3 d23d 9bca 03bd 8e38 9a3c 81cb d8bd
00000240: 75d0 1fbb 8bd7 0cbd cddc f13d 81d8 153e
00000250: 9a9e 10be 4d4c d43c 572c 1abe 704f b3bc
00000260: 3cb8 ac3d b308 a63d 5f76 0a3d 4b08 b0bd
00000270: c081 bdbc fa15 213d bc11 483c 2823 acbd
00000280: c027 ab3c 02f9 993a fac2 c63b 6b60 d43a
00000290: 9d9b 753c 50a3 8fbd 7b37 10bc 0767 f9bc
000002a0: 52df e8bd 493f 883d 5667 fcbd 93c7 6c3b
000002b0: f94e 243d b794 f83a 6df3 bdbd b1b2 1b3d
000002c0: a329 f13d 2eeb 6dbd 9491 753d f5e7 11be
000002d0: ad1e b23d fd84 053c a29a aabd 1017 3fbd
000002e0: 010d d13d 3526 c93c e8ad a13d 1cfd e03d
000002f0: b04f eebd c1fd 91bc d3ad fb3d 16e6 c23c
00000300: 7254 e1bd 5546 0d3e ca08 58bc 71f1 3cbd
00000310: 7fef 803c 4bba cdbd 1eaf 5c3c f1c9 883d
00000320: 86f3 aabd f026 66bd 413e d4bd ae22 f6bd
00000330: 7e5f ba3c ec1b a7bd bbb6 0cbe 6957 c8bd
00000340: 3997 743d e00f eb3d 01f0 e3bd 2f62 da3d
00000350: 7a84 de3c 2982 f73c ae92 c83d 0665 23bd
00000360: ae99 d43b 13c8 ebbd cdef b4bd 510c 07bd
00000370: 544d 18b6 3da4 f4bc c5f6 1f3d 318a 193e
00000380: c5c5 48b9 490b 8d3d 1000 23bd dc69 a93d
00000390: 4a5b d33d ef0f 90bd a2c3 93bd 4c26 11bd
000003a0: 2aee 2dbd a56c 833d 6c2d 443d d7eb 3c3d
000003b0: 6559 e3bc 52a3 a53d 631f 933d f738 2ebc
000003c0: cd01 04bd 4e3e 913d dc70 76a9 ac3e ecba
000003d0: 68a8 d23c 97ea 97bd 9611 6fbc 1f84 b23c
000003e0: fd82 fa3d 8a57 88bd 85d1 9939 7630 bb3d
000003f0: bdd5 a7bd 67f3 21bc 03be ff3c 9199 d03a
0.062616035 0.060069837 0.06547238 -0.111164406 -0.022576148 -0.09801379 0.06600787 0.03649411
-0.0116493115 0.1394822 -0.096689 -0.024300115 3.8381237e-05 0.06795915 0.007387603 0.008580953
0.1290956 0.04878911 0.15343489 -0.0753295 0.034425758 0.14361794 -0.11817854 0.15432774
-0.022374766 0.0051273103 -0.0096463375 0.10810067 0.037940715 -0.14463595 0.15484159 -0.01695333
0.10540929 -0.02987754 -0.122138724 -0.14651032 0.15182878 0.15115297 0.08887346 0.1345987
0.096324936 -0.14458509 0.043245543 0.122588195 0.16490103 0.10073304 -0.02777372 0.109202385
0.029953396 0.047888476 -0.05613196 0.043944757 0.08411297 0.086521424 -0.005184285 0.063763276
0.016611753 -0.09910293 -0.14308327 0.030110586 0.109465584 0.041072693 -0.12538768 -0.05637488
-0.08377641 -0.12387445 -0.12141693 -0.08560451 0.09494384 -0.016438413 0.058736615 0.046680514
0.058116656 0.030961217 -0.029214531 0.14847855 0.08071259 0.121839084 -0.0031861912 0.11426437
0.15697579 0.026970828 0.09142856 0.0032002295 0.08808317 -0.10357019 -0.11226598 0.07283719
-0.058122326 -0.13380621 0.14164191 0.007802773 0.109406814 0.00069637387 0.019062296 0.03852968
-0.00039489465 0.046813253 -0.0018835947 0.1513634 -0.09923941 -0.10475321 -0.06252144 -0.059367154
-0.030075293 -0.050468102 -0.06094175 -0.07052605 0.10861747 -0.00495096 -0.0983573 -0.0573844
0.13066445 0.12777114 0.0043232054 -0.010430164 -0.03241509 -0.0068839327 0.08189064 -0.06591782
0.14361516 -0.034842618 -0.029563235 0.0059005944 0.04756673 0.013666351 0.039032977 0.0823387
0.018698491 -0.024284672 -0.11466974 -0.013503609 0.021297142 -0.017945593 0.0928412 0.0014521123
-0.019540353 -0.13736752 0.10038807 0.015968649 0.1028505 -0.03217564 0.018825796 -0.1058569
-0.0024385725 -0.034385245 0.118096925 0.14633371 -0.14123002 0.02591529 -0.15055977 -0.021888465
0.084335774 0.08107128 0.033804294 -0.08595332 -0.023133159 0.0393276 0.012211259 -0.08405143
0.020892978 0.0011747184 0.0060657235 0.0016203051 0.014990714 -0.07013571 -0.00880229 -0.030444635
-0.1137072 0.06652696 -0.12324397 0.0036129698 0.040114377 0.0018965219 -0.092749454 0.03801221
0.1177552 -0.058085613 0.059953287 -0.14248641 0.08697257 0.008149383 -0.08330275 -0.046652853
0.102075584 0.024554351 0.07894498 0.10985777 -0.11636293 -0.017821195 0.12289014 0.023791354
-0.11002435 0.13796361 -0.013185689 -0.046128694 0.0157392 -0.10045298 0.013469486 0.06679142
-0.0834723 -0.056189477 -0.103634365 -0.120183334 0.022750612 -0.081596226 -0.13741581 -0.09782297
0.05971453 0.11477637 -0.111297615 0.10663258 0.02716278 0.030213432 0.09793602 -0.039891265
0.0064880466 -0.115127705 -0.08834801 -0.03297073 -2.2694776e-06 -0.029863471 0.039053697 0.14994122
-0.00019147161 0.06886918 -0.03979498 0.08272144 0.103201464 -0.07034289 -0.072150484 -0.035436913
-0.04246346 0.06417207 0.04789488 0.046123352 -0.027752588 0.080877915 0.07183721 -0.010633699
-0.03222828 0.07091962 -5.4720863e-14 -0.0018024049 0.025715068 -0.07417791 -0.014591595 0.021791516
0.12232015 -0.06657322 0.00029338538 0.091401026 -0.08195064 -0.009884692 0.031218534 0.0015914907

weight f4 [128, 256]
00000000: 2a9a 8a3c a1e7 673d 9ff6 013d 9234 56bd
00000010: c10a 80bc e9e1 813c 5b53 46bb 7719 153d
00000020: 4690 1d3c c7a5 30ac 5c33 73bd d154 b93a
00000030: 0770 f63c 9e77 33b7 be1d 8829 2aac ff3c
00000040: 82f0 9b3c 99cd 3a3c 54bb 583b cba7 a7bc
00000050: 9e30 cabb bee9 88ad 600f 0ab7 5e5a 1d3d
00000060: f770 20bd b451 73bd 663e 102c 4d7c e43b
00000070: d112 50bd 259d 83bd 8066 a03c 1a93 69bb
00000080: 6ab2 5a3d fb21 423d a4ea 603c 005f 5bbd
00000090: f96e 43bd 5088 d3bc 9025 413d 1b15 c83c
000000a0: d118 753d ff3c 303d 4c05 a33a 454f 733d
000000b0: 431b 963c 8a7b c7bc ba8a 37b9 5412 813c
000000c0: a672 913c b3e3 cabc 9350 b83c eef4 003d
000000d0: 3370 3ebd 0df8 3cbb 17fb 5a3c 5e82 d23c
000000e0: 3915 1e3d b8d9 6c3b 246d b13c 93e3 8abc
000000f0: 5b54 5e3c e723 b2bc 3dd6 b93c 1bc7 483a
00000100: 0a06 533d 7b29 d529 6a20 603d f0ea 403d
00000110: d14f 253d a5f7 12ba a92b 763c 8b05 81bd
00000120: 695e f83c e448 90bc 38ce 883c 00ee 58bd
00000130: 4e46 f43c b984 c6b4 4a17 383c d389 443d
00000140: d425 0ebd 06fa 40b9 a39e 033d 8a02 243d
00000150: b076 5d3c f9fa bc3a 1bc1 91ba 0a7d d7ba
00000160: 7ad6 60bd a2ac 4a3d d896 88bc 9c8e 433a
00000170: a8f2 be3c 8547 2b3b 2891 33bd 665f eabc
00000180: 6f6e 25bd f473 0bbb 08fb 843d cb06 1139
00000190: 727a e33c 7ecf 11bc 54e8 62bc 500d 213b
000001a0: 424f 773d c827 52bb d738 c839 c071 503d
000001b0: 9e1e 1937 9892 cb31 5e59 2c3d 8c83 293d
000001c0: b1af 2e3d 48ee 8e3d 31a7 693d a834 3dbd
000001d0: b471 03bd 9c0c 50bd a5ce 24bd 9fd6 073d
000001e0: bf30 05bd a8ab 973c d1f8 07bd 5f77 413d
000001f0: f938 5fbc e23c df3c 724c 46bb c044 eb3c
00000200: fa50 03bd f666 b1bb 38a0 2b3c 7bac 503c
00000210: a07c 9db9 6870 b7bc 7fad 49bb 21a8 05bc
00000220: f113 c53c 8fae fb33 36c8 9bbc f731 be3c
00000230: a119 373d 5590 d43c 3943 d53b 0890 fb3b
00000240: c9be ed3c e86f 3dbd 6e4e 69b6 903f a73b
00000250: 60e0 31bc 3721 282c 8178 c33c dfc6 3abd
00000260: 2650 80bd 589f 86bb 3652 f9bc b0f2 e93c
00000270: c00b 083b fe62 633b 7989 b33b cee9 4fbd
00000280: 0799 8b3d 494d f1bc eb5a abb9 2e7f 04bc
00000290: 606a 7fbd 9b76 1fbd acf5 4fbd 4f2b cbb1
000002a0: 898c 39bb 6341 973d 2be2 003d 0a02 273d
000002b0: 24e3 433d 761a 4ebb 5b17 94bc da67 103c
000002c0: 5c7d 0c3a 925e 14bd 62dd 873b 9408 59bb
000002d0: 223b 3ebd 257a 303c 1e0f f53c e367 e9bc
000002e0: 83f9 20bd 046e 9f3b 7c4a 3b3d bea8 473d
000002f0: 6320 303d f0ee e0bb c6a7 06bd b012 60bd
00000300: a4d1 bebc abb2 a1bc 2a8b 883c 6b02 70bd
00000310: f2a9 b23c 138e e53c 720a b93c cc55 ad3c
00000320: a18e 893c 1c6e 113c 1c80 c6b3 e446 9e3c
00000330: 17e9 833c 6229 343c 8737 543d 196c 2f3d
00000340: 7768 17bd 4e20 123d df83 e2bc af0b 603d
00000350: ef22 203d f0d2 3fbd 09d4 d9bc 8f70 bd3c
00000360: 14b5 413d 085b ccbb b615 8cbc 1ceb ce3c
00000370: b59a 9a3d ff82 d3bc e6cf 4c3d 3760 003d
00000380: f38d 093d 2f43 c6bc eeda 593c a976 83b7
00000390: 4b7d 383c 44aa 833d 7d45 d13c bc1b 613d
000003a0: caf4 97bc cd10 7ebc 47c0 edbc 4c16 d73c
000003b0: c139 ee39 e09f 53ba 1c0a 053d ba93 5abd
000003c0: 337f 433d d74a 2b3d 380b efbc b3b9 1e3c
000003d0: f9a2 53bd c809 613b c496 ddbc 9dbf 263a
000003e0: ce9a 08bd 3eb1 34bc 9342 41bd d116 1d3d
000003f0: fa33 033d 4e4f a7bc b9ae 53ab 7eeb b43b
0.016919214 0.056617383 0.031729337 -0.05229623 -0.015630128 0.015854793 -0.0030262086 0.03640124
0.009616917 -2.510313e-12 -0.059375152 0.0014139657 0.030082716 -1.0697082e-05 6.044773e-14 0.031210024
0.019035581 0.011401557 0.003307064 -0.020465752 -0.0061703464 -1.5565212e-11 -8.229021e-06 0.03841626
-0.03917023 -0.05940409 2.0498269e-12 0.0069728256 -0.050799195 -0.06426457 0.019580126 -0.0035640658
0.053392805 0.047395688 0.013727818 -0.053557396 -0.047713254 -0.025821835 0.047154963 0.024424126
0.05983812 0.04302692 0.0012437492 0.05940177 0.018323546 -0.0243509 -0.0001750392 0.01575581
0.017754864 -0.024766779 0.022499358 0.031483583 -0.04649372 -0.0028834373 0.013365529 0.02569693
0.03859446 0.0036140513 0.021658488 -0.016954219 0.013569917 -0.021745635 0.022685165 0.00076590636
0.05151943 9.466296e-14 0.054718412 0.047099054 0.040359322 -0.000560636 0.015025058 -0.06299885
0.030318456 -0.017612882 0.016699895 -0.05296135 0.02981868 -3.6976942e-07 0.011236021 0.047983002
-0.034704044 -0.00018403688 0.03213371 0.040041484 0.013517067 0.0014418057 -0.0011120172 -0.0016440463
-0.05489204 0.04948104 -0.01667349 0.000745991 0.023309067 0.0026135158 -0.043839604 -0.028609943
-0.04038852 -0.002127883 0.06493193 0.00013830808 0.027768347 -0.008899568 -0.013849337 0.0024574585
0.06037832 -0.0032067169 0.00038189322 0.05088973 9.126639e-06 5.9247434e-09 0.042077415 0.04138522
0.04264802 0.06979042 0.05704421 -0.046192795 -0.032090858 -0.050793275 -0.040236134 0.033163663
-0.03251719 0.01851447 -0.033196274 0.04723298 -0.013624423 0.02725071 -0.0030257967 0.028719306
-0.032059647 -0.005413885 0.010475211 0.012736435 -0.00030038226 -0.022392467 -0.0030773578 -0.008157761
0.02405736 1.171985e-07 -0.019016366 0.023217184 0.044702176 0.02594773 0.0065082577 0.007677082
0.029021638 -0.0462493 -3.4765358e-06 0.005104013 -0.010856718 2.3892674e-12 0.023861172 -0.045599815
-0.06265287 -0.0041083507 -0.030434709 0.028558105 0.0020758957 0.0034696455 0.0054790345 -0.050760083
0.06816297 -0.029455798 -0.000326834 -0.008086963 -0.062357306 -0.03893147 -0.0507714 -5.913001e-09
-0.0028312525 0.073855184 0.03146569 0.04077343 0.04782404 -0.0031448877 -0.018077543 0.008813823
0.0005359256 -0.036223 0.004146264 -0.0033116685 -0.046443112 0.010771309 0.029914435 -0.02849192
-0.039300453 0.00486541 0.04572533 0.04874491 0.042999636 -0.006864421 -0.032874845 -0.05470532
-0.023293324 -0.019738516 0.016667921 -0.058596056 0.021809552 0.028021848 0.022587989 0.021159075
0.016791644 0.00887635 -9.2433964e-08 0.019320913 0.016102357 0.010996195 0.051810768 0.0428277
-0.03696486 0.03567534 -0.027650772 0.054698642 0.039095815 -0.046832025 -0.026590364 0.023124961
0.04729183 -0.0062364377 -0.017100196 0.025258593 0.07549039 -0.0258193 0.050002955 0.031341758
0.03358264 -0.024201958 0.013296826 -1.5671672e-05 0.011260341 0.0642896 0.02554583 0.05495809
-0.018549342 -0.015506935 -0.029022349 0.02625575 0.00045437927 -0.00080728345 0.032480344 -0.05336354
0.04772873 0.04181942 -0.029180154 0.009687829 -0.051669095 0.0034338105 -0.02704943 0.000636095
-0.03335076 -0.011028586 -0.04718263 0.038351838 0.03203199 -0.020423558 -7.5204735e-13 0.005521237

bias f4 [128]
00000000: d645 313d 4c46 713d edaa 85bb dcaf 43bd
00000010: 39a2 e33c 2389 40bc b024 193d ea6c 2bbb
00000020: e9a3 3e3d befe 0abd 1fa6 4abd a9f0 c2bc
00000030: 8c49 ddba b700 3d3b e47d 4f38 590d f2b9
00000040: 497f 373c bec6 523d e2a4 8dbc 911f 68bd
00000050: 423c 6d3d 342e 063c 923d e13c eabb 2ebb
00000060: 5255 84bd e89e 25b6 91db 863d 8a8e cfbc
00000070: e398 1b3d 178c 3b3c 15a9 8d3b 7f6a 3cba
00000080: 1e56 a1bc e600 f039 aec3 9fbc 4512 98bc
00000090: 681a 933d 45d2 5dbc 3fdb 723d b2eb fdbc
000000a0: e352 34bd 0c96 a23d 6936 973b 4284 e4bc
000000b0: aa14 b1bc f859 85bc 9f75 65bd 9c82 123d
000000c0: 53b6 1c3d 5c05 7d31 0a88 04bd 3e81 fcbc
000000d0: 00bc e03b 9a34 f2bc b256 ec3b baab 8d3c
000000e0: bfcc d23a f49e 70bc 2d31 cc39 ac40 d13c
000000f0: 0f2c a5b6 b5ec 0dbb e190 0f3b 9f06 643c
00000100: 4b07 a2bc 5fc0 503c 6076 abb9 1cd8 66bd
00000110: f092 bbbc 3db2 2d3d bf52 c23d 39fe 42bd
00000120: 59c3 8c3d 0661 5b3d 670f 4bbd 3020 c0bc
00000130: 1bfe 4e3d ca9b 2abb f680 123c 56b0 a43d
00000140: aaef 67bc 3108 fe3b 6297 ab3d acfc 973d
00000150: 9082 7cbb 27c1 363d eef6 37bd 4df1 bb3c
00000160: 6f42 73bc f4aa ab3d 003a 0dbc f5e3 08bd
00000170: b240 a833 007e 4dbc e8b8 6bad f08b 41bd
00000180: 11de 0ebc 2015 8c3c 629b 52bd 3f6c 92bc
00000190: 9bb4 9eb9 379a 0a3d a5a2 94bd 0c28 a83d
000001a0: 62a4 c5bc 43bf 683d a61a 03bd 5522 5a3b
000001b0: e3c8 4abd 3075 283d ec97 45bd 3a8d 80bd
000001c0: c9bb b73c 64d5 c83c cd66 543d 819a 803d
000001d0: fee5 64bc 23cc b93c 40be f9bb f57d 70bc
000001e0: f20a 16bb dbfa 4e3d 1e17 823d 3023 853c
000001f0: e567 08bd 0632 82ba 3b59 863d 0b40 e2bc
0.04327949 0.05890493 -0.004079214 -0.047775134 0.027787315 -0.011751446 0.037388504 -0.0026157447
0.046543036 -0.033934347 -0.04947483 -0.023796396 -0.0016882881 0.0028839537 4.946989e-05 -0.00046167782
0.011199781 0.051459067 -0.017290536 -0.05667073 0.057918794 0.008189727 0.02749518 -0.0026662298
-0.06461586 -2.4679412e-06 0.06584848 -0.025336523 0.0379876 0.011446974 0.0043231347 -0.00071875
-0.019694384 0.00045777037 -0.019502487 -0.0185634 0.07182771 -0.013538902 0.05929112 -0.030996177
-0.04402436 0.079387754 0.0046146405 -0.027895097 -0.021616299 -0.016278252 -0.056020375 0.03576909
0.038259815 3.6819392e-09 -0.0323563 -0.030823346 0.006858349 -0.029566098 0.0072124833 0.0172938
0.0016082748 -0.014686335 0.0003894655 0.025543533 -4.9225123e-06 -0.002165598 0.0021906423 0.013917594
-0.019778868 0.012741177 -0.00032703858 -0.05635844 -0.022897214 0.04240631 0.09488439 -0.047605727
0.06873197 0.053559326 -0.049575236 -0.023452848 0.050535303 -0.00260328 0.0089418795 0.08041446
-0.014156261 0.0077524413 0.08378483 0.0742124 -0.003852997 0.0446178 -0.044913225 0.02294221
-0.014847382 0.08382216 -0.008619785 -0.03342052 7.8348776e-08 -0.012542248 -1.3399261e-11 -0.047252595
-0.008719937 0.017099917 -0.051417716 -0.017873881 -0.0003027067 0.033838477 -0.072575845 0.08210763
-0.024126235 0.056823026 -0.032007836 0.0033284624 -0.049507987 0.041127384 -0.048240587 -0.06276937
0.02242841 0.024515815 0.05185585 0.06279469 -0.01397085 0.022680348 -0.0076215565 -0.014678468
-0.0022894708 0.050532203 0.063520655 0.01625213 -0.033302207 -0.0009933121 0.06559988 -0.027618429

weight f4 [128, 128]
00000000: 1087 a33d 7c36 40bd c949 293d a884 f53c
00000010: 26af a63d 96bb f43a b8a2 eebc 8589 1d3d
00000020: 688b 873d 548e 51bd cc76 36ba 6c23 74bd
00000030: 29f6 f1bb da80 a83d bdb1 013d 1621 c8aa
00000040: 792a d83b 7117 da3b 6f3f 263d 3627 2f3d
00000050: a84f 153b 9369 b13d 0885 c4bc dabe 5f3d
00000060: ee62 ad3c e3d5 cfbc 8915 71bd e5fe 573d
00000070: cc9d 173d 2c10 223d 397e 383d 68c5 a1bb
00000080: efa4 4e3c 5e9d 092d 6863 4b3d 6185 2c3c
00000090: 9cc6 0abd 3e28 05bd 4507 fe3c ea63 b9bc
000000a0: 013b f1bb 7038 8b3d 5806 5ebd fb0f 3f3b
000000b0: 393b 29bd 6b98 9235 ca49 cebc b8db 123d
000000c0: fbc1 85bd c440 b8ba 2988 b6bd 119e c42d
000000d0: 5785 b7ba dd2a d93c 73c3 b23c ca34 26bc
000000e0: 6290 66bc 7c9a 943d 2a16 ba3c 4df1 a3bd
000000f0: 267f b6bb eabd f0bc 3e4a 1a3d c95a 8a3c
00000100: da3c 11bd 189f 9b3c c88d e72d 773e e9bc
00000110: b87e ad3c e4ba a3bc 2178 5b3c 5c5c b5bd
00000120: d35f 7abd 4a33 853d 3b71 863d c9ff 0b3d
00000130: e141 8ebd 930e a93d 14e5 61bc 1925 a2bd
00000140: e3fa 91bd cbea 1a3d b850 983d 1004 cb3b
00000150: ff62 07bd 57e6 88bd 869f 713d 267c 89bd
00000160: a358 013d 741e c53c 3e7a 90bc 3d4f 9e3d
00000170: 34d4 1cbc 4af1 54bd 353e d52b 9eea c73c
00000180: 7b85 10bd 8c6b 9bbd 01b0 2b3d 4557 653d
00000190: f678 93bb f56e 51b9 4549 923d f269 05bd
000001a0: a703 76bc 9268 c73b 59e9 4a3d 4f16 55bd
000001b0: 85c5 c53c 138b 82bd 232e a5bd 02d8 853c
000001c0: 25a1 e33c e23c aa3c d875 a3bb 2a36 543c
000001d0: 1c55 7baa 6cf8 9cbd c3a6 323d 7176 813c
000001e0: 6acd 89bd 28b0 76bd 2d1f 293d 00bd af3b
000001f0: f1f5 a33c ce57 983c 7ee9 953b 8426 523c
00000200: 2c0c efbc cc15 4e3d dd53 56bd 6ccf 132a
00000210: ef36 0b3d 19c2 9b3c ec13 a83c 0724 053a
00000220: 9246 93bd 70f2 b63a 0527 b13c 826f 2bbd
00000230: deeb 8e3c a328 dfbc b99b 363d ff49 fdbb
00000240: 6b45 6bbb 8f97 a9bc 4e29 e52d 87fd 38bd
00000250: ee9a b5bc f8ba a23d e184 5dbc 27a2 283d
00000260: d671 64bd 887d 223d 1a58 e83b 6e72 4d3d
00000270: f933 6abd 8e15 083c afe5 263d 86fd 233d
00000280: 47ad 6b3c 8d33 1c3d 1fd3 0fbd 6abd d7bb
00000290: 9f37 20bd f7ff 4cba 44eb a33c 15d7 f039
000002a0: 0f51 deb9 6b3e 513c 5e9f 6ebd 6835 6a3c
000002b0: aa94 4f3d 379f 483d 4eaf afba cf9d f0bb
000002c0: ee67 de3c 0667 db3c e9e4 973d 77ff d9bc
000002d0: 467e 58bb 4247 ba3c f331 22bb bf56 0f3d
000002e0: 3273 c53a 1af2 29bd da3d a03b f77e 68bd
000002f0: ecff be3b d5bf 5bbd e8fd a53c 32b0 5e3d
00000300: f69f 123c c863 9f3b 5dab aa3a 5c21 3bbc
00000310: dcc4 acbb 1262 99bc 957a 55bc 336d 633d
00000320: e2c2 8db9 dec6 4fbd 0751 123d af4f 6fbd
00000330: d61f f1bc 59b8 683d f101 b9bb eb27 883c
00000340: 7c9d 7e3b 1975 743c 40f6 453d a63d 203d
00000350: 0b30 943c b3aa 173d c277 89bd f8a1 99bc
00000360: 65dc eabc e647 84bc 5815 4fbd 07e9 b43c
00000370: ff54 da3b 4fae 173b 4ded 663c c253 b8ab
00000380: b203 00bd 8e75 043d f60f 853d 42fc 1c3d
00000390: b46e 00bb 7b99 bebc 7a9a 5bbd 6ea2 783c
000003a0: d60f 3cbd b01e bd3c e180 1b3c 67a9 29bd
000003b0: a96b 9c3c 3b65 153c 8252 2f3d dc4e 603d
000003c0: 7818 333b 3564 a03b da42 4bbd 9a30 41bc
000003d0: 37db f93c 54d5 0d3d ea62 34bc edb1 313d
000003e0: 6e31 883d 02da 933d 1587 78bc ab8e 35bc
000003f0: b0e5 44bc bc47 b83a ddb4 88bd 7072 17bc
0.079847455 -0.04692696 0.041330133 0.029970482 0.08138876 0.0018671628 -0.029130325 0.038461227
0.066183865 -0.051161125 -0.0006960451 -0.059604093 -0.007384081 0.082277015 0.031663645 -3.5550095e-13
0.00659686 0.0066556265 0.04058784 0.042762004 0.0022783075 0.08662715 -0.023989215 0.05462537
0.021165337 -0.025370544 -0.05885843 0.05273332 0.03701572 0.039566204 0.04504225 -0.0049368627
0.012612565 7.822491e-12 0.049655348 0.010529847 -0.033880815 -0.03250908 0.031009326 -0.02263065
-0.00736177 0.06797874 -0.05420527 0.0029153812 -0.041316245 1.0922207e-06 -0.02518167 0.03585407
-0.065311395 -0.0014057388 -0.08912689 2.2352816e-11 -0.001400153 0.026509697 0.021821713 -0.010144422
-0.0140725095 0.07256028 0.022715647 -0.08005009 -0.0055693565 -0.029387433 0.03766846 0.016888993
-0.035458423 0.01899676 2.6324623e-11 -0.028472168 0.021178588 -0.019986577 0.01339534 -0.08855507
-0.06112654 0.06503923 0.06564566 0.034179483 -0.06946159 0.08254733 -0.013787527 -0.07917232
-0.07127931 0.037821572 0.07437271 0.0061955526 -0.033053394 -0.06684559 0.058990024 -0.067131326
0.03157867 0.024062373 -0.017636415 0.07729957 -0.009572078 -0.051987924 1.5151826e-12 0.024403866
-0.035283547 -0.07588872 0.041915897 0.05599143 -0.0045005037 -0.00019973128 0.07142881 -0.03257174
-0.015015519 0.006085464 0.049538944 -0.05202323 0.024142036 -0.063741826 -0.080654405 0.016338352
0.0277868 0.020780984 -0.0049884133 0.012952367 -2.2322807e-13 -0.0766457 0.043616068 0.015803548
-0.06728633 -0.06022659 0.041289497 0.0053631067 0.020014735 0.018596556 0.0045749536 0.012826566
-0.029180609 0.050313756 -0.052326072 1.3128187e-13 0.033987936 0.019013451 0.020517312 0.0005078916
-0.071911946 0.001395775 0.021625051 -0.04185439 0.017446455 -0.027241057 0.044582102 -0.0077297683
-0.003589953 -0.020702152 2.6052629e-11 -0.045163658 -0.022168603 0.07945818 -0.01352045 0.041170266
-0.055772625 0.039670497 0.0070905806 0.050157957 -0.05717847 0.00830592 0.040746387 0.0400367
0.014384574 0.0381351 -0.03511345 -0.006583859 -0.039115544 -0.0007820124 0.020009644 0.00045936616
-0.00042403533 0.012771229 -0.058257453 0.01429496 0.050678886 0.048979964 -0.0013403685 -0.007343031
0.027149167 0.026782524 0.07416708 -0.026611073 -0.003303425 0.022739056 -0.002474901 0.034994837
0.0015064238 -0.04149065 0.004890186 -0.056761708 0.005828848 -0.053649742 0.020262673 0.05436725
0.0089492705 0.00486419 0.0013021041 -0.011421528 -0.005272491 -0.018723521 -0.013029714 0.055524062
-0.00027038815 -0.050726764 0.035721805 -0.0584256 -0.029434126 0.056816433 -0.0056459834 0.016620597
0.0038851192 0.014920496 0.048330545 0.039121293 0.018089315 0.037028026 -0.06712295 -0.01875399
-0.028669545 -0.016147565 -0.050557464 0.022083772 0.0066629644 0.0023144668 0.014094663 -1.3097234e-12
-0.031253524 0.03233867 0.06497185 0.03832651 -0.0019597234 -0.023266545 -0.053614117 0.015175445
-0.04591354 0.023085922 0.009491176 -0.04142132 0.019094305 0.0091183735 0.042803295 0.054762706
0.0027327817 0.004894758 -0.0496243 -0.011791373 0.030500038 0.034627274 -0.011009911 0.043382574
0.06650053 0.07219316 -0.015168925 -0.011081378 -0.012017652 0.0014059464 -0.06675122 -0.009243593

bias f4 [128]
00000000: 5ba7 73bc d668 6dbc 6cf3 c23c 0dfd 783d
00000010: 744f aebc 08bb a7bc ed90 a63a a175 ab3d
00000020: bf2b d83d a65b 3cbd 1f56 12bd b50a 933c
00000030: 9d53 dc3c 53bc d63d cea6 a5bc d34d a4bd
00000040: a6f8 a53d 31cc 0ebc 1845 04bd e7e0 8d3c
00000050: 4d46 92bd cee6 82ba 4bb1 963d b9a5 4fbd
00000060: d8ef d93c 8275 6e3d 868d ac3d c5f8 28bd
00000070: 87d7 7e3d 9c5f 803a f140 2cbd df5e a6bd
00000080: 1746 533d 6b64 a1bd 5d25 9f3d 2be8 50bd
00000090: 4824 363d b9b8 813c 934d a7b6 f22c 72ba
000000a0: fc40 a23c 3197 89bd d57d 4cbc 038a 42bd
000000b0: 8829 1d3d 246e 44bd c057 b63d 6925 ad3c
000000c0: 5ac0 f5bc f051 0ebd f088 a53d 026a 3dbd
000000d0: 5ec8 15bd 1f2b d8bc 4d85 993d 1056 b5bc
000000e0: e87e 763d 4d36 1cbd b0f8 e5bc d467 88bd
000000f0: 1dac 84bc 4f31 203d 98b8 4bbd a311 9d3d
00000100: 2bc2 d0bb efd3 873d 3793 26bd 6cbf ce3c
00000110: dcc6 edbc 378b 503c a17e c2bc f3b8 93bc
00000120: dca8 cd3c e38d 9abc fd9a aa3d adf8 f83c
00000130: 0f94 1bbd 4905 1e3c a4ae 1dba 47cd 57bd
00000140: 4077 8fb9 ba16 4dbd 44ac 7d3d 08a1 8dbd
00000150: 9f2b 41bd 44e4 b6bd abd2 873d a4cc 873d
00000160: 36ac d73d 2c0e 34bb 9eda 483d bdef 8e3a
00000170: 7810 a4bd 7b16 05bc b84d 4a3c b46b 9b3d
00000180: 1bb7 b2bc 6bb2 27bd 85ac 973d a0d2 2d3d
00000190: 595e f73c 1366 de3c aad4 bebc 6501 91bd
000001a0: e3a6 24bd c25f 23bd 6182 033d b6fe e2bc
000001b0: ad0b 053d fdb0 a23d 1ad0 603d 0352 67bc
000001c0: cc9f ae3d b7d5 643d 1841 163d e2b5 aabb
000001d0: 9f4e 2d3d 7d28 35b8 88f7 1db3 963e 6fbd
000001e0: 4bd9 56bd 2137 8a3c a843 883d a7f9 173d
000001f0: bacf b93d 4954 073d c2a4 51bd 092e 1fbd
-0.014871444 -0.014490327 0.023797713 0.060788203 -0.02127812 -0.020474926 0.0012707986 0.08372045
0.10555219 -0.04598584 -0.035726663 0.017949441 0.026895339 0.10485139 -0.02022114 -0.08022656
0.081040666 -0.008715675 -0.032292455 0.017319156 -0.07142315 -0.0009986998 0.07358035 -0.050695155
0.026603624 0.058217533 0.08425431 -0.04125287 0.06221726 0.0009794119 -0.04205412 -0.08123564
0.051580515 -0.07880481 0.07770798 -0.051002663 0.044468194 0.015835153 -4.9860187e-06 -0.0009238265
0.019806378 -0.067182906 -0.012481173 -0.0474949 0.038369685 -0.0479566 0.08903456 0.021136003
-0.029998947 -0.03474611 0.080827594 -0.046243675 -0.03656804 -0.02638775 0.07496128 -0.022135764
0.06017962 -0.038137723 -0.028072685 -0.06660429 -0.016195351 0.039109524 -0.04973659 0.076693796
-0.006370803 0.0663222 -0.04066774 0.025237761 -0.029025488 0.012728504 -0.023742022 -0.018032527
0.025104932 -0.018866485 0.08330343 0.030392015 -0.037982997 0.009644815 -0.0006015098 -0.052686002
-0.00027363934 -0.050070502 0.061931863 -0.0691548 -0.04716074 -0.08930257 0.066319786 0.06630829
0.105308935 -0.0027474267 0.049036615 0.0010905188 -0.08010954 -0.008123036 0.012347631 0.07588902
-0.021815827 -0.040941637 0.07405952 0.042437196 0.030196356 0.027148282 -0.023294766 -0.07080344
-0.040198218 -0.039886244 0.03210676 -0.027709346 0.032481838 0.07943914 0.05488596 -0.014118674
0.085265726 0.055867877 0.036683172 -0.0052096704 0.042311307 -4.319147e-05 -3.677954e-08 -0.058409296
-0.05245332 0.01687199 0.066535294 0.03710332 0.09072824 0.033039365 -0.051182516 -0.038862262

weight f4 [1, 128]
00000000: bb86 84bb 6ac5 61bd ce06 ebbc a71d 513d
00000010: 799c 31bd bab2 7fbd dbcd 9abb c357 12bd
00000020: 81e1 bebd 7635 abbc d5bc 53bd ae7f 553d
00000030: e257 b3bd e75f a5bd a352 6ebc 64a5 2c3d
00000040: 5bae d3bd 54ba 66ba a855 1f3d 171a df3b
00000050: ccbc 23bd f9ad 7cbd c2dd 6cbc 02e8 4b3c
00000060: 6c6d 46bd e54d b23c ee54 abbd ec61 84bd
00000070: 8b45 b8bd 9d25 973d e6af 023d 28d3 f7bc
00000080: 022d 173b 98c6 093c 7aa9 53bd ddf6 b0bc
00000090: 517e 5fbd 7d01 1cbd c00a 673a 1f8a 163d
000000a0: eda7 c23c 300a 413d b426 863c ea97 183b
000000b0: 3397 2c3d b8b3 2eab 840b 5cbd 0b74 8ebd
000000c0: 0de1 dc3c 4dbf a63b e931 2dbc e66b 6b3d
000000d0: 7bf6 bdbd 001c 47bc 6d9d a33d 89ab 05bd
000000e0: 713f a1bd 9f33 433b 6079 84bd 68a7 e43c
000000f0: 15dd 2dbc dd0b 80bd 2ad3 dcbb b341 a9bd
00000100: 0118 a5bd 13a6 483d 81d8 10bd 8cb4 fe3c
00000110: a827 5b3b f6cc b83b 2831 8c3d 7fa6 73bc
00000120: 9a25 bd3c 8517 dc3b e503 9fbd 6b0d 193d
00000130: 8ef8 143d 2b90 4cbd b34e 15bd 6578 e1bc
00000140: 1fee 0b3d 210a a93d c3cb d63b c80c ad3c
00000150: 871a 3e3d e234 7fbc 7ca5 803d 5d1a 243a
00000160: 3102 9ebc 1915 a3bd 6f99 c63c e806 2dbc
00000170: 6b93 123c 3cec 5ab7 bfe4 43bd 6676 df3c
00000180: b73d e03c 0c48 e33b 4e20 103d a1f4 873d
00000190: 5e82 723d c44b 333d 0d35 5abd 2908 803b
000001a0: b573 9b3d f70f 85bd 4a06 4a3d 2545 0c3d
000001b0: 3c2c a5bd e23e dcbc 5bee a03d b393 f53c
000001c0: 25a7 30bd 390b edbc 092f 6b3d 2e4a eb3c
000001d0: 0482 5abd bebd 5a3c ef87 73bc 5701 3b3c
000001e0: 6a12 01bc 7121 c4bd 9a2a b13d fbfc a23d
000001f0: f186 6ebb 4348 ab3c acc5 4f3b ec5a d2bc
-0.0040443814 -0.05511991 -0.028689768 0.05105367 -0.043362115 -0.062426306 -0.004724247 -0.035728227
-0.09320355 -0.020899516 -0.051693756 0.052123718 -0.08756997 -0.080749325 -0.014546069 0.042149916
-0.1033599 -0.0008801569 0.038900048 0.00680853 -0.039974973 -0.06168935 -0.014457168 0.012445452
-0.048444197 0.021765659 -0.083658084 -0.064639896 -0.08997639 0.07380221 0.03190603 -0.030252054
0.0023067598 0.008409165 -0.051675297 -0.021602089 -0.054563824 -0.038087357 0.00088135526 0.036752816
0.023761714 0.047128856 0.016375877 0.0023283907 0.042136382 -6.206663e-13 -0.05372192 -0.06955727
0.026962781 0.005088723 -0.010570982 0.057475947 -0.09275528 -0.012152672 0.07989011 -0.03263429
-0.078734286 0.0029785407 -0.06468463 0.027911857 -0.010611792 -0.06252263 -0.00673904 -0.08264484
-0.08061219 0.048986506 -0.035362724 0.03109195 0.0033440385 0.0056396676 0.06845313 -0.014871239
0.023089219 0.006716671 -0.07764415 0.037366312 0.036369853 -0.049942177 -0.036452007 -0.027523229
0.034162637 0.08253885 0.006555052 0.021124259 0.046412017 -0.015576573 0.06281564 0.0006260032
-0.019288154 -0.079630084 0.024243085 -0.010560729 0.00894628 -1.3048815e-05 -0.04782557 0.027278136
0.027373178 0.006936079 0.03518706 0.06638456 0.05920636 0.043773428 -0.05327325 0.0039072228
0.07590429 -0.06497186 0.049322404 0.03424563 -0.08065078 -0.026885454 0.07857963 0.029977655
-0.04312815 -0.028936015 0.057417903 0.028721895 -0.05334665 0.013350902 -0.014863952 0.011413894
-0.007877925 -0.09576691 0.08650704 0.079584084 -0.003639635 0.02090848 0.0031703515 -0.02567812
