Model/full_gcn_cwe_120_test_lr_0001.pth (torch, 348981 bytes, 11 tensors)

bias f4 [128]
000000 63 22 de 3d d5 0f 4d be 7f 0b 03 3e 3f 0c 65 3d
       0.108464025 -0.2002557 0.12797354 0.055919882
000010 6d ce 83 be 6b b3 05 00 e5 41 8c 3e bd 6a 0c bd
       -0.25743428 5.2354e-40 0.27394024 -0.03428148
000020 d6 c2 6c be 66 f1 81 be e8 28 a1 bd d4 81 56 3d
       -0.23121199 -0.25379485 -0.078691304 0.052369907
000030 4b 3b fb b0 2c 4e 9d 3e fc a1 04 80 b4 36 50 bd
       -1.8279506e-09 0.30723703 -4.25451e-40 -0.05083342
000040 00 c4 02 be fa 6b 7f 3e e2 9e 03 00 8d 0a da bd
       -0.1277008 0.24943534 3.32503e-40 -0.10646544
000050 05 f5 97 ba 92 40 49 ad 0f eb 89 3e 5a 32 41 af
       -0.0011593407 -1.1439865e-11 0.26937148 -1.7571136e-10
000060 e2 b4 76 3e aa f5 5f 3d 0e a0 9e be 98 98 d3 bd
       0.24092439 0.054677643 -0.30981487 -0.10331839
000070 22 fc a0 bd 8b 0c 45 be d5 3e c2 3d 09 fb 2d 3e
       -0.078605905 -0.19243066 0.094846405 0.16990294
000080 3f c1 01 00 65 15 5e 3d e9 83 01 80 32 73 03 00
       1.61159e-40 0.054219622 -1.39156e-40 3.16831e-40
000090 a7 00 b0 b7 11 00 6e 3e 90 4b 8e b9 bb ff 45 be
       -2.0981139e-05 0.23242213 -0.0002714065 -0.19335835
0000a0 49 ed d5 3c 20 86 09 2e 09 11 8a b9 29 c9 21 12
       0.026114123 3.126932e-11 -0.00026334103 5.105059e-28
0000b0 d1 33 42 ba 2d 59 9c be 32 eb 0c be e4 1c 5b be
       -0.0007408234 -0.30536786 -0.13761595 -0.2139774
0000c0 23 f2 bc bc ca 27 04 00 83 cb c7 bd 82 9a 62 3e
       -0.023064679 3.81616e-40 -0.09755614 0.22129253
0000d0 b1 ab 30 a2 85 9d 03 ba 52 37 04 3c b2 eb 94 3d
       -2.394334e-18 -0.00050207257 0.00806983 0.07271518
0000e0 4a dc 42 a4 9d 79 5c be 30 37 90 14 a8 02 2d 86
       -4.2253636e-17 -0.21530767 1.4562052e-26 -3.2539635e-35
0000f0 d1 1f ee 3c f5 27 66 be f0 5d c3 b9 b2 cb 4b be
       0.029067906 -0.2247618 -0.00037263287 -0.19901922
000100 38 2a 98 3a e8 03 a2 ab 06 4a 15 3e 6d 67 eb a0
       0.0011609262 -1.1511877e-12 0.14579019 -3.987899e-19
000110 20 1e a6 3b 26 1b e7 3d fd 38 80 b0 2f 55 49 3e
       0.005069509 0.11284475 -9.329423e-10 0.19661401
000120 ba e6 53 3e 90 96 62 3e f7 a2 8e 3e 26 19 e2 bc
       0.20693484 0.22127748 0.27858707 -0.027599882
000130 26 e0 b6 3d a0 20 21 9f cf 35 b3 3d ca 72 c4 bd
       0.08929472 -3.4120063e-20 0.087504975 -0.09592207
000140 cc 15 2e be ce 69 77 8a 32 51 d5 bb 26 c7 02 bd
       -0.17000502 -1.1912517e-32 -0.0065099234 -0.031928204
000150 99 37 5d be 52 80 88 b9 3c 62 f4 bb 4b 11 b8 3e
       -0.2160324 -0.00026035547 -0.0074579995 0.35950693
000160 87 57 a3 3e 89 63 f0 3b 2e 6d 88 bb d1 b3 d1 bd
       0.31902716 0.0073360843 -0.004163406 -0.102393754
000170 0e 15 f6 3c cd 52 0a be 97 02 27 bd c1 e7 6d 3e
       0.030039337 -0.13508148 -0.040773954 0.23232938
000180 a1 9d 85 be 20 bc ab 3e d2 74 30 3e 6d 3f bb be
       -0.26096824 0.33541965 0.17232063 -0.36571828
000190 80 00 0e bd 1e 54 95 3e 0e 0a 30 be 7b eb 35 3d
       -0.034668446 0.2916574 -0.17191336 0.044414025
0001a0 5b 95 a9 3e 1e 34 8d b9 c0 f5 57 be 65 e4 3a be
       0.33121762 -0.00026932446 -0.2108984 -0.18251188
0001b0 54 c7 01 be 5a c0 9b 3e cb a9 f9 bb 1e dd c9 bc
       -0.12673694 0.3042019 -0.007619118 -0.02464157
0001c0 9a b0 94 3e f6 40 86 3c 2b 6e aa b8 9f b1 ce bd
       0.29040986 0.016388398 -8.126752e-05 -0.10092472
0001d0 32 09 ab bd b6 ba 46 be 65 f4 93 3e ad 6a 82 3e
       -0.08351363 -0.19407162 0.28897396 0.25472012
0001e0 ef a6 7f be 8b 4b 14 3e 35 bd 89 3e 2a 91 8b be
       -0.24966024 0.14481942 0.26902166 -0.2725919
0001f0 81 80 52 bd ab 89 00 9e 8b 81 6c be c6 b0 10 3e
       -0.051392082 -6.804733e-21 -0.23096292 0.14129934

weight f4 [128, 2]
000000 b7 93 6c 3d 67 59 12 bf 2d 7d 30 bb 15 16 0d 3e
       0.05775806 -0.5716767 -0.002693008 0.13777955
000010 bd 24 7c 3d 9d f5 70 be 10 69 31 3d e9 a0 1d be
       0.061558474 -0.23531194 0.043313086 -0.15393414
000020 43 7a d0 3b a1 be 24 3e 4e e9 87 af 75 66 a7 9d
       0.006362231 0.16088344 -2.472213e-10 -4.431047e-21
000030 08 a0 ed 3a cb 90 12 be ce 01 a7 3d 33 0e ef be
       0.0018129358 -0.14313047 0.08154641 -0.4669052
000040 6b 86 20 bb 2f 99 2b 3e 2a db 90 3d 76 a1 c5 bd
       -0.0024494182 0.16757654 0.07073052 -0.09649937
000050 21 28 83 be a4 4b 1e 3e 2d 1b 85 3d c2 da 07 bf
       -0.25616553 0.15458542 0.06499324 -0.5306817
000060 63 49 87 ba 00 dd cb b7 e8 96 d5 3c e6 8e 07 bf
       -0.0010321554 -2.4302397e-05 0.026072934 -0.5295242
000070 ee 0e 92 a0 ee e0 aa 8b 15 31 5b be f6 e2 92 3e
       -2.4743242e-19 -6.5820055e-32 -0.21405442 0.28688782
000080 5c af c0 3d cf 6d 66 bd 1b f2 6a 3d c6 aa 17 bf
       0.09408447 -0.056257065 0.057359796 -0.59244955
000090 b3 0a 5a ab 21 6d 9e 87 be 62 a9 3d 07 ba c3 be
       -7.7464006e-13 -2.3837338e-34 0.08270787 -0.38227865
0000a0 81 e0 65 bb 57 b4 09 bb 0a f1 21 ba fc b1 71 b7
       -0.0035076442 -0.0021012032 -0.000617758 -1.440616e-05
0000b0 0c f1 a8 3c 1a cc e9 be 8b 67 1d b6 62 9d 16 b3
       0.020622753 -0.4566353 -2.3455093e-06 -3.5067735e-08
0000c0 dc 2b 39 be ec 06 6b 3e cf 53 1b be 86 77 cd 3d
       -0.18083137 0.22951859 -0.15168689 0.10032563
0000d0 78 78 3a be 21 88 f9 3d 32 4e fd 3c 46 99 9d 3c
       -0.18210018 0.12184168 0.030921075 0.019238126
0000e0 f1 66 8a be 7a 18 4f 3e 8e 27 99 3d 0b 7c 87 3d
       -0.27031663 0.20224181 0.074782476 0.06615456
0000f0 be 65 98 3d e6 a1 2a 3e be ff 5a bc 6a 32 62 bd
       0.07441281 0.16663322 -0.013366638 -0.05522386
000100 51 a2 df ac 42 54 93 91 6d 3f 08 bc b6 47 d9 bc
       -6.356062e-12 -2.3244438e-28 -0.008315903 -0.026523452
000110 11 7a 27 92 b7 72 04 00 ee ca 2b 99 41 25 00 00
       -5.2846367e-28 4.08494e-40 -8.881474e-24 1.3364e-41
000120 90 55 44 bc 87 7a cf b9 de 84 8e 3b 95 b5 22 be
       -0.01198329 -0.00039573407 0.004349335 -0.1588958
000130 41 58 db bb 24 d6 25 bb 44 27 db 3d 76 52 b7 be
       -0.0066938703 -0.002530464 0.10700849 -0.358051
000140 42 32 14 bd cc 34 09 3e 0d 95 ca b6 9b a4 29 b3
       -0.036180742 0.13399047 -6.037421e-06 -3.9498087e-08
000150 ec 31 49 bb 7b c2 0a bb 97 d0 11 b0 dc 2d 37 a2
       -0.0030699922 -0.0021173048 -5.3047117e-10 -2.4825402e-18
000160 e3 a1 86 bc 3a 1b 0e bc f4 73 c9 3d 7d 87 1a be
       -0.016434615 -0.0086734835 0.098365694 -0.15090747
000170 67 c0 52 be a0 92 38 3e 53 b4 8e bb a8 22 2a 3e
       -0.20581208 0.18024683 -0.0043549924 0.16614783
000180 4f 27 74 37 69 09 89 bd ae f3 da 84 5d 1e 01 00
       1.4552686e-05 -0.06691248 -5.1475338e-36 1.02728e-40
000190 76 60 80 3d 3a f7 95 3c e1 8e 26 be b5 5f 5f 3e
       0.062683985 0.018306363 -0.16265441 0.21813853
0001a0 fd a4 f1 b2 6a b2 83 b1 6f 96 0b bc 6c bc 87 bb
       -2.813112e-08 -3.832885e-09 -0.008519753 -0.0041423347
0001b0 00 61 e4 bb 0d 95 69 bc 63 0f 96 3d 3e 8b fa be
       -0.006969571 -0.014256728 0.073271535 -0.48934358
0001c0 d3 ca cc b2 1b b2 8f a7 f4 5d aa 3d 81 8e 9f 3d
       -2.384096e-08 -3.9883575e-15 0.083187014 0.07790852
0001d0 c7 d2 47 ac 8e 0c 9d 8a 98 d1 28 b0 3c 7b 9f 9d
       -2.8396606e-12 -1.5123273e-32 -6.1415895e-10 -4.221437e-21
0001e0 a3 9c f3 bc 33 bb ab bc 2d 3d 27 3e 43 c6 89 be
       -0.029737776 -0.020963287 0.1633193 -0.26909074
0001f0 f2 5a 51 3d 44 45 e4 be c1 7a 15 bb 4e f8 10 3e
       0.051112123 -0.44584095 -0.0022808763 0.1415722
000200 ef 8c 96 bd e2 8c e8 3d 27 9a 0d b9 69 42 75 b4
       -0.073511 0.11354996 -0.00013504234 -2.2841563e-07
000210 bf fc 40 3b 8f 72 e4 bd 25 6b 2d b9 e9 e9 6e 22
       0.0029447523 -0.11154663 -0.0001653848 3.2378846e-18
000220 66 93 07 3d 45 c8 60 3d 85 7d 7e 3d 77 15 e6 be
       0.033099554 0.054878492 0.062131424 -0.4493825
000230 44 76 3e b2 c5 51 3b b2 ef 59 0f 3d 35 4e fa be
       -1.1086346e-08 -1.0903425e-08 0.034997877 -0.48887792
000240 e7 e4 0a be 17 f1 16 3e ca 7b 31 3b ae 96 25 be
       -0.13563882 0.14740406 0.002708184 -0.16170761
000250 83 f0 6c 3b fb 77 52 be 0a 1b a7 bc ef ba ed bc
       0.0036154098 -0.20553581 -0.020398635 -0.029019801
000260 21 0d 6b be e1 50 0a 3e 95 71 b6 ac 7a 1f a9 b1
       -0.22954227 0.13507415 -5.1853613e-12 -4.922126e-09
000270 be ed e4 3c aa bb 7f bd bb 59 dc 3d b3 b1 93 bc
       0.027945396 -0.06243483 0.10759302 -0.01802907
000280 6f 10 47 be ca 0b 33 3e cf 39 d7 b9 0a 66 82 af
       -0.19439863 0.17484966 -0.00041051066 -2.3719365e-10
000290 b3 76 db bc 18 83 9d bc f3 19 3b be 2d 31 52 3e
       -0.026789999 -0.01922755 -0.18271618 0.20526572
0002a0 36 fd 95 3d d3 23 c5 3c 4a cd 03 bc d6 d2 47 bb
       0.07323687 0.024064934 -0.00804455 -0.0030490658
0002b0 e1 78 a7 bd 60 8f 1a 3e 18 19 bb 3b 0d eb 88 be
       -0.08177353 0.15093756 0.0057097785 -0.2674183
0002c0 c6 6a 1a be a1 4d 0c 3e 8b 5d 68 be 19 8e 3d 3e
       -0.15079793 0.13701488 -0.22691934 0.18511237
0002d0 3b c2 19 bc c8 81 ba bb be f9 e9 bd 95 84 77 3d
       -0.009384687 -0.0056917407 -0.11424588 0.060429174
0002e0 65 94 43 be 62 f4 16 3e fc f2 1b bd 19 44 d4 3d
       -0.19099577 0.14741662 -0.038073525 0.10364551
0002f0 51 0a 22 3e a7 95 f5 bd f8 7a 33 be 40 20 68 3e
       0.15824248 -0.119914345 -0.17527378 0.22668552
000300 8d 16 18 3e e1 b0 79 be e7 fb 4b bd e3 92 b1 bd
       0.14852352 -0.2438388 -0.04980078 -0.086705945
000310 d0 61 13 be 0f 87 c2 3d e1 50 ac 3d fe 81 2e bd
       -0.14392781 0.09498417 0.08413864 -0.04260444
000320 6b 95 22 be a5 48 5f 3e cd bd cb 3c c4 fb 00 bf
       -0.15877311 0.21805055 0.024870778 -0.50384164
000330 01 49 cc 3c d3 d3 fd 3d 2e 01 85 3d 06 77 06 bf
       0.024937155 0.12393918 0.06494366 -0.52525365
000340 8b 07 b4 3b 88 5d 7f be 11 58 6f bb 20 40 81 bb
       0.0054940633 -0.24938023 -0.0036520998 -0.003944412
000350 fd 4b 8d 3b fe dd 4e 3d 23 78 58 3d 7f 7a 11 3d
       0.004312037 0.050504677 0.052848946 0.035517212
000360 c2 3d 4d 3d e8 5a 96 bd 8a 02 1d be 2a e8 0b 3e
       0.050107725 -0.07341558 -0.15333 0.13662782
000370 87 e5 97 bc 40 3b 6a 39 1e c9 e0 bd 82 2c c3 3d
       -0.018542064 0.00022338051 -0.1097586 0.095299736
000380 7c dc 91 3b 11 c8 5c be c2 6e 63 be 2a f7 ff 3d
       0.0044513326 -0.21560694 -0.2221022 0.12498315
000390 b7 29 5a bb 64 77 e7 b7 66 f7 24 bb 1d 35 40 bd
       -0.0033289024 -2.7592941e-05 -0.0025171875 -0.046925653
0003a0 a8 12 01 bd 9e 0b 48 3d 32 d4 55 3c 56 74 d0 3d
       -0.031511933 0.048839204 0.01305108 0.10178439
0003b0 47 9d 9d 3c b0 5c a1 be aa ee 89 3b 86 52 47 be
       0.019240035 -0.31516027 0.004209359 -0.19465074
0003c0 9c 70 47 3b 8e 32 4b 3e 1a c1 87 bd 2f 85 d8 bc
       0.003043211 0.19843504 -0.06628628 -0.026430694
0003d0 9a 69 8f 3b 10 e7 51 be ea 4a 4c 3b f6 18 36 3e
       0.0043766024 -0.204983 0.0031172582 0.1778296
0003e0 2e b2 42 b7 bc 02 fa bc 5d cc b9 b6 17 4a 80 b1
       -1.1604787e-05 -0.030518882 -5.5372207e-06 -3.7337133e-09
0003f0 89 49 2c be 31 b4 c9 3d bf 62 07 bd 6a 6b f2 bd
       -0.16824926 0.09848822 -0.033053156 -0.11836894

bias f4 [128]
000000 53 15 65 93 50 96 91 be 61 a8 9c 9f a6 bc 51 b1
       -2.8914377e-27 -0.28434992 -6.634713e-20 -3.0520737e-09
000010 21 60 11 3e ea f5 11 bc 72 7d 5c be 70 24 fe 3d
       0.14196827 -0.008908728 -0.21532229 0.12409294
000020 9a 14 81 ba 9e b6 16 ba a3 15 dd bc 47 c2 2e ad
       -0.0009848059 -0.0005749258 -0.026987856 -9.933893e-12
000030 fd 61 b7 ae f4 33 37 3e c2 7d 9c b3 f8 be 20 93
       -8.339283e-11 0.17890912 -7.287191e-08 -2.0288994e-27
000040 4d 29 3d be 02 58 f7 96 db ac 50 bd 82 d6 46 33
       -0.18472786 -3.9960543e-25 -0.050946098 4.629556e-08
000050 b6 d4 39 3e 97 a7 8f a9 9c 5a 25 bb 5f 63 03 b8
       0.18147549 -6.379548e-14 -0.002523101 -3.132538e-05
000060 8b 29 05 b5 59 ed d4 3d 74 2e c7 3d 96 ed bf 90
       -4.9606814e-07 0.10396833 0.09725657 -7.5702276e-29
000070 04 d4 31 be 58 e2 68 3e 3c 8d 30 3e 61 00 f2 ad
       -0.17366034 0.22742593 0.17241377 -2.7512383e-11
000080 d3 ee a3 bd 87 11 13 bb 9e 0e 52 3e 97 02 23 3e
       -0.080045365 -0.0022440867 0.20513389 0.15918957
000090 70 f1 41 3e 5c 67 49 be dd 58 13 3e 29 1a 0b be
       0.18939757 -0.19668335 0.14389367 -0.13584198
0000a0 91 4b 6b be 77 74 b3 3d 50 8c b3 3d 9f 87 31 3c
       -0.22978045 0.08762448 0.08766997 0.010835557
0000b0 86 c8 fd 3d 1a 27 a4 ab 38 c1 d9 3d 52 c2 c9 b6
       0.123917624 -1.1663754e-12 0.10632557 -6.0128887e-06
0000c0 28 f5 26 b8 69 44 36 bb 34 f8 90 a5 92 04 28 b9
       -3.9805804e-05 -0.0027811772 -2.5148207e-16 -0.00016023431
0000d0 f5 b5 46 3d 49 c9 f3 b6 6b 44 18 9c 13 59 9f be
       0.04851337 -7.265397e-06 -5.038101e-22 -0.31122646
0000e0 30 d1 10 3e 7e 31 e7 ae f7 c6 69 b6 59 e5 35 3d
       0.14142299 -1.05134554e-10 -3.4835518e-06 0.044408176
0000f0 3f 0c 38 3e 97 ef d1 3d 74 61 18 be 73 4a 24 bc
       0.17973422 0.10250776 -0.14880925 -0.010027516
000100 97 43 c1 b5 12 05 33 3e fd 9a 54 3e a9 84 7d be
       -1.4399292e-06 0.17482403 0.20762248 -0.24757637
000110 87 a4 f7 3d 1f be 01 bc 0a 9b fa bd d5 df ab bd
       0.12091928 -0.007918864 -0.122366026 -0.08392302
000120 49 7e 15 be a6 7b 4b 3e 1c 8d 8e bc f5 3c 08 bc
       -0.14598955 0.19871387 -0.01740127 -0.008315315
000130 55 f1 90 ba ea 10 f4 3d 20 92 81 bd 61 6e 75 a7
       -0.0011058251 0.119172886 -0.06326699 -3.4060417e-15
000140 a2 39 25 3d 87 35 40 be ff ec 80 bb 49 c2 3a a3
       0.040338166 -0.18770419 -0.003934502 -1.0124222e-17
000150 f6 e4 54 bb dd 81 20 be 6f 33 a9 bb 04 64 8a 3e
       -0.0032485104 -0.15674539 -0.005163602 0.2702943
000160 e9 3e e5 a7 d6 cb 88 3e db 7a 70 3b c1 ec be b6
       -6.3628475e-15 0.26718014 0.0036694321 -5.690003e-06
000170 52 64 a6 b8 2e d2 cc b6 4e 09 cc 3d fb 8b 3e 3e
       -7.934183e-05 -6.104142e-06 0.09962712 0.18608086
000180 95 27 c8 bb 9c 9d 15 be f5 ae 7e 3e 1c d6 87 3e
       -0.006108234 -0.14610904 0.24871428 0.2653054
000190 65 85 d3 3d 36 d2 69 bd e2 ef 19 3c 56 16 9b 97
       0.10328177 -0.05708524 0.009395571 -1.0022279e-24
0001a0 91 07 9c b9 f0 0d eb 3d bb b5 e3 3c e2 54 64 3e
       -0.00029760276 0.11477268 0.027796617 0.22298005
0001b0 7f 8a 02 be a4 3d b9 b6 26 d5 11 be d2 e0 42 b2
       -0.12748145 -5.5206056e-06 -0.14241466 -1.1343404e-08
0001c0 72 fd 9b 3e 53 01 ac b8 0a 78 54 0d 09 cd 03 00
       0.304668 -8.201846e-05 6.5472035e-31 3.49059e-40
0001d0 ac eb 15 bd 44 bb bd bc 3d 5b c3 38 5b 07 59 bc
       -0.036601707 -0.023160584 9.315319e-05 -0.013246383
0001e0 32 af 18 b9 49 66 22 3d b0 b1 08 bc 7b ff 5c bb
       -0.00014561115 0.039648328 -0.008343145 -0.0033721614
0001f0 00 5d 80 be 9b 5a c0 b9 7d a0 50 b6 6a dd 20 b7
       -0.25070953 -0.000366886 -3.1087832e-06 -9.588295e-06

weight f4 [128, 128]
000000 0b ac 02 80 5f e6 01 80 5d 66 07 00 e4 a6 00 80
       -2.45388e-40 -1.74477e-40 6.7957e-40 -5.9869e-41
000010 f0 11 01 00 03 91 07 00 f7 5d 05 80 2c 4b 02 00
       9.827e-41 6.94869e-40 -4.92886e-40 2.10638e-40
000020 3b 24 04 00 8a 11 01 00 72 bc 06 80 db 88 04 00
       3.80339e-40 9.8127e-41 -6.18614e-40 4.16436e-40
000030 30 e8 06 00 b1 71 06 80 3e 8a 02 80 1c ee 03 00
       6.34306e-40 -5.91798e-40 -2.33263e-40 3.60924e-40
000040 a8 41 07 00 3b e8 07 80 e0 98 07 80 7a 60 00 00
       6.66401e-40 -7.26157e-40 -6.9769e-40 3.4609e-41
000050 0b 2f 01 00 85 c1 07 00 ac 5d 00 80 1a 5f 08 80
       1.08711e-40 7.1227e-40 -3.3603e-41 -7.688e-40
000060 9d 0c 07 80 e0 ed 07 00 79 07 05 00 d2 39 04 00
       -6.47373e-40 7.28182e-40 4.61858e-40 3.88084e-40
000070 01 2e 03 80 57 03 05 80 0a 7b 03 80 a8 99 07 00
       -2.9201e-40 -4.60376e-40 -3.19645e-40 6.9797e-40
000080 24 9d 07 00 4e 0e 04 00 e6 18 05 80 72 53 04 00
       6.9922e-40 3.72474e-40 -4.6811e-40 3.97277e-40
000090 88 a1 07 80 b8 e2 01 00 c8 28 00 80 e8 e0 06 00
       -7.00795e-40 1.73167e-40 -1.463e-41 6.31694e-40
0000a0 fb 61 04 00 b4 6c 08 00 ba ca 01 80 09 80 03 80
       4.02491e-40 7.7368e-40 -1.6456e-40 -3.21437e-40
0000b0 24 9b 08 80 f7 ff 01 80 e4 3a 03 80 58 4b 06 00
       -7.90338e-40 -1.83658e-40 -2.96632e-40 5.78041e-40
0000c0 40 74 03 80 ac d3 03 00 db 8f 04 00 7a b4 03 80
       -3.17209e-40 3.5144e-40 4.18948e-40 -3.40249e-40
0000d0 8f 78 08 00 52 d9 06 80 5a 51 02 80 d2 2f 00 80
       7.77932e-40 -6.28973e-40 -2.12854e-40 -1.7155e-41
0000e0 ee f0 01 00 31 fb 06 00 3c 9e 07 80 2c 88 08 80
       1.78265e-40 6.41123e-40 -6.99612e-40 -7.83533e-40
0000f0 c8 40 06 00 95 9b 01 80 44 9a 02 80 81 70 03 00
       5.74252e-40 -1.47648e-40 -2.39011e-40 3.15865e-40
000100 4d 3d 07 80 06 6e 06 80 f4 8e 04 00 93 68 03 00
       -6.64839e-40 -5.90482e-40 4.18624e-40 3.1302e-40
000110 aa f9 06 80 11 85 02 00 75 1c 05 80 d9 1e 02 80
       -6.40576e-40 2.31406e-40 -4.69386e-40 -1.94737e-40
000120 67 86 06 80 86 3b 05 80 7c b6 07 00 47 84 01 80
       -5.99227e-40 -4.8053e-40 7.08312e-40 -1.39288e-40
000130 fd 01 02 80 02 cc 04 80 c2 3f 00 80 bc b3 02 00
       -1.84384e-40 -4.40526e-40 -2.2872e-41 2.48148e-40
000140 e4 c1 06 80 3b 0b 08 00 91 7a 03 00 f5 5b 04 80
       -6.20568e-40 7.38713e-40 3.19475e-40 -4.0033e-40
000150 d0 7c 03 00 93 58 08 80 e8 ec 04 00 94 c2 00 80
       3.20281e-40 -7.66458e-40 4.52328e-40 -6.9801e-41
000160 b0 4d 00 00 2b 1e 04 80 f5 2e 06 00 41 f4 00 00
       2.7869e-41 -3.78164e-40 5.67858e-40 8.7622e-41
000170 ec a2 02 00 92 13 05 80 51 22 02 80 55 39 02 00
       2.42116e-40 -4.66198e-40 -1.95981e-40 2.04238e-40
000180 46 ee 04 80 07 63 01 80 1a bc 07 00 a5 a5 02 00
       -4.52818e-40 -1.2736e-40 7.10327e-40 2.43093e-40
000190 7d 99 06 00 d0 d1 00 00 58 ec 02 00 6d 38 00 00
       6.06074e-40 7.5267e-41 2.68455e-40 2.0242e-41
0001a0 c3 65 05 00 77 7d 06 00 18 f8 03 00 94 5a 01 80
       4.95683e-40 5.96021e-40 3.64506e-40 -1.24329e-40
0001b0 2b 2b 02 00 a4 86 04 00 44 d6 06 00 8d 48 04 00
       1.99157e-40 4.15642e-40 6.27877e-40 3.93368e-40
0001c0 23 b6 03 00 b8 01 01 00 f7 0f 07 80 db e4 06 80
       3.40845e-40 9.2452e-41 -6.48576e-40 -6.33111e-40
0001d0 43 30 4c 84 8e c3 05 80 7d f1 01 80 17 4d 01 80
       -2.4002245e-36 -5.29329e-40 -1.78465e-40 -1.1949e-40
0001e0 c7 0a 04 00 e2 09 07 80 f0 89 07 00 d9 ff 02 00
       3.71208e-40 -6.46394e-40 6.92331e-40 2.75452e-40
0001f0 e4 1c 04 80 f4 46 03 00 e3 23 01 80 d5 09 04 80
       -3.77706e-40 3.0096e-40 -1.04709e-40 -3.70869e-40
000200 32 78 e4 3a ac 56 0d 3e ef 45 ef bd 01 b6 2c bd
       0.001743084 0.13802594 -0.11683261 -0.04216576
000210 54 63 77 3e 33 f2 06 80 17 ea 80 be c4 eb 10 3e
       0.24158984 -6.37898e-40 -0.25178596 0.14152437
000220 85 68 25 3e ce 51 e3 3d d2 cc 4d be 3b dd 9e 3c
       0.16153152 0.110995874 -0.20097664 0.0193926
000230 fe 74 03 00 f4 61 cc bd 4b 50 03 80 f8 97 33 3e
       3.17475e-40 -0.099796206 -3.0431e-40 0.1753844
000240 97 fa e2 3d 1b 3d 69 bd 22 7f 03 80 01 f1 77 bd
       0.110829525 -0.05694304 -3.21113e-40 -0.060532574
000250 b8 62 ca b4 14 28 45 94 e0 3c e1 bd 8b 32 05 80
       -3.769726e-07 -9.953862e-27 -0.10997939 -4.77309e-40
000260 70 4f b9 3d b6 14 9c 3d d6 0d 58 be 68 26 b3 3d
       0.090483546 0.07621138 -0.21099028 0.0874756
000270 57 ed b8 bd a1 a5 e4 3d 1c 9c a2 bd 29 bb ce bd
       -0.09029644 0.11164404 -0.07939932 -0.10094292
000280 9c c6 06 00 15 b5 24 bd 7e aa 03 80 7a 29 05 80
       6.2226e-40 -0.040211756 -3.36668e-40 -4.74056e-40
000290 be 64 92 b2 63 24 75 bd 15 58 1b b8 cc ea b1 3d
       -1.704245e-08 -0.059849154 -3.7036913e-05 0.08687362
0002a0 f8 1a 93 3d 29 28 00 00 ec 26 be b7 91 11 03 80
       0.07182878 1.4407e-41 -2.266789e-05 -2.81808e-40
0002b0 29 16 60 b7 00 af 08 3e 1a 0c 89 bd 99 74 a3 3d
       -1.33566e-05 0.13348007 -0.06691761 0.079812236
0002c0 bd 0f 1f 3d 2f fc 03 80 72 79 15 bd e2 c3 cd 3d
       0.03883337 -3.65973e-40 -0.036492772 0.10047127
0002d0 32 29 05 00 c1 50 83 b7 33 5b 4e 37 a6 54 4d bc
       4.73956e-40 -1.565402e-05 1.2299791e-05 -0.012532389
0002e0 e4 e2 07 80 c9 9b 2c bd fe a7 61 05 69 68 04 00
       -7.24241e-40 -0.042140756 1.06103044e-35 4.04797e-40
0002f0 44 71 bd 3b 04 65 07 3e 86 28 b3 3d d1 68 98 3d
       0.0057813246 0.13222128 0.087479636 0.07441867
000300 a8 5c 38 3e 35 40 03 00 39 b7 3f bd 03 9e 0a 21
       0.18004096 2.9854e-40 -0.046805594 4.6965345e-19
000310 73 39 8a 3d 2b 59 b3 3b 9a 88 4e 2e 94 b5 73 bc
       0.06749239 0.005473276 4.6960304e-11 -0.014874835
000320 d0 39 ea 3b 3c 53 c3 bd 57 9b 6b be dc 9a 24 3a
       0.007148005 -0.0953736 -0.23008476 0.00062791794
000330 19 46 cf bd 9f 85 9a 1e 78 eb 1b bd a2 94 8d 3c
       -0.10120792 1.6360649e-20 -0.038066357 0.017282788
000340 ea 3c 39 bd 77 05 a6 1b 78 3c a3 36 41 24 00 3e
       -0.045224108 2.7465928e-22 4.864818e-06 0.1251383
000350 a4 53 26 3e 0d 3d 29 34 a1 7c 36 3e 4a bb 6f be
       0.16242844 1.5761562e-07 0.1782098 -0.23411289
000360 45 03 4b bc 24 04 03 bc f4 6f 3b bb fb e4 ab bd
       -0.012390916 -0.007996593 -0.0028600665 -0.08393284
000370 32 98 7e bc 28 10 48 3e f8 52 fe bd 2a 6f 51 bd
       -0.015539216 0.19537413 -0.12418169 -0.051131405
000380 e4 56 50 3d e2 13 2c b8 a7 b6 82 bd bc 86 1b 3d
       0.050864115 -4.1026513e-05 -0.063824944 0.03797029
000390 a2 67 1a 3e 75 5e 10 be 1a 68 90 3e 1d c2 cf 3d
       0.15078595 -0.14098532 0.28204423 0.10144446
0003a0 f4 cd 76 be 7c ad 46 b4 8f 0a fa 3d 10 21 90 bc
       -0.24102002 -1.85033e-07 0.12209045 -0.01759389
0003b0 72 ef 13 bd 47 11 2e 3e 22 5f 20 3a 5e ed 88 3c
       -0.036117025 0.16998778 0.00061176915 0.016714748
0003c0 76 8a a1 bd 5e 7f 01 be 8b 26 06 37 a1 59 8e 3d
       -0.078877375 -0.12646243 7.995996e-06 0.06950689
0003d0 7b cc 87 3d 65 89 29 3e 0b f4 de bd 35 bb 38 be
       0.066307984 0.16556318 -0.10886391 -0.18040164
0003e0 ad d3 f7 3d 1e 9c 12 3c a2 ae 4c be 0b ee 78 3e
       0.12100921 0.008948354 -0.19988492 0.24309556
0003f0 e0 73 c6 bb cd 60 04 80 0e bb 3a be d6 3c e6 b6
       -0.006056294 -4.02068e-40 -0.18235418 -6.8616164e-06

bias f4 [128]
000000 10 c2 06 bc 2c 98 a5 3d 55 69 dd ba 29 89 60 bb
       -0.008224979 0.08085665 -0.0016892353 -0.0034261441
000010 44 50 04 80 7d 68 01 3c a9 e9 02 00 ea b8 4c 3b
       -3.96136e-40 0.007898447 2.67492e-40 0.0031238147
000020 ae c7 c5 bb 66 c2 65 b9 ec d3 0e ba 34 bd 3d ba
       -0.0060357666 -0.00021911561 -0.0005448449 -0.00072379713
000030 0e 3a 1d 3e d9 55 ae ba f1 14 27 bb eb 6e 23 3d
       0.15354177 -0.0013300731 -0.002549466 0.0399007
000040 4f 96 20 3d 1c 3f fd 3d e6 9d a7 bb 3e a5 9a bb
       0.039205845 0.12365553 -0.0051152585 -0.0047194054
000050 af 13 80 bc cc e1 f2 b6 a4 ec e1 ad c6 a9 91 a3
       -0.015634386 -7.2384482e-06 -2.5684628e-11 -1.5792833e-17
000060 8f 96 50 bb 89 9f 36 bd 9f b6 25 99 6d e3 e5 3c
       -0.0031828021 -0.04458574 -8.56718e-24 0.028062547
000070 a3 ec 27 3e 5e 7f 31 bd 80 72 87 96 c6 ed 6a b8
       0.16398863 -0.043334357 -2.1882686e-25 -5.601139e-05
000080 48 ac a0 86 87 a4 05 bd 6f f8 14 b4 ac 4c a4 3c
       -6.0438455e-35 -0.03262761 -1.3873954e-07 0.020056091
000090 40 d4 28 aa 60 f8 23 3d b9 21 a8 bd 75 a7 f3 ae
       -1.4995036e-13 0.04003179 -0.08209557 -1.1080107e-10
0000a0 c3 da 16 3e 65 f3 cd 3d 88 eb bc bb 8e 87 be 3c
       0.14731888 0.100561894 -0.005765382 0.023257997
0000b0 6d 0e 02 bb 4c 7f 9b b3 c8 10 00 00 d2 4c 9a 3d
       -0.0019845024 -7.240905e-08 6.02e-42 0.075341836
0000c0 c9 00 06 80 6d 71 dc b8 7a 5b da a0 5e 8f e4 3c
       -5.51295e-40 -0.00010511545 -3.699117e-19 0.027900394
0000d0 c8 63 1a b3 1b 26 b2 3d 00 62 96 9d 0e c6 68 b5
       -3.594667e-08 0.08698674 -3.9806e-21 -8.671494e-07
0000e0 56 1d b2 3d e6 dd 0f 3c f3 e9 a5 3d 48 51 59 bc
       0.08697002 0.008780932 0.08101263 -0.013264008
0000f0 1b 10 89 bd d8 77 e5 3c 7b 11 27 bc 25 6c 06 3d
       -0.06692525 0.028011248 -0.010197039 0.03281798
000100 f6 a9 32 bd 2f ba 1b 80 8d eb 4d b9 c1 0c f8 3c
       -0.04361912 -2.546348e-39 -0.00019638073 0.030279519
000110 ab 90 bd bd 7b ca 15 3d 55 05 49 b6 ed 3c 3b bc
       -0.09256109 0.036570054 -2.9954438e-06 -0.0114281
000120 0f 37 37 bb 37 a5 19 3e cb 8d ab a0 35 91 49 bd
       -0.0027956401 0.1500443 -2.9062358e-19 -0.049210746
000130 41 51 81 3c a7 f4 86 bc ec fc 1a 3d de be 89 3d
       0.015785815 -0.016474081 0.03783886 0.06725858
000140 5a 4c 5d 3c 48 1b 9f bc b2 59 73 bc 5a fd 2f bc
       0.013506973 -0.019422188 -0.014852928 -0.010741556
000150 14 8c 67 ba f6 a4 d7 3d a8 26 32 3e cc 7f be 3d
       -0.0008832824 0.10529511 0.17397559 0.09301719
000160 7e f7 f5 ba 29 00 07 3d 0c 7b 5f ba d3 34 24 bc
       -0.0018765775 0.032959137 -0.00085251103 -0.01002236
000170 0c 27 5e bc c6 38 a6 3c e8 2c f4 bb ee 4c 07 ac
       -0.013559114 0.020290744 -0.0074516423 -1.9227358e-12
000180 b7 32 3e bc 2c 2b 93 9a 73 a7 04 3e c3 ad a6 a5
       -0.011608771 -6.086752e-23 0.12954502 -2.8914155e-16
000190 c1 f7 15 3e 4a 86 bb b9 5c e7 d9 8d 8a e0 3e 3d
       0.14645292 -0.00035767473 -1.3429355e-30 0.046600856
0001a0 3e 71 e2 bb 32 0e 03 3d 48 0f 00 80 98 14 16 3d
       -0.006910472 0.03199596 -5.482e-42 0.036640733
0001b0 9d 4b ed a0 7d a1 83 bc 88 98 15 bc 9b 1d db bd
       -4.0199398e-19 -0.016068215 -0.009130605 -0.10699006
0001c0 96 d5 f7 3c 72 bf d0 bb b2 f2 ef ba 5e 79 fb ba
       0.030253213 -0.0063704783 -0.0018306582 -0.001918595
0001d0 36 e4 c1 3b 2c 38 5d bc c4 c9 d6 3c 53 8b d2 3b
       0.0059170974 -0.013502162 0.026219256 0.0064253
0001e0 44 6b f2 b7 a3 2e c4 b2 e1 ad 0d b8 ae c0 aa bd
       -2.8898598e-05 -2.2838611e-08 -3.3778957e-05 -0.08337532
0001f0 cb 05 14 3e 98 e6 fb 3d 74 20 98 a8 e5 b1 83 b6
       0.14455335 0.12299842 -1.6889464e-14 -3.924814e-06

weight f4 [128, 128]
000000 63 df 05 00 1e d0 c0 39 26 61 01 80 87 9e 04 80
       5.39314e-40 0.00036776153 -1.26686e-40 -4.24211e-40
000010 ab e6 a2 bc 5c 58 06 80 12 04 5d 3b bf 72 29 3c
       -0.019885382 -5.8271e-40 0.003372435 0.010342299
000020 39 28 f4 12 a8 bc 08 3b 35 c1 5f bc 37 c7 02 80
       1.5408481e-27 0.00208644 -0.013656904 -2.55136e-40
000030 f5 fe 05 80 32 0e ee 3c 45 71 04 00 60 20 01 80
       -5.50639e-40 0.029059503 4.07975e-40 -1.0345e-40
000040 0c 8e e5 3b 53 80 07 00 ba 32 c6 3c 1f 3e 01 80
       0.0070054587 6.88883e-40 0.02419411 -1.1412e-40
000050 10 b4 94 bc db f8 79 02 31 57 cb 0a 27 e4 02 00
       -0.018152267 1.8365049e-37 1.9580987e-32 2.65517e-40
000060 f0 d9 05 00 c4 90 49 3c bc eb 61 bc 5c 18 02 00
       5.37359e-40 0.012302581 -0.013789114 1.9241e-40
000070 c0 cd 8c b9 22 4f c8 bd 71 6c 9a 3d 60 2d 07 80
       -0.00026856177 -0.097807184 0.07540215 -6.59126e-40
000080 e4 09 2d 3b 72 03 08 80 36 72 3d bd 57 b3 c5 bd
       0.00264036 -7.3592e-40 -0.0462515 -0.09653347
000090 a4 2a b4 3d a6 ad 73 3c ac dc 6f bb 52 92 1c 3b
       0.087971956 0.014872944 -0.0036600037 0.0023890925
0000a0 c7 86 2e 3c b0 8b 92 bc 19 1b 5b bb a6 0b 59 bc
       0.010652251 -0.017888874 -0.00334329 -0.013247406
0000b0 b1 99 29 3d 7d a2 03 80 e0 45 a1 bc 16 49 05 80
       0.041406337 -3.33796e-40 -0.01968664 -4.85396e-40
0000c0 4d e2 06 00 52 2c 02 80 f5 cd 02 00 f6 a9 64 1e
       6.32194e-40 -1.9957e-40 2.57554e-40 1.2105367e-20
0000d0 09 21 be 3c 6a 73 00 80 aa db 06 00 89 05 a5 3b
       0.023209112 -4.1403e-41 6.29814e-40 0.00503606
0000e0 9b c4 8c bc 08 7e e6 87 fb 18 79 b2 6a 72 05 bc
       -0.017183593 -3.4680628e-34 -1.44993875e-08 -0.008144954
0000f0 27 7e 3c 3d b8 73 2d bb 6c 62 1d bd 33 be a8 a0
       0.046018746 -0.0026466679 -0.03842394 -2.858617e-19
000100 5a 1c 04 80 2f 37 97 bd a1 cb 2f bd c0 36 7e bc
       -3.77513e-40 -0.07383572 -0.042918805 -0.015515983
000110 11 ae a1 bb 08 81 00 00 b4 00 9b bc e3 84 37 ba
       -0.0049340804 4.6288e-41 -0.018921234 -0.00070006977
000120 ab 01 29 b7 19 66 45 bc ac 53 b2 bb a4 09 2e 3d
       -1.0073573e-05 -0.012048268 -0.0054421034 0.042489663
000130 dd 27 00 80 89 2f 38 3c 62 96 05 b5 9e 5d 06 80
       -1.43e-41 0.011241802 -4.9765197e-07 -5.84596e-40
000140 76 8d b1 3a c8 fc 03 bc f2 c9 01 00 30 99 00 80
       0.0013546187 -0.008055873 1.6428e-40 -5.4953e-41
000150 74 03 06 80 75 f3 ba bd 90 20 5e b8 6a 66 11 3d
       -5.52252e-40 -0.09128467 -5.295925e-05 0.03549806
000160 c4 01 68 24 99 9a 6c bc a5 3c 52 39 51 2f 01 00
       5.0308476e-17 -0.014441156 0.00020049752 1.0881e-40
000170 6d 57 06 80 51 dc 01 00 4e bb 3a bc f3 6a 34 3c
       -5.82375e-40 1.7087e-40 -0.011397196 0.011011827
000180 07 24 07 80 b1 c1 f8 ba 07 d1 38 bc 9d c7 9f 3d
       -6.55773e-40 -0.0018978623 -0.011280305 0.07801745
000190 03 3b 47 bc 01 f5 86 bb ac 36 c2 bd 15 a9 06 80
       -0.012160066 -0.004118562 -0.09483084 -6.11668e-40
0001a0 de 87 aa ae 97 50 02 bd ba 87 4f bd 52 c2 92 bd
       -7.75484e-11 -0.031815138 -0.05066655 -0.0716597
0001b0 ce 13 3a ba 76 8b 01 00 94 4f a2 bd cf 5a 07 00
       -0.0007098288 1.41865e-40 -0.079253346 6.75424e-40
0001c0 38 ad 7b 3d 58 1e 15 3b 8e 69 00 00 9e d3 05 00
       0.06144449 0.0022753682 3.7866e-41 5.35091e-40
0001d0 a7 33 03 80 2c cb 01 80 91 67 65 37 1b 97 60 bb
       -2.94036e-40 -1.6472e-40 1.3673577e-05 -0.0034269753
0001e0 ce fb 8e b8 80 62 e1 ba 99 fa 04 00 cd 8a 6f ba
       -6.81799e-05 -0.0017195493 4.5724e-40 -0.00091378094
0001f0 fb 37 e9 ba 7f 7b 02 80 04 37 05 00 2a 5e 03 80
       -0.0017793173 -2.27973e-40 4.78913e-40 -3.09286e-40
000200 8a 92 02 00 74 c8 f2 3c 47 1b 04 80 e4 d1 02 00
       2.3624e-40 0.0296366 -3.77127e-40 2.58966e-40
000210 cb 34 b9 be df 88 c8 b9 c4 6b 63 3d 44 4c 9f bd
       -0.3617309 -0.0003824895 0.055522695 -0.077782184
000220 90 0a b8 33 2d 8e 0f b1 9c 9c 0a 39 7b bd 02 80
       8.570089e-08 -2.0890056e-09 0.00013219047 -2.51644e-40
000230 12 de 04 00 86 1c 8a be de 39 92 14 dc d8 01 00
       4.47006e-40 -0.26974887 1.4765057e-26 1.6963e-40
000240 82 29 aa bc 18 0f 04 80 ef e4 d1 3d 4d 4b 00 80
       -0.020771746 -3.72757e-40 0.10248744 -2.7013e-41
000250 e4 af 0e be b2 23 04 00 29 04 bc ad 5b 79 14 a6
       -0.13934284 3.80147e-40 -2.1374973e-11 -5.151228e-16
000260 a7 90 d7 a9 3d b5 56 3d 9c 49 e7 bd 69 f9 05 80
       -9.573011e-14 0.052418936 -0.11293337 -5.48649e-40
000270 96 e4 f0 bb 28 d7 82 3d 85 1e ce 3c 35 ba 01 00
       -0.0073514683 0.06388694 0.025161037 1.58634e-40
000280 c3 b1 8b bd 06 9c 93 b8 15 24 78 be df 1a 13 3e
       -0.06821015 -7.038568e-05 -0.24232514 0.1436572
000290 76 b5 5c 3e e3 07 61 bd 95 33 48 3d 05 d8 02 3e
       0.21553597 -0.054939162 0.048877317 0.12777717
0002a0 43 42 9b bd 14 b0 c1 bd 6b 42 dd bd ef 30 5f 3c
       -0.07580998 -0.09457412 -0.10803684 0.0136225065
0002b0 bf 84 d9 bd 6e df 01 80 4b 35 0a be b8 b8 05 80
       -0.106210224 -1.71987e-40 -0.13496892 -5.25442e-40
0002c0 c0 a4 04 00 da a9 22 19 57 be a5 0f cc 56 27 a1
       4.26443e-40 8.409505e-24 1.6343572e-29 -5.6696676e-19
0002d0 32 0b 1e 3e b0 93 05 00 4a 4c 00 80 88 00 a8 bd
       0.15433958 5.12158e-40 -2.7367e-41 -0.08203226
0002e0 34 59 13 3e 59 05 02 00 60 6d b6 9b 1b fd 87 bd
       0.14389497 1.8559e-40 -3.0180056e-22 -0.06640073
0002f0 9f 16 a1 bc bb 64 2f bd fe 23 08 3c f0 a4 ac b6
       -0.019664107 -0.042820673 0.008309362 -5.1452007e-06
000300 c4 60 76 ae a0 b8 bc 3d 1d 79 38 bd 82 ba e9 bd
       -5.601987e-11 0.09214902 -0.045037378 -0.11412527
000310 3a 4e 8e 3b b1 8e f5 9f 3d ee ec bc 78 f9 6d bd
       0.0043428214 -1.039976e-19 -0.028922195 -0.05809924
000320 a5 9b 45 be d9 35 b0 be 12 b4 5c be 34 ea 61 bc
       -0.19297655 -0.34416083 -0.21553066 -0.0137887485
000330 3e 26 50 27 fd 71 6d 3c 48 8b 3e a6 d8 96 05 80
       2.888653e-15 0.014492509 -6.6108253e-16 -5.1329e-40
000340 d6 38 b6 b9 c4 22 c8 3b 5e 83 9b 3b e1 29 00 80
       -0.0003475609 0.00610766 0.004745885 -1.5023e-41
000350 16 5d e0 22 de 1d 45 3d 7a 49 0c b9 7f 34 16 3e
       6.081388e-18 0.048124187 -0.00013378813 0.14668463
000360 7d 4e 04 80 0f ec f9 bd 62 55 d9 b7 24 e9 ad 21
       -3.95498e-40 -0.12203228 -2.5908175e-05 1.1784648e-18
000370 63 1a 82 2d 19 6c 9f 3b 74 45 c1 bd 42 dc 8b 3e
       1.4791007e-11 0.004865181 -0.09437075 0.2731648
000380 8c 73 a3 3b de f5 12 3d 19 af 1e 3e 21 87 1a 3d
       0.0049881395 0.03587901 0.15496482 0.037726525
000390 f8 0e 05 be 38 6c 84 b6 4d 50 b6 bc 35 33 07 00
       -0.12993991 -3.946505e-06 -0.022255087 6.61218e-40
0003a0 a4 0a 33 15 ee 9e ff bd 13 ae ba bd 11 53 41 3e
       3.6157156e-26 -0.12481485 -0.09115233 0.18879344
0003b0 ba 41 49 be d2 30 26 24 ad a9 3d 3d 5a 58 05 00
       -0.19653979 3.6036865e-17 0.046304394 4.90872e-40
0003c0 65 a3 21 3e 6c e0 8b 30 de c4 a0 8a bf 7b 00 80
       0.15784986 1.0177366e-09 -1.5481493e-32 -4.4392e-41
0003d0 03 d2 5f 3a 91 34 4b 3a 25 fb 86 ab 5f 32 03 bf
       0.0008538069 0.00077516685 -9.590979e-13 -0.51248735
0003e0 fd f2 19 3d 29 ca 76 bd 97 de 98 b0 5b 1e b9 37
       0.037585247 -0.06025139 -1.1122719e-09 2.2067854e-05
0003f0 37 40 d0 bd 27 96 04 80 37 38 07 00 8d a5 02 80
       -0.10168498 -4.21206e-40 6.63015e-40 -2.4306e-40

weight f4 [128, 256]
000000 c4 6f 41 ba f1 6d d9 3d 64 9f 8a 95 57 b0 87 be
       -0.000737902 0.10616673 -5.598923e-26 -0.26501724
000010 27 86 06 80 2c d3 bd 36 6b b1 0a 99 ab 00 1a bb
       -5.99138e-40 5.6572226e-06 -7.170262e-24 -0.0023498933
000020 a4 aa 05 3a d9 60 94 bb e8 65 1e b9 75 4a 06 80
       0.0005098975 -0.0045281467 -0.00015106017 -5.77723e-40
000030 f2 c2 2d 3d c3 71 a5 9b ae 38 d1 b1 4b 78 f0 3d
       0.042422242 -2.7370477e-22 -6.0891443e-09 0.11741694
000040 5c c2 84 be ac 0a ca bc f7 cd ee bb 9a f2 2b 3a
       -0.25929534 -0.024663292 -0.0072877365 0.0006559283
000050 be 9c b7 bb 3b 22 23 ba 23 98 01 00 45 c3 0a 28
       -0.005603402 -0.0006223057 1.46412e-40 7.702881e-15
000060 7f d4 41 b7 9b 5c cf bb 4b f2 46 a8 7c e4 65 3c
       -1.1553172e-05 -0.006328178 -1.1043747e-14 0.014031526
000070 2e 04 9a 3e 38 11 28 be 72 d8 04 80 63 21 86 36
       0.30081314 -0.16412818 -4.44988e-40 3.997398e-06
000080 8c 7c 06 80 c0 34 16 3e ec 17 f3 24 f7 22 a1 bc
       -5.95692e-40 0.1466856 1.05424976e-16 -0.019669993
000090 4d 16 ac a9 a8 ee 65 be 1a 5c b1 bd 4d e6 05 80
       -7.642203e-14 -0.22454321 -0.08660145 -5.41794e-40
0000a0 34 92 71 3c 14 83 ef 3b e2 99 0f 3a 17 e4 cb 3a
       0.01474433 0.007309327 0.00054779474 0.0015555647
0000b0 2b fb 7a 38 04 d0 f0 ae c3 0d 01 80 db fe a9 3e
       5.9838563e-05 -1.09508874e-10 -9.6772e-41 0.33202252
0000c0 1e c7 06 80 cb b8 08 ac 3e 2e 07 80 4f 4f 1b bc
       -6.22443e-40 -1.9429343e-12 -6.59437e-40 -0.009479358
0000d0 c1 ac e1 b0 5b e9 9a 3d b9 86 02 80 c2 55 04 23
       -1.6420004e-09 0.0756404 -2.32e-40 7.173894e-18
0000e0 bd 64 1b bd a6 2f 86 bc 8b ca ae 3d 4a 38 ca 3d
       -0.03793787 -0.016380142 0.08534726 0.098740175
0000f0 fa a7 a6 bd 2f e4 55 be c4 cf d2 9d cf 93 06 3d
       -0.08137508 -0.20887826 -5.580136e-21 0.032855805
000100 0a 74 aa bc ac d5 06 80 bd fd 87 1e f8 eb f5 3d
       -0.020807285 -6.27664e-40 1.4398625e-20 0.12007898
000110 61 88 56 3c e3 00 b9 bc 73 47 c2 09 00 5b 32 ba
       0.013094039 -0.02258343 4.677099e-33 -0.0006803721
000120 77 70 a4 bd bb 3c 6b 3d cd e5 00 80 21 c8 de ba
       -0.080292635 0.057430964 -8.2437e-41 -0.0016996899
000130 0b 5f 10 3b e2 d6 cb b9 4e d8 c1 be 16 34 04 3e
       0.0022029306 -0.00038879277 -0.3786034 0.12910494
000140 de 7a 20 be ce c3 0b 2a 7a 13 1f b9 0f ce 83 3c
       -0.1567187 1.2413613e-13 -0.00015170677 0.016089467
000150 79 4f dc a0 67 3c bb 3d 09 13 44 bc 00 2c 8b 3d
       -3.732204e-19 0.0914238 -0.011967429 0.06795502
000160 f6 ea a0 38 fd 8c d2 3d 54 98 fd b6 eb 7d 6b 09
       7.6731594e-05 0.10280798 -7.557721e-06 2.8346302e-33
000170 e2 8b 95 be 14 c7 2d be 32 4b a4 b9 f3 00 01 00
       -0.29208285 -0.16970474 -0.00031336542 9.2176e-41
000180 34 c1 67 a7 6f 83 00 80 3f 09 6a bb 86 19 07 00
       -3.2162425e-15 -4.715e-41 -0.0035711078 6.52005e-40
000190 6e 3a 76 bd 11 49 2a b8 c6 9c 04 00 40 68 92 3d
       -0.060114317 -4.0599207e-05 4.23582e-40 0.0714879
0001a0 51 00 da 30 8f 27 92 be af 91 02 80 00 f2 74 be
       1.5861678e-09 -0.28545806 -2.35932e-40 -0.2392044
0001b0 54 85 07 80 26 c9 96 ba b3 74 05 80 40 f9 98 3c
       -6.90678e-40 -0.0011504039 -5.01041e-40 0.01867354
0001c0 ed 2e 2b 3d 3e 90 1f bc 6a f1 91 39 eb 4e 5a b0
       0.0417928 -0.00973898 0.00027836423 -7.9420087e-10
0001d0 17 da 0b bd 62 42 1d 37 d0 99 38 bd 40 63 be 37
       -0.034143534 9.373385e-06 -0.045068562 2.2695982e-05
0001e0 61 a0 d2 b7 7c 1d 05 80 a2 14 e2 2b a2 40 78 3d
       -2.5108633e-05 -4.69754e-40 1.6063993e-12 0.060608514
0001f0 2a 42 01 3e 69 d6 b3 3d 2e 03 05 00 7f d5 ca b9
       0.12622896 0.0878113 4.60318e-40 -0.0003868751
000200 5d 86 38 b8 af 7d b5 bd 8f 48 05 80 cd 61 3b bd
       -4.3994154e-05 -0.08861863 -4.85207e-40 -0.045747567
000210 03 ba 04 80 42 88 f9 32 c6 3e 06 00 27 4b 00 ba
       -4.3407e-40 2.9049378e-08 5.73532e-40 -0.0004894011
000220 71 82 c9 3a f3 05 a5 b8 cf ab da b2 12 8c 01 80
       0.0015373958 -7.868921e-05 -2.545667e-08 -1.42083e-40
000230 79 dd ec 3d b6 33 e8 8e d3 e5 85 85 40 77 ce 3d
       0.1156568 -5.724221e-30 -1.2591684e-35 0.10081339
000240 6b 58 8f bd 83 5f 4b bd ec 46 e7 bb a8 e7 23 38
       -0.06999286 -0.049651634 -0.007058015 3.9077975e-05
000250 b8 7a 1f b6 e1 17 42 b5 5d 0a 04 80 eb 4a b6 96
       -2.3764278e-06 -7.230538e-07 -3.7106e-40 -2.9450966e-25
000260 ff a8 fd b1 22 1c 7d bc 0e 8e 02 80 70 f3 d4 3c
       -7.3824817e-09 -0.015448602 -2.3463e-40 0.025994986
000270 9c 28 70 3d a7 14 fb bd c2 2b 07 00 78 a2 2e b2
       0.058632478 -0.122597985 6.58546e-40 -1.0165074e-08
000280 10 25 08 80 9c 58 18 3e 51 9e 1e 00 f5 b9 ae 3d
       -7.4798e-40 0.14877552 2.811858e-39 0.08531562
000290 42 b4 a2 82 70 df 0a bd b2 4d 39 be 4f 22 07 00
       -2.3907224e-37 -0.033904493 -0.18096045 6.55156e-40
0002a0 85 dc 45 bd 45 48 ea bc 62 d7 72 39 01 ce 2c b7
       -0.048306007 -0.028598914 0.00023159155 -1.0299963e-05
0002b0 2f 7d 23 35 f2 bf f7 96 5c 7c 04 00 9b 78 a9 3d
       6.09044e-07 -4.0026137e-25 4.11954e-40 0.08274957
0002c0 4f 8e 00 00 2d 77 53 8f 26 c1 01 00 34 26 57 bc
       5.1051e-41 -1.04260556e-29 1.61124e-40 -0.013131667
0002d0 eb 5b 9e 97 94 c9 dc bc 2a bd 07 00 ed 4d 00 80
       -1.0233714e-24 -0.026951589 7.10708e-40 -2.7955e-41
0002e0 66 27 91 bd 3d 66 1e 34 37 ab 48 3d b2 53 a9 3c
       -0.07087593 1.4752091e-07 0.04899141 0.020669792
0002f0 ed 77 f4 bd d0 62 2a bd e1 65 06 00 24 6b 49 3d
       -0.119369365 -0.04159814 5.8756e-40 0.049174443
000300 5c 46 eb 3d ae 1c 07 00 d1 97 20 20 e4 93 1b bd
       0.11488029 6.53137e-40 1.3602759e-19 -0.037982836
000310 5e 5e ee 3d 4d 53 3b bc 5f 10 07 80 ec 31 98 33
       0.11639093 -0.011433435 -6.48721e-40 7.087132e-08
000320 08 ae 4e be 49 bb 92 bc 37 8e 03 00 f8 05 6c b5
       -0.20183575 -0.01791157 3.26524e-40 -8.7925537e-07
000330 44 7f 2d ba 85 e4 39 b2 38 48 02 be b1 e0 47 3d
       -0.00066183903 -1.0820377e-08 -0.12722862 0.048798267
000340 e5 ac 94 bc 6e 91 ad 1d 8d cc 14 b7 0f 02 67 3a
       -0.018148849 4.594309e-21 -8.869113e-06 0.00088122574
000350 5b 1d 04 00 f0 53 13 3c 47 f3 34 bd 70 b5 99 3d
       3.77873e-40 0.00899218 -0.04417732 0.075053096
000360 b6 bc be 36 60 63 82 bd 70 32 ca ad 08 22 03 80
       5.68441e-06 -0.063666105 -2.298714e-11 -2.87715e-40
000370 f2 bb 97 bd 23 d1 a0 bc 91 0c 95 35 4d 67 05 80
       -0.074088946 -0.019630974 1.1105022e-06 -4.96235e-40
000380 a6 45 01 00 5d 28 00 80 de 90 a2 bc 90 10 05 00
       1.1682e-40 -1.448e-41 -0.019844469 4.65119e-40
000390 a4 1c d8 bd 23 e2 0f ad b4 e4 01 80 36 0c 89 bd
       -0.10552338 -8.178821e-12 -1.73879e-40 -0.06691782
0003a0 a8 f1 d2 23 95 68 c2 bd a8 57 01 00 db 85 7c bd
       2.2870591e-17 -0.09492604 1.2328e-40 -0.061651092
0003b0 1d 41 02 00 62 a3 22 b6 51 9b 00 00 6c 76 34 3d
       2.07029e-40 -2.4234982e-06 5.5717e-41 0.04405825
0003c0 5d c1 ba bd 70 ce ad bb 8f 05 07 37 85 70 c1 19
       -0.09118912 -0.0053041503 8.047921e-06 2.0001179e-23
0003d0 ce b3 25 bc bf 93 e5 0e 0f 28 2c bd f7 5a df b3
       -0.01011367 5.6595133e-30 -0.04203039 -1.0400793e-07
0003e0 8a 64 06 af fd 12 00 80 b9 1d 06 00 96 64 d0 3d
       -1.2222948e-10 -6.812e-42 5.61675e-40 0.10175435
0003f0 b5 7b 81 3d d4 73 56 3c d5 65 05 80 61 90 1a b4
       0.06322423 0.013089139 -4.95708e-40 -1.4394892e-07

bias f4 [128]
000000 0c bc 3b 3e 74 d8 13 3e 9b aa a3 bd 4a 48 c4 af
       0.18333453 0.14438039 -0.07991525 -3.5703557e-10
000010 09 b8 77 bd 1a 1c 67 9c 2d da 8e b5 7e 2e 2d b0
       -0.060478244 -7.646781e-22 -1.0643322e-06 -6.30031e-10
000020 68 de 6e bb 77 a6 b9 8f bc 19 51 bd 5e e4 da bc
       -0.0036448482 -1.8306528e-29 -0.051049933 -0.026720222
000030 90 1d 5a b3 a1 29 34 bc 62 91 a5 b9 6e 4e de bd
       -5.0783967e-08 -0.010996253 -0.0003157957 -0.10854803
000040 c0 d7 67 bc 87 e0 b5 86 de 0e 3c a3 5c 65 b8 ae
       -0.01415056 -6.8414546e-35 -1.0194649e-17 -8.385356e-11
000050 5b b1 01 3e fc a8 32 bc eb 99 a7 b0 8b 9b cc 3d
       0.12665312 -0.010904547 -1.2194595e-09 0.09990605
000060 81 a5 1c be 8d 91 c7 3d 89 88 06 3e 53 d0 93 a3
       -0.1529751 0.097445585 0.13138022 -1.6026e-17
000070 69 09 7f b7 f5 9e b4 bd 0c 88 db bb 0a 82 53 3e
       -1.5201375e-05 -0.08819381 -0.0066995677 0.20655075
000080 0e d4 e7 b9 1d 2d 11 b7 8e ae cf ba 2d 7b 76 97
       -0.00044217746 -8.653177e-06 -0.0015844868 -7.9642357e-25
000090 92 63 02 3e 6a 73 13 bc 1e c4 fd 3d 2a d1 ef 3d
       0.12733296 -0.008999685 0.12390922 0.11709817
0000a0 58 c4 b4 b9 25 0d 39 3e 43 14 f1 b5 a0 7c 3c bc
       -0.00034478563 0.1807142 -1.7961796e-06 -0.011504322
0000b0 18 3e b1 85 70 96 0c ae 25 6a a0 bd 3b e8 5d bb
       -1.666781e-35 -3.196593e-11 -0.078327455 -0.0033860344
0000c0 93 21 1c bb 64 9c 7a bb 65 55 4c 3d 36 8f 0b 99
       -0.0023823723 -0.0038240189 0.049886126 -7.215053e-24
0000d0 74 f9 7f 3c 95 cd 5d a8 61 9d 84 bb 03 48 e1 3d
       0.015623439 -1.2312543e-14 -0.0040470813 0.11000063
0000e0 6c 5c be b8 f7 51 b0 bd f3 ee b7 ae e3 0a 9d ba
       -9.077121e-05 -0.086093836 -8.3643224e-11 -0.0011981394
0000f0 af 4d 8e 9f 28 44 16 bd db 5e c0 bb 9c 17 26 bc
       -6.0267856e-20 -0.036686093 -0.0058706827 -0.010137465
000100 61 9f 13 b9 4e 6c 3f 80 cc 3b 3e b6 b1 5d 09 b4
       -0.00014078386 -5.824489e-39 -2.8347013e-06 -1.2793204e-07
000110 bf 33 4e 3d ed 63 79 a6 2b e7 47 3e 02 c4 b9 b4
       0.050342318 -8.6524654e-16 0.19521777 -3.460155e-07
000120 ce 6d 17 3e 53 ef a9 8b d1 a1 d8 ba 2b b4 91 bd
       0.14787981 -6.545653e-32 -0.0016527717 -0.071144424
000130 44 63 23 3e f2 0b b5 bc bf fc 99 3d f0 f1 14 3e
       0.15955836 -0.022100423 0.075189106 0.14545417
000140 35 09 29 bd cf 9e c0 bc 51 94 38 3e c4 5c e6 3d
       -0.041268546 -0.023513226 0.18025328 0.112481624
000150 1b d3 0f 80 04 0e b0 9f 55 6a ae bd 8b 90 ca 3d
       -1.453263e-39 -7.4562086e-20 -0.08516375 0.09890851
000160 8c 1a b2 bc db aa 29 3e 1c ba 28 b6 15 ff 2b bb
       -0.021741174 0.16569082 -2.514228e-06 -0.002624457
000170 47 d9 23 89 6a eb 07 bd 09 2d 34 b3 9b 1d a2 bd
       -1.9722575e-33 -0.033183493 -4.1950475e-08 -0.07915803
000180 94 77 a1 a9 5c 7c e2 3d 38 c6 15 be 21 7a db bd
       -7.17058e-14 0.11058876 -0.14626396 -0.107166536
000190 9a bb 41 84 98 0f 52 b9 03 30 6b be a2 a6 44 3e
       -2.2773183e-36 -0.0002003297 -0.22967534 0.1920419
0001a0 24 b0 35 af 50 fa 04 3e d0 b2 a8 3d d8 55 80 3d
       -1.6524432e-10 0.12986112 0.08237231 0.062663734
0001b0 0d 33 e7 b6 ff ac 0e 3e 8f 75 a4 bd 49 0b 10 be
       -6.8902796e-06 0.1393318 -0.08030235 -0.14066805
0001c0 8e ed f7 bb 4b 88 c6 3d 94 dc ef 8e 71 f6 22 3e
       -0.0075661605 0.096939646 -5.9130458e-30 0.15914322
0001d0 b8 b5 90 bd 42 81 c3 3d c6 42 f9 3b 53 51 5d bc
       -0.0706591 0.09546138 0.007606837 -0.013508159
0001e0 f4 ee 98 b7 f4 25 ed 3d cd 40 2b 3e 19 6b 13 38
       -1.8231083e-05 0.115795046 0.16723938 3.5147274e-05
0001f0 db f2 4c bc 09 1a 36 bc 07 48 2a 3e 09 a2 6f bb
       -0.012509073 -0.011114606 0.16629039 -0.0036565086
