Model/gcn_cwe_119_test_lr_0001_p5_best.pth (torch, 336351 bytes, 11 tensors)

initial_conv.bias f4 [128]
-0.015013044 -0.24603695 0.4189617 -0.25113747 -0.5941145 0.6715518 -2.2477413e-19 0.45910522
-0.5604895 0.026839565 -1.13159e-40 0.6086482 3.00978e-40 4.0448e-40 -0.005307755 0.11416934
-0.16722342 -6.43646e-40 -8.146905e-05 -0.6826118 -2.9271482e-06 -0.00017448526 0.71368706 0.60013795
-0.03293665 0.41884574 -4.4818807e-19 -0.39222604 -0.14832425 0.085428014 -0.21217647 0.34045368
-0.01124548 -0.13395071 7.08041e-40 -0.024018785 2.1095e-40 0.08679803 -9.119718e-17 -0.7188296
0.367575 -0.0026336745 -6.74072e-40 0.018762333 -2.8338372e-05 0.43912527 -0.0010487982 -0.11335526
-0.0006867757 -1.8034744e-07 -0.3277299 0.03982848 -4.5661e-41 0.0025007555 -0.4237278 -1.6444703e-07
-0.0015963918 -0.26968938 6.30577e-40 2.28367e-40 -0.03446257 -0.115921535 -0.86636275 -0.13696036
-0.18600973 -0.0018174188 0.71191174 -2.1273142e-06 -0.39837545 0.024954803 -1.650472e-22 -0.67319685
0.36535856 0.16744824 0.65233326 -0.036511008 -0.029632133 -7.9301e-41 -0.08385453 -0.16804172
-1.6450924e-37 -0.004622968 2.82942e-40 -0.5070382 -0.26106438 0.6879013 0.26350424 -0.4923885
0.27015683 -0.21507394 -1.8307071e-11 -4.663875e-08 0.1251408 0.22549003 0.0462981 0.289829
-0.03804584 -8.17958e-40 -0.048813395 0.75693655 0.17698188 -0.07975827 -0.04341698 -0.24671018
-0.0007299641 -6.519258e-27 -0.49220616 -0.2922858 -0.41756392 0.36585277 0.6470516 -0.9283154
0.46218398 -0.008527628 1.29996e-40 -0.38841975 -0.40188333 -0.47405583 0.73657984 -6.399474e-39
-0.5167354 7.3263e-41 -8.604214e-06 -0.029828664 -0.38242263 -0.07626468 -0.07454247 -1.18728e-40
00000000: 45f9 75bc 1cf1 7bbe 2682 d63e 1795 80be
00000010: e317 18bf d2ea 2b3f e8ae 84a0 d70f eb3e
00000020: 3d7c 0fbf a6de db3c 713b 0180 5ed0 1b3f
00000030: 0147 0300 8767 0400 adec adbb 9dd1 e93d
00000040: 9e3c 2bbe 3902 0780 5dda aab8 a6bf 2ebf
00000050: 0670 44b6 08f6 36b9 32b4 363f a4a2 193f
00000060: 95e8 06bd f372 d63e 2248 04a1 dad1 c8be
00000070: 50e2 17be e2f4 ae3d ca44 59be f24f ae3e
00000080: f63e 38bc 602a 09be bbb5 0700 0bc3 c4bc
00000090: 0b4c 0200 2ac3 b13d 5049 d2a4 3705 38bf
000000a0: ca32 bc3e ba99 2cbb 0a57 0780 77b3 993c
000000b0: 31b8 edb7 07d5 e03e d477 89ba cd26 e8bd
000000c0: bd08 34ba 87a5 41b4 37cc a7be 3023 233d
000000d0: 497f 0080 b7e3 233b daf2 d8be db92 30b4
000000e0: 053e d1ba ba14 8abe cbdd 0600 987c 0200
000000f0: a028 0dbd 4568 edbd f3c9 5dbf 563f 0cbe
00000100: 5679 3ebe 7536 eeba d93f 363f fbc2 0eb6
00000110: def7 cbbe 046e cc3c a287 479b a156 2cbf
00000120: 4710 bb3e 8d77 2b3e 50ff 263f 918c 15bd
00000130: 16bf f2bc 0fdd 0080 ecbb abbd 2113 2cbe
00000140: 1beb 5f82 447c 97bb ba14 0300 41cd 01bf
00000150: 3baa 85be 4d1a 303f 07ea 863e 581a fcbe
00000160: ff51 8a3e 583c 5cbe dc07 a1ad d94f 48b3
00000170: e924 003e dce6 663e 14a3 3d3d 7764 943e
00000180: f4d5 1bbd 22e8 0880 8ef0 47bd 98c6 413f
00000190: bd3a 353e 4e58 a3bd 01d6 31bd 98a1 7cbe
000001a0: 105b 3fba 9120 0194 7202 fcbe 7ca6 95be
000001b0: f0ca d5be 0e51 bb3e 2ca5 253f 14a6 6dbf
000001c0: 61a3 ec3e 77b7 0bbc 606a 0100 f4de c6be
000001d0: a7c3 cdbe 72b7 f2be 7f90 3c3f 21af 4580
000001e0: c548 04bf 3acc 0000 d15a 10b7 3e5b f4bc
000001f0: e6cc c3be a830 9cbd b9a9 98bd f74a 0180

initial_conv.lin.weight f4 [128, 2]
0.105560735 -0.7938727 -0.0067083463 -0.07710091 0.042076997 -1.0709481 0.048622258 -0.9064125
0.0106147835 0.3663493 0.01756238 -0.68429255 -0.008182612 -1.6967715e-14 0.03688677 -1.0214174
0.004978002 0.35398135 -0.004430797 -0.19214839 -3.140752e-12 -3.7741e-41 0.060404055 -0.77089727
-6.911658e-05 -6.66207e-40 -0.0028096326 5.8956e-40 -0.01762076 -0.0122157065 -0.24227507 0.41682416
-0.0028228909 -0.1560285 -0.0018792317 -6.53881e-40 -0.012962549 -0.0006991037 0.12056554 -0.18635593
-0.00083596096 -0.00021929023 -0.0072394838 -0.0043946155 0.011712366 -0.5936881 0.012290666 -0.7760149
-0.2288226 0.36021146 -0.32923836 0.09038744 -3.413809e-16 -9.0454194e-14 0.03050187 0.05221848
-0.39637965 0.092642866 -0.008039342 -0.19757943 -0.085162774 0.082156196 -0.26157838 0.06918371
-0.049639776 -0.031052755 -0.0060169753 -0.0365952 -8.1440005e-10 -4.74066e-40 -0.107748844 -0.0644452
-0.0010320768 -3.5594557e-31 -0.0042991964 -0.21843268 -2.6370052e-15 -4.714277e-15 0.03655291 -0.26698577
-0.32143256 0.1027733 -0.013526764 -0.004076618 -1.535386e-06 6.84275e-40 -0.021488197 -0.022473468
-0.00045656494 -7.983822e-05 0.12743808 -0.3956802 -0.035996385 -0.007383417 -0.04252297 0.0076944884
-0.017453996 -0.08201851 -1.9443769e-07 -2.5203697e-06 0.023685034 0.17354797 -0.19693081 0.36162916
-6.242049e-07 6.10191e-40 -0.010870398 -0.005402909 -0.0042664395 0.44789243 -0.0063929423 -2.8489544e-06
-0.013977405 -0.006026444 0.10476919 0.108180046 -3.9497274e-05 3.65079e-40 -2.3185957e-22 -2.16146e-40
-0.037205223 0.004568035 -0.0014194361 -0.109022595 0.20982051 -0.14089644 -0.0008268112 -0.0008328905
-0.109705254 0.08050684 -0.0116876485 -0.0053841216 0.0054264106 -0.601307 -0.00025781215 -0.00013037107
0.003996231 0.23978844 -0.0007329984 -0.26320997 -1.4304154e-06 -6.105471e-17 0.073855415 -0.45873556
-0.28997666 0.22699532 -0.03582969 -0.16638373 0.008421348 -0.54729587 -0.11924441 -0.029991234
-0.1448904 0.0047676866 -8.748784e-37 -6.7019e-41 -0.0005795806 -0.06841273 -0.0381734 -0.09390524
-2.85275e-40 -4.6417586e-20 -0.0047291503 -0.0046707382 -0.0031782112 5.55288e-40 -0.2753284 0.2267289
0.009518768 0.13766764 0.019118572 -0.7411914 -0.36412886 0.21299109 0.0005755586 -0.24430361
-0.36239174 0.20938085 -0.37220147 0.1471023 -4.283461e-06 -6.2662216e-06 -7.979659e-05 -0.00019598585
-0.30010432 0.2177014 -0.34954545 0.13682035 0.028465748 -0.26334515 -0.2984468 0.38259894
-0.008672543 -0.28536913 -0.008645286 -9.078133e-38 -0.120466635 -0.05497937 0.006363462 -0.6665055
-0.279965 0.23509333 -0.010767213 -0.08419139 -0.07115082 0.0077173095 -0.008712236 -0.2622287
-0.021215083 -0.004246881 -0.002819552 -8.58841e-21 -0.08357942 0.1287226 0.024665233 0.13604172
0.094327144 0.15462703 -0.2890913 0.25009716 0.0074526123 -0.62408954 -0.041597143 0.39118055
0.02294315 -0.8281482 -0.033551354 -0.03291551 -2.5344073e-06 -1.74502e-40 -0.0025314759 -0.29958788
-0.03769818 0.080631636 0.0060917 0.28742492 0.012977965 -0.64316875 -0.00047220496 -6.3068727e-19
0.0024573633 0.32963803 -9.542577e-24 -2.71193e-40 -0.00027935812 -5.7016474e-05 -0.06785238 0.0043629934
-0.08231422 0.12091505 -0.054315057 -0.05536418 -0.09839362 -0.04306074 -0.007076642 -4.11826e-40
00000000: 3a30 d83d 3e3b 4bbf b0d1 dbbb 15e7 9dbd
00000010: ee58 2c3d d414 89bf 2228 473d a60a 68bf
00000020: a1e9 2d3c 2392 bb3e fbde 8f3c cc2d 2fbf
00000030: 5d10 06bc e3d4 98a8 9516 173d cebd 82bf
00000040: 821e a33b 0b3d b53e 3830 91bb 8cc2 44be
00000050: c202 5dac 3569 0080 3e6a 773d 8659 45bf
00000060: aef2 90b8 1d41 0780 d021 38bb 746b 0600
00000070: 6959 90bc 6324 48bc f516 78be fa69 d53e
00000080: 4000 39bb efc5 1fbe 8d50 f6ba c11e 0780
00000090: df60 54bc 0e44 37ba 11eb f63d 17d4 3ebe
000000a0: 6424 5bba 46f1 65b9 3139 edbb b500 90bb
000000b0: 39e5 3f3c f1fb 17bf ca5e 493c eaa8 46bf
000000c0: 7950 6abe a36d b83e ee91 a8be 0d1d b93d
000000d0: eeca c4a5 4baf cba9 0fdf f93c 0be3 553d
000000e0: 46f2 cabe 8bbb bd3d 72b7 03bc 4352 4abe
000000f0: d269 aebd 8241 a83d 9aed 85be 30b0 8d3d
00000100: 1453 4bbd 5962 febc 0c2a c5bb d9e4 15bd
00000110: 4fdc 5fb0 8129 0580 6dab dcbd d8fb 83bd
00000120: c046 87ba 9a05 e78c 46e0 8cbb d1ac 5fbe
00000130: 2904 3ea7 88d9 a9a7 81b8 153d 5cb2 88be
00000140: cf92 a4be cf7a d23d 5c9f 5dbc 2695 85bb
00000150: 7613 ceb5 7b73 0700 0408 b0bc 471a b8bc
00000160: 1c5f efb9 d16e a7b8 217f 023e 9896 cabe
00000170: f270 13bd 97f0 f1bb 912c 2ebd 0c22 fc3b
00000180: affb 8ebc 52f9 a7bd a0c6 50b4 9f23 29b6
00000190: 1e07 c23c 8fb6 313e 3ba8 49be 7527 b93e
000001a0: 098f 27b5 f7a4 0600 c119 32bc e30a b1bb
000001b0: 7dcd 8bbb 2852 e53e e37b d1bb aa30 3fb6
000001c0: 7c01 65bc 7a79 c5bb 3b91 d63d 808d dd3d
000001d0: e0a9 25b8 b1f9 0300 8826 8c9b 875a 0280
000001e0: 8164 18bd 74af 953b 5f0c baba 3d47 dfbd
000001f0: 30db 563e 2847 10be 5cbe 58ba 5656 5aba
00000200: 26ad e0bd c5e0 a43d 8d7d 3fbc 496d b0bb
00000210: 08d0 b13b 41ef 19bf f62a 87b9 38b4 08b9
00000220: d1f2 823b 1a8b 753e b126 40ba 75c3 86be
00000230: b3fc bfb5 57c8 8ca4 8241 973d 63df eabe
00000240: d277 94be 7671 683e 27c2 12bd 7f60 2abe
00000250: b2f9 093c 951b 0cbf 6a36 f4bd 2db0 f5bc
00000260: 265e 14be 413a 9c3b 54da 9483 d2ba 0080
00000270: ffee 17ba f91b 8cbd b65b 1cbd 6451 c0bd
00000280: 3b1b 0380 6b33 5b9f fdf6 9abb fe0c 99bb
00000290: 8949 50bb eb0b 0600 d8f7 8cbe 9f2b 683e
000002a0: 9bf4 1b3c bff8 0c3e 8d9e 9c3c b8be 3dbf
000002b0: 196f babe 561a 5a3e 15e1 163a ba2a 7abe
000002c0: 698b b9be ef67 563e 3191 bebe fca1 163e
000002d0: a6ba 8fb6 6f42 d2b6 7858 a7b8 8d81 4db9
000002e0: 46a7 99be 1eed 5e3e 9ff7 b2be a21a 0c3e
000002f0: 0031 e93c 2dd5 86be 05ce 98be 02e4 c33e
00000300: 4817 0ebc e71b 92be f5a4 0dbc 5a21 f781
00000310: 36b7 f6bd 0c32 61bd 9784 d03b 1ba0 2abf
00000320: 9357 8fbe 4ebc 703e f768 30bc 896c acbd
00000330: 85b7 91bd 7ce1 fc3b c4bd 0ebc d742 86be
00000340: 41cb adbc 6c29 8bbb 3cc8 38bb 013b 229e
00000350: b02b abbd dbcf 033e be0e ca3c 854e 0b3e
00000360: 972e c13d 8c56 1e3e c603 94be bc0c 803e
00000370: 0b35 f43b 55c4 1fbf c461 2abd d148 c83e
00000380: 46f3 bb3c 8501 54bf 256d 09bd 6ad2 06bd
00000390: c914 2ab6 71e6 0180 1ee7 25bb 9563 99be
000003a0: 6869 1abd 3322 a53d e29c c73b 5c29 933e
000003b0: 88a1 543c b5a6 24bf 4792 f7b9 6225 3aa1
000003c0: b70b 213b 51c6 a83e 8d94 3899 faf3 0280
000003d0: d076 92b9 f924 6fb8 30f6 8abd 71f7 8e3b
000003e0: 5c94 a8bd 4fa2 f73d 7779 5ebd 8dc5 62bd
000003f0: 9882 c9bd 7560 30bd 2de3 e7bb 017c 0480

conv1.bias f4 [128]
-1.08102924e-07 -0.05335248 -0.047222275 -2.0592944e-37 0.43458372 -0.00047498933 -0.110787325 -0.0007037303
-3.3288639e-09 -0.03576501 -0.57738113 -8.7039446e-08 -0.19954136 0.24556786 -4.723202e-12 -0.0006655498
-0.11858682 -0.04261974 0.4727751 -0.0023122495 0.065013334 -0.016102102 -0.035669617 -7.612753e-15
-0.0010488629 0.056096576 0.13226545 -0.026891502 -0.03284777 -0.0045882915 -0.0018108494 -7.571388e-09
-0.2670167 -0.00061408343 0.01887201 0.3469183 -0.0970133 -0.0070950277 -0.015171166 -0.07598189
-0.079816446 -1.3563996e-10 -3.6891802e-07 -0.16261922 0.16147092 -0.011591214 0.05031487 -0.033771373
-5.3206415e-05 -0.014134577 -0.004078608 -0.004256081 0.011522875 -7.3233e-41 -0.00013851153 -0.08714016
-0.30924454 -0.0013789838 -0.003638736 -0.00057894445 0.11084028 -0.07792057 -0.10977801 -0.041766223
-6.903814e-10 -0.025938762 -0.06882699 -0.048669215 0.2615419 -0.002253777 0.13258071 0.0976537
0.08506948 0.18439505 0.19856875 -0.06778205 -0.012121874 -0.25125486 0.102053896 -0.053204168
-0.07103438 0.10420329 -0.0005748042 -0.010623576 0.09591773 -0.14087689 -0.10485685 0.014466749
-4.468296e-26 -6.162649e-13 -0.052657064 -3.6138847e-33 -1.236559e-30 -6.376829e-15 -0.008997778 -0.02218006
-0.07815916 0.18753996 -0.093496926 -0.15458173 0.52244276 -0.031877283 -0.09461768 2.14476e-40
-0.009898363 -0.12722427 -0.0024396165 -0.017743774 -0.025034538 -0.1112886 -0.35041234 -5.237554e-32
0.051949736 -0.044223253 -3.72794e-39 -3.6600885e-09 -7.3415844e-22 -0.06859626 -0.038762726 -0.0138072
-0.12574159 0.02510748 -2.4072905e-08 -0.09952575 -0.21295457 -1.41081e-40 0.63601 -8.3901835e-10
00000000: 3626 e8b3 2188 5abd 256c 41bd f825 8c82
00000010: c281 de3e fd07 f9b9 77e4 e2bd 8a7a 38ba
00000020: fec1 64b1 557e 12bd 40cf 13bf 71ea bab3
00000030: 9254 4cbe 2476 7b3e d22e a6ac 4a78 2eba
00000040: a6dd f2bd 0992 2ebd 940f f23e 1c89 17bb
00000050: b625 853d 8ee8 83bc 4e1a 12bd a023 09a8
00000060: 007a 89ba 86c5 653d 9870 073e 914b dcbc
00000070: 628b 06bd 6159 96bb 065a edba 5113 02b2
00000080: 6ab6 88be 71fa 20ba 7999 9a3c 479f b13e
00000090: e9ae c6bd 687d e8bb 7b90 78bc 659c 9bbd
000000a0: ce76 a3bd 4123 15af b50f c6b4 a785 26be
000000b0: a258 253e 13e9 3dbc f716 4e3d da53 0abd
000000c0: f429 5fb8 b694 67bc d8a5 85bb 9876 8bbb
000000d0: 71ca 3c3c 25cc 0080 683d 11b9 8a76 b2bd
000000e0: 4d55 9ebe 05bf b4ba dc77 6ebb 4ec4 17ba
000000f0: 3b00 e33d d294 9fbd 4bd3 e0bd 0f13 2bbd
00000100: 46c5 3db0 877d d4bc 2af5 8cbd 5f59 47bd
00000110: d2e8 853e 1bb4 13bb 3dc3 073e aafe c73d
00000120: e838 ae3d 0ed2 3c3e 9b55 4b3e 51d1 8abd
00000130: d39a 46bc 7aa4 80be a201 d13d 9dec 59bd
00000140: 797a 91bd 8968 d53d 75ae 16ba 820e 2ebc
00000150: 8470 c43d 0842 10be 30bf d6bd f105 6d3c
00000160: 6242 5d95 9176 2dab efae 57bd 6a1d 9689
00000170: a7a4 c88d debf e5a7 6b6b 13bc f5b2 b5bc
00000180: e911 a0bd 7a0a 403e 517b bfbd ac4a 1ebe
00000190: cfbe 053f c191 02bd eac6 c1bd df55 0200
000001a0: be2c 22bc 1447 02be f9e1 1fbb 645b 91bc
000001b0: 3b15 cdbc 47eb e3bd 3f69 b3be 84f9 878b
000001c0: 3fc9 543d 7123 35bd fb97 2880 f584 7bb1
000001d0: c2e2 5d9c 327c 8cbd aac5 1ebd 9837 62bc
000001e0: 67c2 00be 34ae cd3c e1c8 ceb2 28d4 cbbd
000001f0: c310 5abe 4789 0180 8dd1 223f aba0 66b0

conv1.lin.weight f4 [128, 128]
-2.7930594e-06 -4.118233e-12 -1.7918434e-05 -7.2832463e-06 -1.0825735e-12 -5.0092e-40 6.388e-40 -2.0869747e-06
-1.04962446e-07 -0.00018026374 8.21584e-40 -4.6665158e-07 -1.5537e-40 6.85151e-40 -8.96413e-40 -2.5787e-41
-0.0003927824 -8.64119e-40 -7.55734e-40 -2.7319474e-23 2.46427e-40 -4.05478e-40 -1.7150029e-31 2.34207e-40
-5.53228e-40 -4.6223e-41 -3.49613e-40 -0.00048066914 5.09512e-40 -0.0003770087 -2.48002e-06 -6.50156e-40
-2.996e-41 -4.334714e-07 2.81035e-40 6.88057e-40 2.54669e-40 -1.4099242e-08 9.1569e-41 -4.2242027e-06
4.10086e-40 -2.34862e-40 -1.1758e-41 -8.33775e-40 1.15735e-40 -0.0004494267 -4.64605e-40 4.29048e-40
-3.215217e-05 -1.14981e-40 -6.397617e-06 6.55215e-40 -7.04543e-40 -5.1531e-41 -1.5502985e-05 -9.436266e-36
-4.98149e-40 -0.00019889262 -9.31554e-40 -1.06018e-40 2.64114e-40 -0.00032998377 -4.217305e-07 -3.8276635e-10
-4.9057046e-25 9.01716e-40 -1.9554987e-08 6.09556e-40 -1.4017679e-06 -1.6823256e-08 -8.55089e-40 -5.236847e-09
-5.05832e-40 7.036e-41 -2.2188005e-17 -6.8111e-40 4.54228e-40 9.73453e-40 -1.313589e-05 -8.462859e-05
1.98296e-40 -9.3589e-41 -4.62552e-40 -7.10576e-40 -0.00013770652 -5.705923e-19 5.61227e-40 -7.9044206e-08
6.08217e-40 7.72532e-40 6.92834e-40 -1.96745e-40 1.15213e-40 -3.99222e-40 -0.00023957292 -2.51158e-40
-1.2202278e-05 -1.30929e-40 8.3535e-40 -5.1557343e-08 3.49296e-40 -4.0747474e-24 -1.81072e-40 -2.2643107e-12
-1.4523607e-24 -6.78963e-40 -7.5816446e-05 -0.0002204799 -3.1888205e-05 4.2533e-40 -3.2595475e-11 5.25619e-40
-3.5571667e-08 8.46394e-40 6.46043e-40 -2.9411394e-08 -4.3518726e-06 -4.284902e-08 -5.678274e-28 -5.52749e-40
-5.056637e-09 1.35213e-40 2.12169e-40 5.3132e-40 -2.7303999e-05 -8.65969e-40 8.63854e-40 8.30973e-40
-0.057716206 -0.0004939452 -0.09320167 -0.049415972 0.021602696 -1.6661105e-09 -3.08821e-40 -0.0009147254
0.02583715 0.024139749 -4.7846e-41 -0.045097243 -6.7837e-41 9.654e-42 -2.8392e-40 -0.001985417
0.035510097 -1.95101e-40 2.47684e-40 -0.021940138 2.6841e-40 -5.0723e-41 -0.00014932812 -0.00035852083
-0.0005269089 -0.00036472926 6.86597e-40 0.016136011 -0.0001473159 0.0208144 -0.061344933 -0.0016085717
-6.92393e-40 -0.02982779 1.55453e-40 5.8520284e-13 3.00796e-40 -0.026178652 2.15932e-40 -0.005348586
-0.0063837664 2.1274e-39 1.66267e-40 7.963129e-10 -2.87034e-40 0.06767008 -1.8736459e-29 -0.011181902
0.069393694 6.00211e-40 -0.06106207 0.00050234544 7.92289e-40 -5.6050813e-14 0.02596592 -6.4296155e-06
1.5150746e-19 -0.06463485 -6.10387e-40 3.00193e-40 0.009674448 0.066604 -0.025178947 -0.008012935
0.054098766 -7.6377567e-28 -0.0026629132 2.36988e-40 0.0051069893 -0.024407383 1.10317e-40 -0.01579538
-0.010114173 0.00015690699 -0.000356505 -2.77967e-40 -5.8038776e-32 3.87252e-40 -0.034634158 -0.014839877
-5.29568e-40 -1.0968321e-11 -7.51204e-40 -2.901047e-07 0.05068012 -0.00072394696 -9.276904e-05 -0.018068427
-0.010128683 -1.3293465e-05 7.26761e-40 4.607e-41 -0.0026769368 0.002091893 -0.08943844 -0.049454052
-0.022887658 3.19164e-40 -1.61473e-40 -0.012077236 0.006725323 -0.0012279127 -1.1326903e-20 0.00018400842
-0.013776918 4.37791e-40 0.051830355 -0.03240037 -0.050502613 0.007164403 -1.4645868e-05 -6.4941986e-13
-0.0118931485 -5.128987e-07 -4.25913e-40 -0.0013083562 0.025499169 0.0011858845 -0.002626716 -7.3993e-40
-0.011770845 -3.58482e-40 -6.52743e-40 0.026869724 -0.010304661 -4.67784e-40 -1.78659e-40 2.7346381e-13
00000000: 6570 3bb6 bfe5 90ac 8b4f 96b7 9c62 f4b6
00000010: d25b 98ab 5c74 0580 b7f4 0600 f40d 0cb6
00000020: b767 e1b3 2e05 3db9 3ef2 0800 1b88 fab4
00000030: 1cb1 0180 ec75 0700 d6c2 0980 e247 0080
00000040: 5cee cdb9 d068 0980 ae3a 0880 df1b 049a
00000050: f0ae 0200 4f6a 0480 bf9e 5e8c e08c 0200
00000060: 2d06 0680 da80 0080 94ce 0380 5202 fcb9
00000070: 508c 0500 40a9 c5b9 6b6e 26b6 5f14 0780
00000080: 8453 0080 dbb7 e8b4 690f 0300 067e 0700
00000090: eac5 0200 1f39 72b2 42ff 0000 a0bd 8db6
000000a0: 2777 0400 b38e 0280 c720 0080 3a14 0980
000000b0: 9f42 0100 08a1 ebb9 210f 0580 03ac 0400
000000c0: 21db 06b8 8540 0180 1dab d6b6 7922 0700
000000d0: fbab 0780 a68f 0080 680c 82b7 ebaf 4885
000000e0: a36c 0580 d58d 50b9 cb24 0a80 8927 0180
000000f0: 3ee0 0200 ac01 adb9 336a e2b4 936d d2af
00000100: ffd2 1797 9ed1 0900 dff9 a7b2 32a3 0600
00000110: 6124 bcb5 bb82 90b2 a44f 0980 cbef b3b1
00000120: 0e82 0580 23c4 0000 f2a5 cca3 a86a 0780
00000130: 34f2 0400 9799 0a00 3862 5cb7 a17a b1b8
00000140: c528 0200 e304 0180 6809 0580 ccbc 0780
00000150: 5065 10b9 bc68 28a1 791c 0600 03bf a9b3
00000160: 769f 0600 8169 0800 578b 0700 7224 0280
00000170: 2b41 0100 de58 0480 de35 7bb9 20bc 0280
00000180: 63b8 4cb7 fa6c 0180 9e18 0900 e66f 5db3
00000190: b2cd 0300 58a2 9d98 c1f8 0180 3256 1fac
000001a0: efbd e097 ac64 0780 a5ff 9eb8 9f30 67b9
000001b0: b3bf 05b8 a6a1 0400 3e5b 0fae 36b9 0500
000001c0: 76c7 18b3 6737 0900 e808 0700 57a4 fcb2
000001d0: 4d06 92b6 ff08 38b3 a2f3 3392 d704 0680
000001e0: a6be adb1 eb78 0100 714f 0200 1bc9 0500
000001f0: e40a e5b7 f86d 0980 1368 0900 6a0c 0900
00000200: d467 6cbd 1a7c 01ba 84e0 bebd 6768 4abd
00000210: 23f8 b03c 0dfd e4b0 de5c 0380 2fca 6fba
00000220: 6ea8 d33c b9c0 c53c 6085 0080 e3b7 38bd
00000230: 1abd 0080 e91a 0000 7417 0380 c51d 02bb
00000240: 0973 113d dd1f 0280 71b2 0200 cebb b3bc
00000250: 38ec 0200 658d 0080 f694 1cb9 daf7 bbb9
00000260: 4220 0aba 2239 bfb9 f479 0700 ab2f 843c
00000270: d078 1ab9 f682 aa3c d344 7bbd b6d6 d2ba
00000280: 1c8a 0780 6959 f4bc 57b1 0100 4fb8 242b
00000290: 7f46 0300 9d74 d6bc ee59 0200 3143 afbb
000002a0: ea2e d1bb 532a 1700 7ccf 0100 8ae3 5a30
000002b0: 2220 0380 9c96 8a3d a102 be8f 4c34 37bc
000002c0: 481e 8e3d 2589 0600 391c 7abd d5af 033a
000002d0: 94a0 0800 306e 7ca9 7bb6 d43c fabd d7b6
000002e0: 52de 3220 475f 84bd 83a5 0680 d144 0300
000002f0: 9381 1e3c ae67 883d 1444 cebc af48 03bc
00000300: ab96 5d3d d80c 7292 4584 2ebb a094 0200
00000310: 8858 a73b fef1 c7bc 8533 0100 5065 81bc
00000320: ebb5 25bc 6687 2439 4be9 bab9 dc06 0380
00000330: 62ad 968b 8037 0400 8cdc 0dbd f522 73bc
00000340: 38c4 0580 edf4 40ad 0d2e 0880 b0bf 9bb4
00000350: f595 4f3d 42c7 3dba 008d c2b8 3d04 94bc
00000360: c7f2 25bc ff06 5fb7 eae9 0700 6d80 0000
00000370: 8c6f 2fbb 2418 093b 802b b7bd 5590 4abd
00000380: e67e bbbc b379 0300 1fc2 0180 99df 45bc
00000390: 1960 dc3b eaf1 a0ba 8bf5 559e 62f2 4039
000003a0: 95b8 61bc 62c4 0400 114c 543d 40b6 04bd
000003b0: d4db 4ebd 5ec3 ea3b 86b7 75b7 a2cb 36ab
000003c0: 7bdb 42bc 21ae 09b5 46a3 0480 267d abba
000003d0: a2e3 d03c ae6f 9b3a fb24 2cbb a00e 0880
000003e0: 81da 40bc 4de7 0380 951b 0780 e51d dc3c
000003f0: e1d4 28bc fe17 0580 07f2 0180 4af2 992a

conv2.bias f4 [128]
0.13739137 -0.009466992 -0.0015107912 -0.027453624 -0.0008755593 -0.0011146954 -9.864167e-05 -0.00309036
-6.4735774e-16 -0.019216588 -0.020114211 -0.07996667 0.29022315 -7.5308154e-31 -1.5017064e-32 -0.016617214
-0.031078339 -0.018459326 -0.012881925 -1.9900988e-17 0.066811725 -0.0155427 -0.00080242933 -0.06243286
-0.05967253 -0.09170393 -0.040589232 -0.096489616 -0.02676422 0.30658454 -0.000340782 -0.052509908
-0.18106811 -0.08687879 -0.008776185 -0.0015403389 -0.10250206 -0.066673085 -9.3363183e-14 -7.7115394e-05
-0.05271472 0.26042268 -1.6213777e-05 -0.0706372 -0.062181775 -0.031176455 -6.338665e-05 -0.08639848
0.0020816713 -0.004564864 0.014725789 -0.0020034555 -0.04773638 0.013091557 -0.0021478138 -0.01131426
-0.04799287 -0.09692725 0.024190499 0.106899485 -0.080698855 -0.04908399 -0.1375586 -0.024289414
-0.044759296 -1.9001787e-13 -1.08915287e-10 0.07470869 -0.0108604245 0.031143827 -0.0036114522 -0.23483957
0.0039330134 -0.10144359 -0.00084979285 -0.007020504 -0.03553408 -0.07825147 -0.0039817016 0.16903935
-0.021261401 -4.5747703e-07 -0.006804607 -0.008898592 -0.08525637 -0.05040189 -0.23185495 0.043200277
-0.04654398 -0.08251204 -0.011837939 0.016863676 -0.0031193201 0.011350604 -0.0852305 0.25956866
-0.024196755 -4.7473913e-14 -0.0017536839 -1.0423202e-05 -0.10675806 -0.004975522 -0.08956571 -0.037647903
-0.14582112 0.1925078 -0.006723243 -0.0046509043 -0.0029562197 -0.089250825 -0.10435878 0.1562811
-0.098557875 -0.0027357745 -0.0712719 -0.044437245 0.28351265 -0.0076054977 -0.04488529 -0.025771067
-0.086161815 -0.0006026869 -0.027228659 0.22243202 -0.03262826 -0.0037718825 -0.0020682893 -2.3192848e-09
00000000: 53b0 0c3e 711b 1bbc be05 c6ba 6ce6 e0bc
00000010: ca85 65ba f91a 92ba d8dd ceb8 a387 4abb
00000020: 9296 3aa6 1b6c 9dbc 8fc6 a4bc 91c5 a3bd
00000030: 2198 943e 9163 748d 34f2 9b8a d320 88bc
00000040: 0098 febc 0338 97bc b60e 53bc e18d b7a3
00000050: 96d4 883d cfa6 7ebc 1f5a 52ba 99b9 7fbd
00000060: 2f6b 74bd 45cf bbbd e540 26bd 599c c5bd
00000070: a340 dbbc a6f8 9c3e fcaa b2b9 a114 57bd
00000080: eb69 39be 82ed b1bd fdc9 0fbc 32e5 c9ba
00000090: 9aec d1bd e68b 88bd 363c d2a9 03b9 a1b8
000000a0: 64eb 57bd 1f56 853e d202 88b7 3caa 90bd
000000b0: 51b2 7ebd c465 ffbc 73ee 84b8 b0f1 b0bd
000000c0: a66c 083b db94 95bb 7044 713c 684c 03bb
000000d0: 3987 43bd f87d 563c 56c2 0cbb 725f 39bc
000000e0: 2c94 44bd cb81 c6bd 272b c63c 1eee da3d
000000f0: 7145 a5bd 4b0c 49bd 29dc 0cbe 98fa c6bc
00000100: 8655 37bd ecf0 55aa db81 efae df00 993d
00000110: ecef 31bc 5721 ff3c 1dae 6cbb c979 70be
00000120: 82e0 803b a8c1 cfbd a2c4 5eba 420c e6bb
00000130: 2f8c 11bd 4f42 a0bd ef78 82bb a718 2d3e
00000140: 642c aebc 2a9b f5b4 2ef9 debb 66cb 11bc
00000150: e49a aebd 3672 4ebd 626b 6dbe c6f2 303d
00000160: e6a4 3ebd 13fc a8bd eaf3 41bc b125 8a3c
00000170: 826d 4cbb e2f7 393c 548d aebd 2fe6 843e
00000180: 4638 c6bc b2cd 55a9 dedb e5ba 50df 2eb7
00000190: f8a3 dabd b409 a3bb 3a6e b7bd b034 1abd
000001a0: 2252 15be c420 453e a64e dcbb 9d66 98bb
000001b0: 23bd 41bb 23c9 b6bd 0eba d5bd 2708 203e
000001c0: b6d8 c9bd ae4a 33bb 00f7 91bd d403 36bd
000001d0: 9228 913e 8a37 f9bb a3d9 37bd d81d d3bc
000001e0: 9b75 b0bd a2fd 1dba a30e dfbc 38c5 633e
000001f0: 36a5 05bd b031 77bb 238c 07bb 4a61 1fb1

conv2.lin.weight f4 [128, 128]
-0.009548473 0.025357854 0.00517033 -5.3134e-40 -0.3106384 0.00072526035 0.005930421 4.246006e-05
1.7550225e-37 0.035859596 -0.15205353 -7.1518e-41 -4.964708e-06 -0.51840025 -6.64039e-40 -0.002291334
-0.020464074 1.590241e-08 -0.20986028 -5.5062664e-08 0.23441982 0.0065139667 -0.0007270887 4.948085e-05
0.0011333807 -0.059578516 -0.106451735 0.0018169993 0.013419591 -0.022420868 0.028839914 -3.50815e-40
0.010702624 0.0009622048 -0.010182809 -0.0846465 0.10552654 0.06605705 -0.00085871026 0.2923141
0.030083423 -8.029045e-09 0.0028303494 -0.119270995 -0.0697305 -0.0010641958 -0.1364137 -0.011182908
8.2885e-06 0.007978753 -3.14017e-40 0.00033041136 0.025310718 -2.5344806e-21 1.7525717e-05 0.015806818
-0.12775856 -0.004813763 -2.6909166e-07 0.0053784167 0.20241228 0.0041804076 -0.12168041 2.1298392e-06
-8.544224e-15 -0.0142699415 -0.035967678 -0.009667773 0.09530203 -0.01698163 0.2594307 -0.17392416
-0.096058816 -0.1695275 -0.6376195 0.08322005 5.688611e-13 0.055601362 -0.04382142 -0.014118397
-0.11964513 -0.48689952 0.001837965 0.00066069857 0.0031674092 -0.10306552 -0.08462354 -0.107903965
6.23984e-40 -5.65222e-40 0.059321344 -4.2669036e-37 -7.21024e-40 -1.4795552e-33 -0.00032979337 0.011143081
-0.020708587 0.18000652 0.0040009306 0.026525844 -0.7514472 -0.21353742 -0.08293741 -1.5089634e-07
-0.018751886 -0.059342317 0.00017218919 0.07089946 -4.2695647e-05 0.0012151749 -0.073715575 -8.10224e-40
0.051898148 0.053727876 3.38286e-40 -5.24028e-40 -5.02992e-40 5.061499e-16 0.030038012 -1.05385e-40
-0.0012362386 -0.52803475 -2.804887e-08 -0.0020335175 -0.31064767 2.1026713e-12 -0.3583418 -3.78669e-40
-7.4332e-40 -0.0052832714 -8.07465e-40 -8.924e-40 1.12486e-40 -5.1402e-41 0.0012473569 -2.313119e-05
9.1736e-40 -0.014662452 -0.0022350533 -1.6947e-41 -8.55051e-40 -0.0029157912 2.1681e-40 5.19894e-40
-0.007921624 7.52381e-40 0.024522943 2.4467587e-07 5.49739e-40 -6.5838253e-06 -1.5012771e-05 -2.2781975e-05
-1.46296e-40 3.82306e-40 -6.2854e-41 7.93656e-40 -0.008382577 8.252901e-06 -0.003153148 -3.4912e-41
-0.0059038345 -3.10647e-40 -3.7182e-40 -0.0003636291 -0.007423924 -0.01949102 -0.001424739 -0.018720374
-0.022267977 3.8353637e-10 -0.006052966 -0.008880962 -2.14169e-40 8.0878e-40 -0.0028904376 -4.39297e-40
-7.36496e-40 7.05443e-40 -5.0546e-40 -0.0010077576 0.0073562167 3.35828e-40 8.75111e-40 -0.01894296
0.015557431 -7.65008e-40 3.4667463e-07 0.00776345 -0.058048815 -0.02862557 0.022932542 -1.1250155e-08
7.92218e-40 0.009010133 -0.0007705515 -0.0060325884 -0.0015403868 3.71118e-40 -0.005609747 -0.015939265
-3.823822e-05 2.75609e-40 -0.00094182376 -0.016818222 2.10301e-40 -0.022642469 -0.004147635 2.4914e-41
-4.92041e-40 0.03184412 -5.41598e-40 8.16077e-40 -2.4666122e-07 -0.0015026542 0.00012672885 -0.011365233
7.87108e-40 -5.95185e-40 -0.02141986 -6.1193e-41 6.99217e-40 -3.34154e-40 -2.333775e-12 0.020877315
2.53852e-40 -0.00010711791 -0.010639822 0.00047953503 -8.744953e-11 -0.03513337 -0.00018780632 6.28973e-40
-0.00033480852 -9.319198e-06 6.04337e-40 0.0008107441 -5.6042007e-09 6.56358e-40 -0.039461188 -8.459e-40
-0.029681737 0.00077904004 6.99102e-40 -7.6332e-40 9.01081e-40 8.48848e-40 -0.0045442516 2.65927e-40
0.0016125437 -4.237411e-15 -9.9774e-40 0.019720772 -0.10507871 -5.131149e-12 8.04453e-40 -8.33534e-40
00000000: 3371 1cbc 46bb cf3c df6b a93b 29c9 0580
00000010: ff0b 9fbe 661f 3e3a fa53 c23b 2417 3238
00000020: 9ce1 6e02 83e1 123d ecb3 1bbe 5dc7 0080
00000030: 8496 a6b6 e1b5 04bf 123b 0780 352a 16bb
00000040: 46a4 a7bc c599 8832 9de5 56be 0a7e 6cb3
00000050: c00b 703e 1d73 d53b 199a 3eba a889 4f38
00000060: f28d 943a 9a08 74bd 5e03 dabd 6128 ee3a
00000070: d8dd 5b3c f8ab b7bc af41 ec3c eed1 0380
00000080: 0f5a 2f3c 793c 7c3a ccd5 26bc 255b adbd
00000090: 4c1e d83d eb48 873d 121b 61ba 32aa 953e
000000a0: 8371 f63c 1df0 09b2 627d 393b 5a44 f4bd
000000b0: ddce 8ebd 7c7c 8bba 08b0 0bbe 8438 37bc
000000c0: d60e 0b37 51b9 023c 5a6b 0380 103b ad39
000000d0: 6c58 cf3c fc7f 3f9d 3104 9337 4d7d 813c
000000e0: 24d3 02be c5bc 9dbb ad77 90b4 6e3d b03b
000000f0: 2a45 4f3e cdfb 883b 9433 f9bd 5cee 0e36
00000100: 47eb 19a8 79cc 69bc d852 13bd 9465 1ebc
00000110: b62d c33d 0f1d 8bbc 1ad4 843e 2d19 32be
00000120: 7cba c4bd 9e98 2dbe 083b 23bf 466f aa3d
00000130: c31e 202b 41be 633d 177e 33bd d950 67bc
00000140: 8208 f5bd e54a f9be dfe7 f03a bb32 2d3a
00000150: 4f94 4f3b 0414 d3bd 1b4f adbd c1fc dcbd
00000160: 6acb 0600 9c27 0680 f0fa 723d f931 1183
00000170: ecd9 0780 51d5 f588 1ee8 acb9 7891 363c
00000180: 0ea5 a9bc a153 383e 3d1a 833b ba4c d93c
00000190: d85e 40bf 8ea9 5abe 17db a9bd 1206 22b4
000001a0: 8e9d 99bc ee10 73bd af8d 3439 bc33 913d
000001b0: 1a14 33b8 8146 9f3a 31f8 96bd 93d2 0880
000001c0: 2793 543d c311 5c3d 01af 0300 c7b4 0580
000001d0: 237a 0580 45e3 1126 4712 f63c c525 0180
000001e0: 4909 a2ba 492d 07bf 1ef0 f0b2 c344 05bb
000001f0: 360d 9fbe 5cf6 132c 9478 b7be 931f 0480
00000200: 1318 0880 4b1f adbb e2ca 0880 a6b7 0980
00000210: 9139 0100 4a8f 0080 5a7e a33a da09 c2b7
00000220: 3afd 0900 c83a 70bc f979 12bb 3e2f 0080
00000230: 894f 0980 dc16 3fbb 615c 0200 41a9 0500
00000240: b3c9 01bc 5531 0800 57e4 c83c ff5b 8334
00000250: 73fc 0500 a1ea dcb6 5cdf 7bb7 eb1b bfb7
00000260: d097 0180 b729 0400 36af 0080 64a4 0800
00000270: 1457 09bc f175 0a37 0ca5 4ebb 5261 0080
00000280: f474 c1bb f561 0380 7c0c 0480 79a5 beb9
00000290: 6344 f3bb a2ab 9fbc 4fbe baba 785b 99bc
000002a0: 556b b6bc f2d9 d22f f657 c6bb 7481 11bc
000002b0: 0455 0280 8dce 0800 7f6d 3dbb 95c8 0480
000002c0: 0d05 0880 7dae 0700 0481 0580 bc16 84ba
000002d0: 6b0c f13b 27a8 0300 7487 0900 442e 9bbc
000002e0: 98e4 7e3c 8854 0880 991e ba34 8a64 fe3b
000002f0: 98c4 6dbd 2c80 eabc 07dd bb3c b446 41b2
00000300: 62a0 0800 3d9f 133c d6fe 49ba 05ad c5bb
00000310: cee6 c9ba 870a 0400 f8d1 b7bb 1093 82bc
00000320: fa61 20b8 4900 0300 b9e4 76ba 5ec6 89bc
00000330: 3c4a 0200 b37c b9bc e2e8 87bb 7345 0000
00000340: 9c5b 0580 fb6e 023d c1e5 0580 e4e2 0800
00000350: dc6c 84b4 b5f4 c4ba 84e2 0439 3e35 3abc
00000360: 2392 0800 227b 0680 b478 afbc 95aa 0080
00000370: 229d 0700 7ca3 0380 8e39 24ac e706 ab3c
00000380: a3c3 0200 7da4 e0b8 a652 2ebc 1a6a fb39
00000390: b54d c0ae 02e8 0fbd e0ed 44b9 52d9 0600
000003a0: 3d89 afb9 a759 1cb7 a594 0600 1e88 543a
000003b0: 128f c0b1 a925 0700 0ea2 21bd 0636 0980
000003c0: 1d27 f3bc 7e38 4c3a d09c 0700 d34f 0880
000003d0: d9cf 0900 3e3e 0900 f2e7 94bb 4ce5 0200
000003e0: fd5b d33a 38ab 98a7 4bdd 0a80 758d a13c
000003f0: 8233 d7bd 4889 b4ac 7dc2 0800 8e13 0980

lin1.weight f4 [128, 256]
-0.007919221 0.019367887 -3.61857e-40 -0.00013370774 -8.82852e-40 -0.006085023 -6.85326e-40 0.0031454433
-3.7638e-40 7.75508e-40 -7.782255e-10 -5.31562e-40 0.00050614204 1.926e-41 9.05372e-40 -7.2778945e-05
-1.031672e-39 -3.7852675e-05 7.99385e-40 -8.96122e-40 -0.023443907 -5.79116e-40 -7.9947e-41 0.002197568
-0.037581563 -6.73395e-40 -5.1178e-40 -1.7248512e-05 -0.03607618 -0.021947194 2.28008e-40 6.6932e-41
1.9103843e-38 0.014771953 -1.07111e-40 -0.0035387562 -0.019116525 -3.4989984e-12 4.2336845e-13 -7.10681e-40
0.013348049 -0.0006423614 2.93139e-40 0.015785757 -0.0055469 -0.01881581 -4.57242e-40 -0.0067814216
-5.69517e-40 -0.014382352 5.93446e-40 8.711492e-10 -0.0012939635 5.34782e-40 1.005774e-39 7.32966e-40
0.0059516574 -0.0123155825 -0.001061007 -0.030765925 -0.0025596446 2.84174e-40 2.6604e-41 -0.0053459983
-9.02227e-40 5.69192e-40 1.78796e-40 0.0077088284 1.9310198e-06 4.47782e-40 -6.28798e-40 -0.05464019
-8.80995e-40 -3.96929e-40 -4.06039e-40 -0.053555023 0.0006389201 6.49118e-40 -1.71114e-40 -3.2678552e-05
-0.0017404038 -3.6905126e-09 8.2969e-40 0.0085231885 -0.00012739007 -7.58673e-40 -0.022778451 -3.65233e-40
-0.04854498 0.010482677 -0.025564604 -7.17224e-40 7.18018e-40 -1.3837905e-07 -0.043117695 -6.513563e-08
-0.004335829 -9.08233e-40 2.3557166e-17 -9.7017e-40 -1.5148583e-14 -2.4544442e-17 -4.53551e-40 -0.017873071
3.5147887e-06 -0.016398521 1.32255e-40 0.004058598 -8.68916e-40 9.22436e-40 7.81906e-40 0.0054172967
0.0005301753 1.55428e-40 1.3542923e-17 -0.029703889 -0.010980127 -1.7316116e-25 -0.012545696 0.0032065571
-0.036560953 4.9286e-40 -0.00013517418 -6.690955e-05 -0.01429355 0.00014224002 -9.1368e-40 -1.4299768e-30
-0.03268622 -0.013721725 -2.37565e-40 -4.4241107e-05 -7.14196e-40 -0.011682827 2.54184e-40 -0.0051485
2.40324e-40 9.42026e-40 -4.944976e-31 -8.3345e-40 0.0003593653 -6.4321e-41 -6.23065e-40 -7.4826785e-05
-1.27983e-40 -1.8551314e-06 -8.87672e-40 -3.88838e-40 -0.016821114 -9.2849e-41 9.16089e-40 -0.0028570136
-0.025904074 4.97088e-40 -6.91688e-40 -4.886654e-09 -0.0033502504 -0.0017556805 -7.20287e-40 -6.69529e-40
4.80141e-40 -0.030047247 4.51941e-40 -9.1910566e-05 -0.002781299 3.7374e-40 7.06432e-40 -7.72107e-40
-0.0050231004 -0.00032395287 3.6899e-40 0.0025192134 0.006405637 -0.0027012876 -4.29655e-40 -0.005669936
6.93671e-40 -0.0028702707 -3.35758e-40 -4.307093e-18 -1.8233077e-06 -8.91233e-40 8.34753e-40 3.40867e-40
-0.013061156 -0.0049906215 0.00021684202 0.009113619 0.00042358847 -8.44236e-40 -5.10137e-40 -0.002174926
-8.43327e-40 2.52038e-40 -2.22502e-40 -0.007165704 -8.413567e-09 5.94408e-40 4.54165e-40 -0.0020419464
7.66048e-40 -1.02949e-40 7.73252e-40 -0.003278465 -0.002185712 4.64013e-40 -7.20242e-40 -2.232655e-08
-1.0766807e-06 1.0807788e-25 -3.26179e-40 0.010508089 2.3547114e-08 5.063e-41 -0.032557607 4.05829e-40
0.0059000654 -0.005860225 -0.012751274 -7.05872e-40 3.99622e-40 6.466375e-09 0.0064991117 -4.820668e-10
5.7627735e-06 4.87251e-40 -9.97196e-40 -2.4999e-40 6.27965e-40 -1.436e-42 -2.26441e-40 0.012236512
-1.2995587e-15 -0.0093572745 -4.16542e-40 -0.00010232477 8.80796e-40 4.68576e-40 -8.94386e-40 -0.011102124
3.5383414e-07 -4.64396e-40 -3.7936e-40 -0.0020545411 -0.0011667392 7.03205e-40 -0.0020093953 -0.011304734
-0.018837474 6.72241e-40 -9.35665e-10 9.287414e-09 0.00049869553 -0.023244059 -6.03441e-40 3.9099e-40
00000000: 9fbf 01bc 67a9 9e3c b6f0 0380 e633 0cb9
00000010: 089d 0980 df64 c7bb 6976 0780 c823 4e3b
00000020: 3219 0480 cd71 0800 c0ea 55b0 c7c9 0580
00000030: 9eae 043a b035 0000 cfdb 0900 e6a0 98b8
00000040: e23b 0b80 00c4 1eb8 5cb4 0800 06c2 0980
00000050: 700d c0bc 574e 0680 dcde 0080 1305 103b
00000060: 20ef 19bd 2755 0780 a292 0580 e6b0 90b7
00000070: 9ec4 13bd 9aca b3bc 987b 0200 94ba 0000
00000080: be05 d000 1006 723c 952a 0180 7aea 67bb
00000090: 429a 9cbc 5a38 76ac d355 ee2a 17bd 0780
000000a0: c6b1 5a3c 2564 28ba 2731 0300 2251 813c
000000b0: c5c2 b5bb 9d23 9abc 9bfa 0480 b036 debb
000000c0: 9533 0680 f5a3 6bbc 4976 0600 ad75 6f30
000000d0: 369a a9ba c1d2 0500 b0f3 0a00 36fb 0700
000000e0: 1f06 c33b 4cc7 49bc 7d11 8bba d208 fcbc
000000f0: b6bf 27bb 2918 0300 294a 0000 7c2d afbb
00000100: 0bd3 0980 ad32 0600 69f2 0100 579a fc3b
00000110: ab96 0136 3ce0 0400 d5d8 0680 64ce 5fbd
00000120: db97 0980 7a52 0480 df6b 0480 835c 5bbd
00000130: 347d 273a 7a11 0700 ffdc 0180 5410 09b8
00000140: 431e e4ba 2f9c 7db1 d708 0900 d8a4 0b3c
00000150: 0394 05b9 df42 0880 e099 babc 1ffa 0380
00000160: 1ad7 46bd 89bf 2b3c dc6c d1bc 54cf 0780
00000170: 8bd1 0700 5895 14b4 2e9c 30bd b1e0 8bb3
00000180: 9213 8ebb c9e3 0980 c946 d923 7090 0a80
00000190: 4172 88a8 ed61 e2a3 51f0 0480 8c6a 92bc
000001a0: 9cdf 6b36 3156 86bc ac70 0100 fdfd 843b
000001b0: 2f76 0980 600b 0a00 a383 0800 9483 b13b
000001c0: 76fb 0a3a 45b1 0100 a5d2 7923 9255 f3bc
000001d0: fee5 33bc f65c 5696 778c 4dbc 1a25 523b
000001e0: f0c0 15bd e55d 0500 8bbd 0db9 cb51 8cb8
000001f0: 7e2f 6abc 4426 1539 f8f2 0980 ea06 e88d
00000200: fce1 05bd 16d1 60bc 3c96 0280 878f 39b8
00000210: e3c6 0780 5469 3fbc 90c4 0200 c0b4 a8bb
00000220: ed9d 0200 fc41 0a00 4179 208d 5213 0980
00000230: 3269 bc39 4db3 0080 dac8 0680 53ec 9cb8
00000240: c464 0180 d4fd f8b5 78aa 0980 ec3b 0480
00000250: 6fcc 89bc d302 0180 aff9 0900 bc3c 3bbb
00000260: c834 d4bc ae69 0500 2588 0780 77e7 a7b1
00000270: e08f 5bbb dd1e e6ba ded7 0780 604a 0780
00000280: 703a 0500 a525 f6bc d4eb 0400 1cc0 c0b8
00000290: 7446 36bb d611 0400 3fb1 0700 5268 0880
000002a0: d298 a4bb 38d8 a9b9 9804 0400 6319 253b
000002b0: 61e6 d13b 1608 31bb b4ad 0480 dfca b9bb
000002c0: ac8d 0700 271b 3cbb f5a7 0380 58e7 9ea2
000002d0: 60b8 f4b5 65b4 0980 f416 0900 33b6 0300
000002e0: 75fe 55bc 5e88 a3bb 1660 6339 4a51 153c
000002f0: 1515 de39 6331 0980 0e8e 0580 3489 0ebb
00000300: da2e 0980 94be 0200 3f6c 0280 48ce eabb
00000310: 428b 10b2 f878 0600 07f2 0400 2dd2 05bb
00000320: 6e57 0800 fb1e 0180 836b 0800 84db 56bb
00000330: 2a3e 0fbb 7b0d 0500 bed7 0780 9ac8 bfb2
00000340: 7882 90b5 3fcb 0516 418d 0380 1f2a 2c3c
00000350: a744 ca32 238d 0000 205b 05bd 496b 0400
00000360: 5655 c13b 2107 c0bb b8ea 50bc afaf 0780
00000370: fc59 0400 d62e de31 80f6 d43b 6f82 04b0
00000380: d95d c136 424e 0500 c7db 0a80 dfb8 0280
00000390: 83d6 0600 0104 0080 3a77 0280 a77b 483c
000003a0: 4149 bba6 414f 19bc 2689 0480 3197 d6b8
000003b0: 4d97 0900 331a 0500 2fbd 0980 afe5 35bc
000003c0: 98f6 bd34 8c0e 0580 8021 0480 7ba5 06bb
000003d0: 45ed 98ba 40a8 0700 0fb0 03bb 7e37 39bc
000003e0: 0c51 9abc ef51 0700 c998 80b0 7b8e 1f32
000003f0: e4ba 023a 536a bebc 2692 0680 ec41 0400

lin1.bias f4 [128]
-0.0002341091 0.22782645 -0.30383453 -0.09770287 -0.20435745 0.00011246823 -0.41625392 -0.015967024
-0.01303819 -0.012429281 -0.2833204 -0.28549883 -0.00021540487 -0.028072843 -0.029036274 0.17420721
-0.037368074 -4.381408e-15 -9.846684e-17 -0.0002942636 0.5292449 -0.233923 -0.0041016177 -0.015760342
-0.33633876 -0.060922235 0.28161326 -1.3801738e-30 -0.014718578 -0.008407693 -0.011985381 -0.02745898
0.08784649 -0.000373649 -0.00209861 -0.00036097452 -0.00034834392 -0.025703952 -2.1112608e-07 0.07728141
-0.0023032972 -0.012029745 -0.0006298629 -0.005242761 -9.313517e-18 -5.4056633e-12 -0.009142509 -0.0155383395
-0.019046525 -1.141478e-06 -0.014273581 -0.36202997 0.0049813436 -0.04961176 -3.0957863e-25 0.15992506
-3.461542e-07 -0.033213746 -2.1003446e-08 -1.711475e-16 -0.1586743 -0.005467548 0.10679974 -0.25711584
-0.00020707611 -0.004144398 -0.00012689346 -0.024699619 -0.028358443 -1.2399488e-06 0.41195598 -0.012280775
0.34627938 -1.2145116e-16 -0.00074421195 -0.100962855 -6.8079084e-06 -0.0096099535 0.15695047 0.08291795
-0.3094757 -0.31576368 0.12850678 0.008732401 -4.142014e-10 -0.012729187 -0.18077108 -0.0017777835
-0.098038055 0.35319903 -2.6111476e-20 -0.00012656397 0.0027331677 -0.0001192542 -8.3639587e-29 -0.028312538
-2.9183306e-10 -0.024769656 -0.3276072 -0.002668529 -6.1474375e-06 -0.04128093 -0.27201447 0.26745126
-0.013811907 0.4556134 -8.281063e-06 0.307947 -0.00147423 0.4035116 -0.0021247608 -0.009592275
-0.010836864 -6.6613265e-10 0.15473802 0.1732169 0.32236806 -0.024426622 -0.00012326082 -1.7937243e-08
-0.14601575 0.43707997 0.34937337 -0.026287157 -0.0154671585 -2.1739611e-30 -0.028063538 -1.8717405e-16
00000000: 2f7b 75b9 564b 693e 3390 9bbe 7118 c8bd
00000010: 1443 51be ecdc eb38 3c1f d5be 47cd 82bc
00000020: 229e 55bc 2fa4 4bbc 5f0f 91be e72c 92be
00000030: 4ede 61b9 05f9 e5bc 7bdd edbc 6063 323e
00000040: 440f 19bd 5bdb 9da7 900c e3a4 6447 9ab9
00000050: 987c 073f 8389 6fbe dd66 86bb d51b 81bc
00000060: 9834 acbe 9889 79bd 9d2f 903e 2df2 df8d
00000070: 3126 71bc 6cc0 09bc 555e 44bc a8f1 e0bc
00000080: dce8 b33d 52e6 c3b9 d588 09bb 2e41 bdb9
00000090: eea1 b6b9 1891 d2bc e5b1 62b4 b745 9e3d
000000a0: eaf2 16bb 6818 45bc 621d 25ba 78cb abbb
000000b0: d7cd 2ba3 e331 beac 76ca 15bc 8594 7ebc
000000c0: 7507 9cbc e334 99b5 bddb 69bc fe5b b9be
000000d0: 8a3a a33b b335 4bbd b19e bf96 65c3 233e
000000e0: 12d7 b9b4 230b 08bd 116b b4b2 d351 45a5
000000f0: 847b 22be 1e29 b3bb d2b9 da3d b0a4 83be
00000100: 9222 59b9 bbcd 87bb b40e 05b9 db56 cabc
00000110: f74f e8bc 516c a6b5 e5eb d23e 4e35 49bc
00000120: 884b b13e 0e06 0ca5 3817 43ba 9dc5 cebd
00000130: 7d6f e4b6 1173 1dbc a0b7 203e e3d0 a93d
00000140: 9973 9ebe c7ab a1be 4897 033e 5812 0f3c
00000150: aab5 e3af 148e 50bc 0e1c 39be 8404 e9ba
00000160: 2dc8 c8bd 81d6 b43e ad9d f69e 42b6 04b9
00000170: f21e 333b 1c18 fab8 320d d490 b2ef e7bc
00000180: da6f a0af bce9 cabc 22bc a7be 7de2 2ebb
00000190: 1646 ceb6 3116 29bd 7b45 8bbe 5fef 883e
000001a0: 564b 62bc 2946 e93e e5ee 0ab7 3bab 9d3e
000001b0: f33a c1ba 1399 ce3e 923f 0bbb eb28 1dbc
000001c0: 1a8d 31bc eb1a 37b0 a573 1e3e c55f 313e
000001d0: 6d0d a53e 571a c8bc 933f 01b9 6a14 9ab2
000001e0: 2785 15be f2c8 df3e 11e1 b23e 2a58 d7bc
000001f0: f769 7dbc 685f 308e 81e5 e5bc 07cc 57a5

lin2.weight f4 [128, 128]
3.574091e-07 -4.039661e-05 -0.00030484976 -9.59468e-05 0.00056730234 5.1237278e-17 -0.00016816532 1.1997833e-13
0.0002480947 8.66734e-40 -0.000103563456 -0.000130694 2.6944205e-15 -9.197758e-05 1.8698282e-10 -5.656336e-07
-0.00015190286 3.98996e-40 9.560819e-30 1.3492769e-18 -0.00011659717 -2.0095153e-05 -5.58604e-40 1.0628539e-30
1.8012308e-05 3.7601642e-17 -0.00022986009 -5.35268e-40 6.9552324e-09 5.97144e-40 1.8366394e-06 -4.42415e-40
-7.740879e-08 1.3084467e-38 1.1045679e-06 -6.96433e-40 3.24168e-40 -2.1026959e-07 7.117185e-07 -4.6671237e-05
-9.520008e-16 8.858807e-05 -2.1380054e-06 1.9097558e-06 -6.927e-41 -3.22783e-40 -2.7257403e-07 4.6549015e-08
-1.98657e-08 1.601884e-14 -4.9300993e-12 -0.00019260326 -9.444271e-09 7.93768e-40 2.71768e-40 -7.1607988e-06
1.01408e-40 1.3693866e-06 3.0062905e-18 -0.0002533261 3.7045752e-06 -9.793569e-08 3.403435e-08 -6.585113e-06
-3.8628826e-11 3.857768e-14 -1.86708e-40 -1.1832292e-06 -1.5262673e-06 -5.31822e-40 -5.334876e-05 -3.894917e-23
-0.0001980216 -8.21569e-40 1.1516764e-09 -3.8553053e-06 -7.50855e-40 1.1321505e-05 -3.4635285e-08 -0.0001410897
-0.00018617026 -6.7848305e-10 -1.0692024e-05 -5.2149758e-06 -2.24082e-40 4.57907e-40 -0.0003849617 -2.5147958e-19
-1.9941352e-08 -9.784001e-05 -6.988251e-10 9.392964e-09 9.8750966e-11 -0.00018195176 -9.10019e-40 -6.0052e-40
-2.015e-41 2.157029e-09 -0.00038692396 0.00060669164 8.71424e-40 -9.365213e-06 0.00036731726 -1.2511846e-05
-2.794297e-17 2.7582958e-08 -6.1064163e-30 -0.00018064714 -8.4848595e-10 -0.00015544298 -2.4863553e-07 -3.3408477e-11
-4.38527e-05 -9.785643e-13 -3.864794e-06 -7.289821e-06 -5.619768e-08 -1.5694466e-05 4.9856153e-06 1.7996e-40
-6.074396e-06 -0.00031611967 -0.00010140083 -5.6659877e-07 4.59717e-40 -9.15683e-40 -9.193246e-05 -8.62344e-40
-3.949484e-11 0.09860975 -0.18241794 -0.15331043 -0.14694507 4.30943e-05 0.3235987 -1.6905387e-05
0.00036525028 -0.011647366 -0.18987387 -0.22204562 3.31222e-40 -0.117247485 -0.0010850314 0.0892368
-0.2506212 9.04042e-40 2.54612e-40 7.9381235e-19 -0.14050524 0.029517686 2.630448e-37 0.014573865
-0.17395632 0.009284763 0.029301122 4.903505e-39 -1.0851315e-05 1.5188862e-08 5.0873e-41 -7.1610956e-10
0.19394049 4.8027e-40 2.6012064e-12 3.2976293e-06 -3.94383e-40 -0.011788399 6.55946e-40 0.2860497
5.3853503e-33 -0.007474611 -9.314028e-11 0.008841357 5.34133e-40 -1.06792e-40 -0.014981568 -0.010875097
0.00033868031 1.3540498e-14 2.0191343e-20 -0.020737033 6.403329e-05 2.4366211e-09 -6.84498e-40 -0.047762256
-1.401151e-06 -0.02100259 1.40707e-40 6.01419e-40 0.085976094 0.0016771834 0.22288054 -0.027840745
-5.41599e-40 -0.0012990521 -4.120711e-11 3.802709e-10 -0.01951955 4.17387e-40 -0.06905925 2.3697396e-05
-0.087962724 7.84834e-40 -6.137543e-08 -0.01766622 2.70165e-40 0.023370514 -0.20839907 -0.16281442
-0.00057813217 0.12475935 0.049465295 0.055580355 -6.24832e-40 2.6534033e-05 -0.08678094 -0.015022852
-0.030912928 0.1377166 -6.20653e-40 -4.24655e-40 0.0007888151 6.591978e-17 8.28491e-40 -7.438989e-05
-6.19968e-40 0.214305 -0.026194667 2.0535289e-08 -2.3580854e-10 -0.02947805 -0.30359116 0.049929913
-0.0034915674 0.041532192 1.0869519e-08 -0.11137662 2.7588186e-17 0.1054519 0.010787851 0.031957306
-0.010473959 1.60203e-40 0.034785267 -0.0024412987 -0.06707514 0.012478944 -4.09709e-40 -3.15446e-40
0.033852927 0.25953132 -0.17415033 -0.0014086164 -1.8297492e-13 9.12097e-40 -0.06124677 8.9169e-41
00000000: efe1 bf34 886f 29b8 3ed4 9fb9 0c37 c9b8
00000010: 04b7 143a 4d4a 6c24 8955 30b9 6615 072a
00000020: b512 8239 1a70 0900 3530 d9b8 e70a 09b9
00000030: 4927 4227 16e4 c0b8 fc96 4d2f 0cd6 17b5
00000040: 1d48 1fb9 3d58 0400 9cea 410f 3d1e c721
00000050: a185 f4b8 0392 a8b7 2915 0680 3975 ac0d
00000060: 2319 9737 2f68 2d24 9906 71b9 1cd4 0580
00000070: dffa ee31 9880 0600 7382 f635 46d1 0480
00000080: ef3b a6b3 2c7a 8e00 aa40 9435 5f95 0780
00000090: a687 0300 77c6 61b4 ec0c 3f35 dcc0 43b8
000000a0: a132 89a6 5cc8 b938 a77a 0fb6 5b29 0036
000000b0: 19c1 0080 ca83 0380 4a56 92b4 2fed 4733
000000c0: 23a5 aab2 ee48 9028 6376 adac 8bf5 49b9
000000d0: 5840 22b2 b4a4 0800 94f5 0200 cb46 f0b6
000000e0: af1a 0100 c4cb b735 39d3 5d22 dbd0 84b9
000000f0: 1e9c 7836 b750 d2b3 2a2d 1233 b1f5 dcb6
00000100: 31e4 29ae 09bd 2d29 7708 0280 72cf 9eb5
00000110: 25da ccb5 81ca 0580 cbc2 5fb8 bd58 3c9a
00000120: 05a4 4fb9 33f2 0880 0349 9e30 d25c 81b6
00000130: 142d 0880 7ef1 3d37 e6c1 14b3 7af1 13b9
00000140: b336 43b9 0080 3ab0 e561 33b7 4dfc aeb6
00000150: a670 0280 75fc 0400 afd4 c9b9 8572 94a0
00000160: 7f4b abb2 752f cdb8 7217 40b0 b15e 2132
00000170: da27 d92e 4eca 3eb9 c3e8 0980 018a 0680
00000180: 2c38 0080 db3a 1431 0edc cab9 630a 1f3a
00000190: 2d7d 0900 491f 1db7 7d94 c039 f8e9 51b7
000001a0: 3cdd 00a4 91ef ec32 a7b4 f78e 196c 3db9
000001b0: e43a 69b0 68fe 22b9 357c 85b4 9aee 12ae
000001c0: 7aee 37b8 7fb8 89ab 54ae 81b6 169b f4b6
000001d0: 015e 71b3 9ca7 83b7 1c4a a736 a8f5 0100
000001e0: aad2 cbb6 ddbc a5b9 28a7 d4b8 5f18 18b5
000001f0: 8101 0500 8df8 0980 ddcb c0b8 dd63 0980
00000200: 3db3 2dae e9f3 c93d c5cb 3abe 69fd 1cbe
00000210: c578 16be 27c0 3438 bbae a53e 0bd0 8db7
00000220: 107f bf39 98d4 3ebc 4c6e 42be ed5f 63be
00000230: 509b 0300 731f f0bd 9d37 8eba c9c1 b63d
00000240: 6c51 80be 1ad8 0900 c1c5 0200 c44a 6a21
00000250: 9be0 0fbe 13cf f13c de04 b302 38c7 6e3c
00000260: 9b21 32be 1e1f 183c e808 f03c fa64 3500
00000270: 0b0e 36b7 a978 8232 d08d 0000 bbd7 44b0
00000280: 5698 463e cc3a 0500 2b0b 372c d74c 5d36
00000290: 614b 0480 2124 41bc 8324 0700 1b75 923e
000002a0: deb2 df09 95ed f4bb 51d1 ccae 57db 103c
000002b0: f2d0 0500 b129 0180 4075 75bc 762d 32bc
000002c0: e790 b139 86ec 7328 acb3 be1e b6e0 a9bc
000002d0: 9c49 8638 7e71 2731 1a74 0780 5ba2 43bd
000002e0: 2f0f bcb5 a00d acbc 3c88 0100 838c 0600
000002f0: 3c14 b03d f0d4 db3a cc3a 643e 4612 e4bc
00000300: c2e5 0580 f544 aaba 153b 35ae 5f0e d12f
00000310: 77e7 9fbc 818b 0400 f06e 8dbd c5c9 c637
00000320: cd25 b4bd cc8b 0800 80cd 83b3 c0b8 90bc
00000330: 1cf1 0200 8573 bf3c 9166 55be d3b8 26be
00000340: cb8d 17ba d581 ff3d 1f9c 4a3d 3aa8 633d
00000350: c7cd 0680 6795 de37 35ba b1bd 6922 76bc
00000360: 1c3d fdbc 9505 0d3e 21c2 0680 c49f 0480
00000370: 7cc8 4e3a 2c00 9824 7f05 0900 c501 9cb8
00000380: 38c0 0680 c572 5b3e 3396 d6bc 9465 b032
00000390: 1aa3 81af f47b f1bc 4d70 9bbe 4f83 4c3d
000003a0: c8d2 64bb a91d 2a3d a6bc 3a32 6d19 e4bd
000003b0: c374 fe23 2af7 d73d 87bf 303c aae5 023d
000003c0: f89a 2bbc 95be 0100 ff7a 0e3d 32fe 1fbb
000003d0: b15e 89bd 7c74 4c3c 1a76 0480 566f 0380
000003e0: 5ea9 0a3d 4ae1 843e 7754 32be 53a1 b8ba
000003f0: ee02 4eaa 8eee 0900 e5dd 7abd 91f8 0000

lin2.bias f4 [128]
-0.00064668676 0.13627398 -1.5079961e-25 0.003663928 -0.015560437 -0.014158873 0.06677745 0.09600107
0.5144026 -0.005826832 -0.043546766 -3.988322e-05 0.12572762 0.46403784 -0.0010423376 0.2597839
0.2792709 -1.8072369e-10 -0.034352716 -0.0057175453 -0.013394167 0.069726214 -0.007481325 -0.012020769
0.3285533 -0.0021790946 0.27674097 0.018182348 0.25601757 -0.0067178626 -3.242555e-25 -0.018834703
-0.0007435529 -0.014645219 0.39988545 -0.008677551 0.3608253 0.42282996 -5.038848e-08 -0.051581893
0.0033122434 0.010072666 -0.060330886 -7.5602126e-27 0.28412622 -2.8487786e-06 0.48086858 0.19191958
0.03423 -0.0005627315 -0.00028454344 -0.07147454 0.12536743 -0.01919992 -0.061602596 3.01373e-40
0.45535678 -0.02637758 -0.036579937 -0.0033860386 -0.0016809385 0.091317914 -0.014249915 0.49172202
0.029065652 0.05723598 -0.06816885 -0.008349111 -0.0017143392 -0.0002497374 0.013462743 -0.29945293
-0.024443446 -0.0007107303 0.3870549 0.1584442 -7.925848e-06 0.0032362926 -0.027162539 -0.0009317688
-0.000249507 -0.021428572 -0.0010770209 -4.6431643e-11 -0.00013195502 -0.011559171 -0.032861404 -0.00045688808
-1.2047136e-05 0.025082234 0.023080252 -0.019007266 -0.049886826 -1.03471356e-10 0.024055345 -0.0003556986
0.21851817 -0.0041629523 0.36210984 0.38436094 0.17247821 0.2522156 -0.012015001 -0.036883023
0.27027848 -0.050045516 -6.9760565e-05 -0.022403859 0.18711248 0.30000758 0.40344393 0.016703201
0.089696296 0.1000107 -4.6987567e-05 -3.7842271e-06 0.39791593 -1.2679011e-31 0.22455968 -0.028331913
-6.3719035e-08 -0.018019829 0.38882944 0.3713399 0.18644221 -2.1010015e-07 -0.002764742 -0.023817874
00000000: 6a86 29ba 688b 0b3e 4eae 3a96 831e 703b
00000010: 34f1 7ebc 9efa 67bc 9ec2 883d 369c c43d
00000020: e4af 033f 02ef bebb 185e 32bd 4848 27b8
00000030: bebe 003e 5e96 ed3e 0c9f 88ba 6502 853e
00000040: 98fc 8e3e 32b5 46af 6fb5 0cbd 3f5a bbbb
00000050: 3573 5bbc 9ecc 8e3d e725 f5bb c2f2 44bc
00000060: 2338 a83e 24cf 0ebb feb0 8d3e 26f3 943c
00000070: bc14 833e 8421 dcbb 56b4 c896 3c4b 9abc
00000080: feea 42ba 80f2 6fbc c9bd cc3e 492c 0ebc
00000090: 18be b83e 2b7d d83e b86a 58b3 8947 53bd
000000a0: 3912 593b d307 253c 851d 77bd d5be 1594
000000b0: fe78 913e a52d 3fb6 6834 f63e 9186 443e
000000c0: c234 0c3d 4684 13ba c62e 95b9 3e61 92bd
000000d0: 5260 003e 2749 9dbc 0153 7cbd 1b48 0300
000000e0: 8624 e93e cb15 d8bc d8d4 15bd 4de8 5dbb
000000f0: f052 dcba e304 bb3d 7a78 69bc fdc2 fb3e
00000100: 171b ee3c 4670 6a3d 1c9c 8bbd b6ca 08bc
00000110: aeb3 e0ba 30ef 82b9 d692 5c3c e551 99be
00000120: 9f3d c8bc 4e50 3aba 0f2c c63e 323f 223e
00000130: 42f9 04b7 fb17 543b f983 debc f241 74ba
00000140: 43d0 82b9 f98a afbc d32a 8dba 6235 4cae
00000150: 685d 0ab9 ad62 3dbc ae99 06bd 7b8a efb9
00000160: 0e1e 4ab7 4279 cd3c cc12 bd3c 20b5 9bbc
00000170: 2156 4cbd 3289 e3ae b70f c53c 0f7d bab9
00000180: 3ac3 5f3e 6069 88bb 7666 b93e f5ca c43e
00000190: 219e 303e 6722 813e 91da 44bc a712 17bd
000001a0: f161 8a3e 87fc 4cbd 6b4c 92b8 4c88 b7bc
000001b0: 6a9a 3f3e 989a 993e 3490 ce3e 27d5 883c
000001c0: b1b2 b73d 69d2 cc3d 8414 45b8 87f4 7db6
000001d0: a3bb cb3e 3e95 248c f9f2 653e 5418 e8bc
000001e0: e9d5 88b3 529e 93bc a714 c73e 4320 be3e
000001f0: b5ea 3e3e e497 61b4 ac30 35bb b41d c3bc
