Model/gcn_cwe_119_test_lr_0001_p5.pth (torch, 336281 bytes, 11 tensors)

initial_conv.bias f4 [128]
0	0x3c39b372	0.011334287
1	0xbe3dfb7f	-0.1855297
2	0xbe0562ba	-0.13025942
3	0x3ce136e7	0.027492
4	0xbdad359b	-0.0845749
5	0x3e32cd3a	0.174611
6	0x3eaef62b	0.34172186
7	0xbedcc266	-0.43117064
8	0xbd3c1ec8	-0.045927793
9	0xbe2800a4	-0.16406494
10	0x3ca24a3d	0.01981079
11	0xbd1e752e	-0.03868597
12	0xbc998217	-0.01873879
13	0x000203e1	1.85062e-40
14	0xbbfddbb0	-0.007747136
15	0x3dcb36da	0.099225715
16	0xbe1ff85f	-0.1562209
17	0xbdf1937f	-0.11795711
18	0xae985db0	-6.928802e-11
19	0xbe2427d8	-0.16030824
20	0x82dd679f	-3.2532507e-37
21	0xb76c6c01	-1.4091843e-05
22	0xbeda9933	-0.42695007
23	0xbb286c87	-0.0025699453
24	0x3e3673a6	0.17817554
25	0x3e516ab3	0.20450859
26	0xb86e5098	-5.681868e-05
27	0xbe22c347	-0.15894805
28	0x3d09ee54	0.033674553
29	0xbe1a976a	-0.15096822
30	0x3dcdfb1e	0.100576624
31	0x3e28ddbb	0.16490833
32	0xb621ee9a	-2.4129754e-06
33	0x3deedf84	0.11663726
34	0xbaa261b0	-0.0012388732
35	0x80061452	-5.58303e-40
36	0xbbe53356	-0.006994645
37	0x3e1f3a04	0.15549475
38	0xbb2fc60e	-0.002682093
39	0xbe4ac806	-0.19802865
40	0x3d9c2009	0.07623298
41	0x93aebefb	-4.4112096e-27
42	0x3ded079a	0.115737155
43	0xb696685e	-4.4824983e-06
44	0xbc893fa3	-0.016753977
45	0xbdc56751	-0.09638847
46	0x3cbffde9	0.023436503
47	0xbe3be5fa	-0.18349448
48	0xbe18168f	-0.14852355
49	0xbd146e68	-0.036238104
50	0xbd92f122	-0.07174899
51	0x3dea6344	0.11444715
52	0x929768d7	-9.555285e-28
53	0xbc8e879d	-0.01739865
54	0x3da6e40d	0.08148966
55	0x3d9e23f4	0.07721701
56	0x8003f32e	-3.62743e-40
57	0xbe0752c1	-0.13215162
58	0xba08e26b	-0.0005221727
59	0xb807f31c	-3.241292e-05
60	0x3d5e512a	0.054276623
61	0xbe5147ca	-0.20437542
62	0x3db3fdca	0.08788641
63	0xbe0a7f65	-0.1352516
64	0x3dac9b93	0.08428111
65	0xbb45047b	-0.0030062485
66	0x3e1b6084	0.15173537
67	0x3e30feb0	0.17284656
68	0x3d79fb8a	0.061030902
69	0x3df4caf9	0.119527765
70	0xbce26336	-0.027635198
71	0xbad625ed	-0.0016338207
72	0x3e653a9b	0.22385637
73	0x3d240612	0.04004485
74	0x3e948be0	0.29012966
75	0x8006fd4a	-6.41876e-40
76	0x3de43d77	0.11144536
77	0xbc11abf5	-0.008891095
78	0x3ddae577	0.10688298
79	0xbd55a707	-0.052161243
80	0x3d09042e	0.03345125
81	0xbc511ee0	-0.012763709
82	0x8ea07e12	-3.9564447e-30
83	0x3d8b01e3	0.06787469
84	0xbdfacc69	-0.122460194
85	0xb0d27e61	-1.531543e-09
86	0x3cb93158	0.022606537
87	0xbe2b104c	-0.16705436
88	0x3e5b5432	0.21418837
89	0x3e351556	0.1768392
90	0xbbafdb96	-0.005366753
91	0xbe15f067	-0.14642487
92	0x3da33068	0.07968217
93	0x3c9e9d07	0.019361986
94	0xbd440565	-0.047856707
95	0x3e384d00	0.17998123
96	0xbe2580b2	-0.16162375
97	0x3e91aaba	0.28450567
98	0x3ddd6657	0.108105354
99	0xbe2a0931	-0.16605069
100	0x3c915c3c	0.017744176
101	0x3e1d93b6	0.15388379
102	0xbe14f7f9	-0.14547719
103	0x3d61fd67	0.055173304
104	0x3e99a4b0	0.3000846
105	0x8005d5cf	-5.35878e-40
106	0xbdf8ec8e	-0.12154494
107	0xbda53c56	-0.08068149
108	0xbcd2fbfb	-0.02575492
109	0x3d718d1c	0.058972463
110	0xbc4c5354	-0.012471039
111	0x3d14a468	0.036289603
112	0x3e1d0d24	0.15337044
113	0x3ae86c56	0.0017732482
114	0xb3502a0f	-4.8467026e-08
115	0xbd887b73	-0.06664171
116	0xbba668b4	-0.0050783996
117	0xbddf9308	-0.10916716
118	0xbe5aeb6e	-0.21378872
119	0x3e24e762	0.1610389
120	0xbd9d7fa0	-0.07690358
121	0x3c396363	0.0113152
122	0x3e164ba3	0.1467729
123	0xbe26dd4c	-0.16295356
124	0xbe07e7b5	-0.13271983
125	0xbc986276	-0.018601637
126	0xbc390c44	-0.011294428
127	0xbdeac5fe	-0.11463545

initial_conv.lin.weight f4 [128, 2]
0	0x3d818c95	0.06325642
1	0xbeeebd61	-0.4662886
2	0x3d3670a7	0.044541027
3	0x3d75035a	0.05981765
4	0x3dc0bd9b	0.094111644
5	0xbeb5cdba	-0.3550852
6	0x3dac55d1	0.08414806
7	0xbe1dcb36	-0.1540955
8	0xbb909fed	-0.004413596
9	0x3ddb8449	0.10718591
10	0xb9307cb6	-0.00016831126
11	0xbbaff0a5	-0.0053692632
12	0x3c51e4cc	0.012810897
13	0xbe9f071c	-0.31060112
14	0x3db00c77	0.085961275
15	0xbe60f65d	-0.2196898
16	0x3d47d16e	0.048783712
17	0x3e14a1a6	0.14514789
18	0x3e239010	0.15972924
19	0xbd4a3c06	-0.04937365
20	0xbe13c499	-0.14430465
21	0x3dd204af	0.102547996
22	0x3dc5fac4	0.0966697
23	0xbe882f14	-0.26598418
24	0xbd04c39b	-0.032413106
25	0xbce56ea5	-0.028006861
26	0xaf11b7d4	-1.3252982e-10
27	0x8004ed66	-4.52504e-40
28	0xbc75ca0a	-0.015001783
29	0xbc2d39ac	-0.010572832
30	0xbe6e7c2d	-0.23289557
31	0x3e40c562	0.18825296
32	0x3e10be75	0.14135154
33	0xbd1d5799	-0.038413618
34	0x3d8f2dec	0.06991181
35	0xbe82674b	-0.2546943
36	0xbb9d238d	-0.0047954977
37	0xba724e59	-0.0009243242
38	0x3d43c08b	0.047791045
39	0xbecc6f15	-0.399285
40	0xa0234926	-1.383084e-19
41	0xa23d9cfa	-2.569738e-18
42	0xbb76d7f0	-0.003766533
43	0xb9380065	-0.00017547754
44	0x3ddc05db	0.10743304
45	0xbd2c668b	-0.04208998
46	0xbb5e269f	-0.0033897532
47	0xbc2d5ff1	-0.010581956
48	0xbe5ec59e	-0.21755072
49	0x3e44ce51	0.19219328
50	0xbdbd874e	-0.09254323
51	0x3da5cd07	0.080957465
52	0xba625be9	-0.00086349115
53	0xba7dd932	-0.00096835487
54	0x3e02cfe9	0.12774624
55	0x3cc9e13f	0.024643539
56	0xbe4bc0d3	-0.19897775
57	0x3e0d97e2	0.1382747
58	0x3de31ada	0.11089106
59	0x3d3c5bea	0.045986094
60	0x3dbd3903	0.0923939
61	0x3e44d2a0	0.19220972
62	0xbb762fd4	-0.003756513
63	0x3cc87ae0	0.024472654
64	0xbbe44471	-0.0069661667
65	0xb9d92b26	-0.00041421613
66	0x3d3f9256	0.046770416
67	0x3d848d6a	0.06472285
68	0xb9c422a1	-0.00037409834
69	0xbc0453d0	-0.008076623
70	0xb967ae6a	-0.00022094851
71	0xb833849f	-4.280044e-05
72	0xbb7a14aa	-0.003815929
73	0xbbc4b7a4	-0.006003337
74	0x3d101530	0.035176456
75	0xbd269c4d	-0.040676404
76	0xbd017585	-0.031606216
77	0xbc054fe9	-0.008136728
78	0x3d8a7bf3	0.06761923
79	0xbdc2ae36	-0.09505884
80	0xbcbcf378	-0.023065314
81	0x3d9f61d9	0.07782335
82	0xa7f6947d	-6.8439707e-15
83	0xa3c1f61f	-2.1029338e-17
84	0x3d25ee4f	0.040510472
85	0xbea535f6	-0.3226773
86	0xbbc77219	-0.0060865995
87	0xb81dcb67	-3.762115e-05
88	0xbc4d20e8	-0.0125200525
89	0xbbc69b53	-0.0060609966
90	0x3e21292f	0.15738367
91	0xbd67accb	-0.056561273
92	0xbe145396	-0.1448501
93	0x3dcf1e4e	0.10113202
94	0x3c068fdf	0.0082130125
95	0x3dc8a21f	0.09796547
96	0x3dc40be7	0.09572583
97	0x3d9c59d4	0.07634321
98	0xbce2654d	-0.027636195
99	0xbc322199	-0.010872268
100	0x3d75f6e9	0.060049925
101	0xbdc4031c	-0.095709056
102	0xbe57035b	-0.20997374
103	0x3e1c0ecd	0.15240021
104	0x9a83b914	-5.447934e-23
105	0x85fb5846	-2.3636353e-35
106	0xbc92db3d	-0.017926807
107	0xbd1e2c90	-0.038616717
108	0x3a7af4db	0.00095732295
109	0xbc5b1626	-0.01337198
110	0x3d3915a5	0.045186657
111	0xbefe9e40	-0.4973011
112	0xb246518a	-1.1543657e-08
113	0x10d7d02a	8.5123275e-29
114	0x3e09c106	0.13452539
115	0x3da4cb17	0.08046549
116	0xbbcdf8bf	-0.0062857564
117	0xbb2b7e55	-0.002616783
118	0xbbc430a8	-0.0059872456
119	0xba67f5e5	-0.0008848592
120	0xbc8698d9	-0.016430305
121	0x3db32d60	0.08748889
122	0x3e020197	0.12695919
123	0xbee1187c	-0.43963993
124	0x3d7bf272	0.06151051
125	0xbe68ad98	-0.22722471
126	0x3d15a03f	0.036529776
127	0x3dc9f1f2	0.098606005
128	0xbd107991	-0.035272185
129	0x3e29d7f1	0.16586281
130	0xbc9280ca	-0.017883677
131	0xbcb475a2	-0.022028748
132	0x3d562fde	0.052291743
133	0xbce15836	-0.027507883
134	0xbb1e0eb1	-0.0024117643
135	0xbdd5a874	-0.104325205
136	0x3d95df68	0.07318002
137	0x3d91bedd	0.071164824
138	0x3d042784	0.032264248
139	0xbec0d5ae	-0.37663025
140	0xbce5d06b	-0.028053483
141	0xbc84126f	-0.016122071
142	0x3d49b088	0.04924062
143	0xbeb86a40	-0.36018562
144	0xbdf80978	-0.12111181
145	0x3e02e192	0.12781361
146	0xbc7b244a	-0.015328476
147	0xbcdf98b4	-0.027294494
148	0x3c06cd4b	0.008227657
149	0xbe8423c6	-0.25808543
150	0xb0553751	-7.756756e-10
151	0x18a7c1d9	4.3364224e-24
152	0xbdea2a59	-0.114338584
153	0x3db4a7a6	0.08821039
154	0xbc2ce36b	-0.010552268
155	0xbc0fc16e	-0.008774145
156	0x3ddc2acb	0.107503496
157	0x3cbbc51e	0.022921141
158	0x3e0cb09c	0.13739246
159	0xbdfa4711	-0.12220586
160	0xbe081134	-0.13287812
161	0x3dd3beb6	0.103391096
162	0xbc9bcbf1	-0.019018145
163	0xbc8e652d	-0.017382229
164	0xb91363c0	-0.00014056172
165	0x00005a7b	3.2458e-41
166	0xbe38bed6	-0.18041548
167	0x3e198256	0.14991125
168	0x3de99dc9	0.11407048
169	0x3a96d383	0.0011507127
170	0xb0cd6af5	-1.4946112e-09
171	0x80060fa2	-5.56621e-40
172	0xbdc8c046	-0.09802298
173	0x3dacd103	0.08438303
174	0x3d59d0c2	0.053177603
175	0x3d15dc26	0.036586903
176	0xbe07842b	-0.13234012
177	0x3de6fbfe	0.112785324
178	0xbe22ff0f	-0.1591761
179	0x3e3204ee	0.17384693
180	0xbbb81d69	-0.0056187403
181	0xbc158f4d	-0.009128404
182	0x3cc2faf7	0.02380131
183	0x3d7d4fd5	0.061843712
184	0xbd04029b	-0.032229047
185	0x3e1e5a50	0.15464139
186	0xbc8f7563	-0.017512029
187	0x3dfcb34e	0.12338887
188	0x3e3a1168	0.18170702
189	0xbdf0fc35	-0.11766855
190	0xbe14c86a	-0.14529577
191	0x3e4b3156	0.19843039
192	0x3e21440d	0.15748616
193	0xbe75b764	-0.23995739
194	0xbcc6f055	-0.024284521
195	0xbeeffdcd	-0.46873322
196	0xbdea5588	-0.11442095
197	0x3db57023	0.08859279
198	0x3cef51eb	0.029213866
199	0x3d71a3d7	0.05899414
200	0xbe1173c2	-0.14204314
201	0x3e30c9ab	0.1726443
202	0x3d15ce68	0.036573797
203	0xbeba8d7e	-0.36436075
204	0x3c80978d	0.015697265
205	0x3d8f8fea	0.07009871
206	0x3d4e8a6c	0.050424978
207	0xbef58f8d	-0.47961083
208	0x3cd2211d	0.025650555
209	0xbea8477a	-0.32867032
210	0x9b93c3e7	-2.444571e-22
211	0x0003448f	3.001e-40
212	0x3e0d98a4	0.13827759
213	0x3dc329d8	0.095294654
214	0x3e0fead2	0.1405442
215	0x3db17c21	0.08666254
216	0x3dcaf49d	0.099099375
217	0xbdeb7665	-0.11497191
218	0xbe36d7b8	-0.17855728
219	0x3de33d71	0.110957034
220	0xbc7879a8	-0.015165724
221	0xbc93391b	-0.017971566
222	0xbdf3f1ab	-0.11911329
223	0x3d9ad042	0.07559253
224	0x3d1a9bc1	0.037746195
225	0xbe7540e4	-0.23950535
226	0xbda905fb	-0.08253094
227	0x3c4a8f6b	0.012363295
228	0xafaeb66e	-3.178004e-10
229	0xb227b55f	-9.761918e-09
230	0x3d5f6fb7	0.0545499
231	0xbda58cc4	-0.080834895
232	0x3dcfc415	0.101448216
233	0x3e10c099	0.1413597
234	0x3c5f503a	0.013629967
235	0x3d4b0ee5	0.04957475
236	0x3cecb5bb	0.02889525
237	0x3d70b163	0.05876292
238	0xb8d84070	-0.00010311685
239	0x3b134080	0.0022468865
240	0x3ca7cc93	0.02048329
241	0x3e61bb21	0.2204404
242	0xbc7912e1	-0.015202255
243	0xbd08ff64	-0.033446684
244	0x3c031bb6	0.008002212
245	0xbe05f8f3	-0.13083248
246	0x3c6c3914	0.014417905
247	0x3e0df549	0.138631
248	0x3dd61399	0.10452957
249	0x3cd28024	0.025695868
250	0xbca93680	-0.02065587
251	0xbc9cb837	-0.01913081
252	0xbccb8595	-0.02484397
253	0xbc659524	-0.014012609
254	0x3d063d8e	0.032773547
255	0xbeab0a6c	-0.3340639

conv1.bias f4 [128]
0	0xa9609d76	-4.9874567e-14
1	0xbe7e00b1	-0.24804951
2	0x9778f70a	-8.044493e-25
3	0xbc122151	-0.008919076
4	0x3e0a998a	0.13535133
5	0xbcb4a721	-0.02205235
6	0x3b29c0f6	0.0025902367
7	0x3dc59d24	0.09649113
8	0xb9a76dc0	-0.00031934492
9	0x3e13c319	0.14429893
10	0xbd370272	-0.044680066
11	0xbcd32a77	-0.025777085
12	0xbcc218cc	-0.023693465
13	0x3e0bb87d	0.13644595
14	0xbb481f85	-0.0030536365
15	0xbc79a4bb	-0.015237029
16	0xbd6d666b	-0.057959
17	0xb7523b8a	-1.2530838e-05
18	0x3d363b3c	0.044490084
19	0xbc17b92b	-0.009260456
20	0x3e1c32d6	0.15253767
21	0xbb8dacfb	-0.0043235994
22	0xbcf9c9ab	-0.03049167
23	0xbc05ac92	-0.00815882
24	0xb9194e24	-0.00014620327
25	0x3de64ce3	0.11245134
26	0x3e194187	0.14966403
27	0xbc30b19f	-0.010784536
28	0xbe21662a	-0.15761629
29	0x3dec6c56	0.11544101
30	0x3de9352d	0.113870956
31	0x0003f297	3.62531e-40
32	0xbc341968	-0.010992385
33	0x3894578d	7.0734975e-05
34	0x3de279a2	0.11058356
35	0xbe86b27e	-0.26308054
36	0x3e1ea441	0.15492345
37	0xbe9d67bf	-0.30743214
38	0x3e3f87d5	0.1870416
39	0x3c8fa0aa	0.017532665
40	0xbdaeed21	-0.085413225
41	0x3e15e8a8	0.14639533
42	0x3dc5f5e0	0.096660376
43	0xbde88ddd	-0.11355183
44	0x3d971488	0.07376963
45	0xbac5ba07	-0.0015085348
46	0x3de671c5	0.112521686
47	0x000378ea	3.18882e-40
48	0x9582c990	-5.282459e-26
49	0xbc974f9a	-0.018470574
50	0x8000c3e2	-7.027e-41
51	0x3dd0a8de	0.10188459
52	0xbaadfa43	-0.0013273436
53	0xbc1723bc	-0.009224828
54	0xbc26b457	-0.010174832
55	0xbda1cffa	-0.079009965
56	0x3e2fe530	0.17177272
57	0xbb94a287	-0.0045359763
58	0xbcaa839a	-0.020814706
59	0x3e020be5	0.1269985
60	0x3dc53cbb	0.09630724
61	0x3d1a21fa	0.03763006
62	0xbdb6a3e4	-0.089179784
63	0xbc53f522	-0.012936862
64	0xbcac1d56	-0.021010082
65	0xbe9fedc7	-0.31236097
66	0x3e294a5a	0.16532269
67	0xbdc595ad	-0.09647689
68	0xbdc2121e	-0.09476112
69	0xbc818493	-0.015810287
70	0xbe031702	-0.12801746
71	0xbd7d2e5a	-0.061811782
72	0xbdcb7d3d	-0.09935997
73	0x3dd2e765	0.10298041
74	0x3d9480fd	0.07251165
75	0x3d19d2b7	0.03755447
76	0xbc6cbc2b	-0.01444916
77	0x3d4aa726	0.04947581
78	0x3bcb165b	0.0061977333
79	0xbb8e79e3	-0.004348026
80	0x3df1bcba	0.11803575
81	0xbdc47ba3	-0.09593894
82	0xa74a100c	-2.804183e-15
83	0x91372310	-1.4446959e-28
84	0xbd0aa74d	-0.033850957
85	0xbd73b78d	-0.05950122
86	0xbddb5d85	-0.10711197
87	0x3e4020ff	0.18762587
88	0xbb8c2790	-0.004277177
89	0x3daadb29	0.08342583
90	0x3ccc67c0	0.024951816
91	0x000266fa	2.20612e-40
92	0xbbd6acca	-0.00655136
93	0xb844cf7f	-4.6923287e-05
94	0x3dae21b0	0.08502519
95	0x3e426df7	0.18987261
96	0xb5a0da1a	-1.1984405e-06
97	0xbd998e09	-0.07497794
98	0x3e4c3a7c	0.19944185
99	0x3e0f3e3d	0.13988586
100	0x3e0877c9	0.13326944
101	0x3c2247fa	0.009904856
102	0xbe0104db	-0.12599508
103	0xb692fe36	-4.380733e-06
104	0xbc8572b8	-0.016290054
105	0x3de9bf83	0.11413481
106	0x3d77e76e	0.060523443
107	0x3df6fe1d	0.12060187
108	0x3e0f79bc	0.14011282
109	0x0001407e	1.14971e-40
110	0xbdcc0ea4	-0.0996373
111	0xbb2876d1	-0.0025705586
112	0x3e3b1b34	0.18272096
113	0x3d6c2199	0.05764923
114	0xbbd125bd	-0.0063826726
115	0xbc9c1039	-0.019050704
116	0xbc2f3c07	-0.010695464
117	0x0000660a	3.6605e-41
118	0x3e27d690	0.16390443
119	0x3d1ccabc	0.03827928
120	0xbd8edd84	-0.069758445
121	0x3e18c707	0.14919673
122	0xbcb70cd1	-0.022344979
123	0xbd6b17bc	-0.05739568
124	0x3c41d0c6	0.011829561
125	0xb88513c9	-6.3456195e-05
126	0xbbd83030	-0.0065975413
127	0xae4629fc	-4.5057277e-11

conv1.lin.weight f4 [128, 128]
0	0x0002852c	2.31444e-40
1	0x800524bc	-4.72355e-40
2	0x0006957b	6.04636e-40
3	0x0004a1fe	4.25454e-40
4	0x8003ecb1	-3.60415e-40
5	0x800768be	-6.80423e-40
6	0x000840ad	7.57885e-40
7	0x8001e971	-1.75578e-40
8	0x8e6c2ce5	-2.9110862e-30
9	0x80042589	-3.80807e-40
10	0x8001f16e	-1.78444e-40
11	0x8006f85b	-6.40106e-40
12	0x00000efe	5.378e-42
13	0x8007b8f7	-7.09201e-40
14	0x00056fce	4.99285e-40
15	0x0539d09b	8.736973e-36
16	0x80066a12	-5.89064e-40
17	0x8006c3f9	-6.21315e-40
18	0x000672a6	5.92141e-40
19	0x000398e1	3.30349e-40
20	0x8005ef64	-5.45055e-40
21	0x80058c9d	-5.0962e-40
22	0x8007f875	-7.31978e-40
23	0x00033316	2.93833e-40
24	0x074f457a	1.5593366e-34
25	0x80049d3d	-4.23748e-40
26	0x800712dd	-6.49615e-40
27	0x0002cbaf	2.56739e-40
28	0x8000fe66	-9.1261e-41
29	0x8005c9f7	-5.31629e-40
30	0x9f907a54	-6.118875e-20
31	0x00066338	5.86606e-40
32	0x8003c80d	-3.47271e-40
33	0x8a8392c7	-1.2670053e-32
34	0x8003c691	-3.46739e-40
35	0x8005c592	-5.30052e-40
36	0x800593d3	-5.12207e-40
37	0x000440e5	3.90622e-40
38	0x80049818	-4.21903e-40
39	0x8007eee3	-7.28545e-40
40	0x8002aaea	-2.44983e-40
41	0x800428aa	-3.8193e-40
42	0x8004d435	-4.43468e-40
43	0x0006de75	6.30816e-40
44	0x8007275e	-6.56971e-40
45	0x00071a4e	6.52285e-40
46	0x8007101f	-6.48632e-40
47	0x8003e952	-3.59206e-40
48	0x8116f225	-2.772438e-38
49	0x800259b9	-2.15857e-40
50	0x8004f196	-4.54007e-40
51	0x8251dffc	-1.5419175e-37
52	0x00082ccd	7.50755e-40
53	0x80005b91	-3.2848e-41
54	0x800145ba	-1.16849e-40
55	0x80068998	-6.00372e-40
56	0x0004e97c	4.511e-40
57	0x80060c04	-5.55323e-40
58	0x8000618a	-3.499e-41
59	0x00005461	3.027e-41
60	0x8003e971	-3.5925e-40
61	0x8000b456	-6.4692e-41
62	0x00072dd8	6.59294e-40
63	0x07027390	9.814074e-35
64	0x94a0bf5c	-1.623135e-26
65	0x8000393f	-2.0536e-41
66	0x8004929c	-4.19936e-40
67	0x00038521	3.23264e-40
68	0x08cdb595	1.2380678e-33
69	0x8004045e	-3.68909e-40
70	0x0001978b	1.46199e-40
71	0x0004a836	4.27685e-40
72	0x00027045	2.23946e-40
73	0x80070564	-6.44782e-40
74	0x80021308	-1.90498e-40
75	0x8000e1c3	-8.0988e-41
76	0x000622fa	5.6356e-40
77	0x80014460	-1.16364e-40
78	0x00052d68	4.75466e-40
79	0x00042757	3.81454e-40
80	0x000453cb	3.97401e-40
81	0x00062c32	5.66867e-40
82	0x80079bad	-6.98694e-40
83	0x80009b9f	-5.5826e-41
84	0x80073f5d	-6.65579e-40
85	0x80058915	-5.08353e-40
86	0x8006e818	-6.34273e-40
87	0x000699e0	6.06213e-40
88	0x80025caa	-2.16913e-40
89	0x00013a26	1.12695e-40
90	0x80023a1d	-2.04518e-40
91	0x8004e1c0	-4.48326e-40
92	0x82d36d6b	-3.1066466e-37
93	0x006230af	9.017343e-39
94	0x800596a1	-5.13213e-40
95	0x00019e2a	1.48574e-40
96	0x00003dc3	2.2156e-41
97	0x80010de3	-9.6817e-41
98	0x0000df1d	8.0038e-41
99	0x8006df17	-6.31043e-40
100	0x069bc4bf	5.859361e-35
101	0x000145ea	1.16916e-40
102	0x800133ca	-1.10414e-40
103	0x80054514	-4.83958e-40
104	0x8006dddf	-6.30605e-40
105	0x80061525	-5.58598e-40
106	0x8c90d550	-2.2315096e-31
107	0x0003cf54	3.49882e-40
108	0x80019217	-1.44243e-40
109	0x8000619e	-3.5018e-41
110	0x0000dca0	7.9145e-41
111	0x000115d3	9.9665e-41
112	0x0007489f	6.689e-40
113	0x0003d4ec	3.51888e-40
114	0x800109dc	-9.5372e-41
115	0x80058b99	-5.09256e-40
116	0x9e086b80	-7.2220105e-21
117	0x00070015	6.42878e-40
118	0x00012e3d	1.08423e-40
119	0x80044d8d	-3.95162e-40
120	0x97d29cf0	-1.3610549e-24
121	0x800539ec	-4.79956e-40
122	0x0000e30f	8.1453e-41
123	0x8308c7bd	-4.0196096e-37
124	0x8369008e	-6.8473183e-37
125	0x0007946b	6.96091e-40
126	0x8005f085	-5.4546e-40
127	0x80043712	-3.87097e-40
128	0xbbc9fe96	-0.006164382
129	0x3c5ca77b	0.013467665
130	0xbdbf6f68	-0.09347421
131	0xbc26947a	-0.0101672355
132	0x3d9b184c	0.07572994
133	0xbea1ac10	-0.31576586
134	0xbe8d46eb	-0.2759317
135	0x3e3cf379	0.18452252
136	0x3d7444c6	0.0596359
137	0x3de3c95b	0.1112239
138	0xbd0999f9	-0.033594105
139	0x3b048d9f	0.0020226014
140	0x396026b6	0.00021376726
141	0x00058dcc	5.10045e-40
142	0x2c116c49	2.066585e-12
143	0x3df10f57	0.11770504
144	0x3df9990c	0.121873945
145	0xbc65fdf2	-0.014037596
146	0x8e5dd689	-2.7343648e-30
147	0xbd4c0644	-0.049810663
148	0x00003246	1.8035e-41
149	0x000444c3	3.92009e-40
150	0x3d9396c4	0.07206491
151	0x2e170a18	3.434239e-11
152	0x3d38ae12	0.04508788
153	0x3d1b4cad	0.03791492
154	0x0002ee52	2.69164e-40
155	0x3d5998c3	0.0531242
156	0xbdc9e61a	-0.098583415
157	0x3d8d7705	0.06907467
158	0xbe1c8fbe	-0.15289208
159	0xbe119ab6	-0.14219174
160	0x80e05844	-2.0602815e-38
161	0xbdcebedb	-0.100949965
162	0x2eb27874	8.1158996e-11
163	0x0005afb8	5.22213e-40
164	0x3b5d6cef	0.0033786853
165	0xbdb1b116	-0.086763546
166	0xa1017b5d	-4.387017e-19
167	0x3e0d8abf	0.13822459
168	0x3d194461	0.037418727
169	0x0005ebd4	5.43777e-40
170	0xbc0470f6	-0.008083573
171	0xae0e0842	-3.2294396e-11
172	0x3c566142	0.0130847115
173	0x3e26df31	0.16296078
174	0xbd3af947	-0.045647886
175	0xbd84d2f6	-0.0648555
176	0x3df7dbe5	0.121024884
177	0xbd2779c0	-0.040887594
178	0xbd2ef9ce	-0.0427187
179	0x3dd6a9a9	0.10481579
180	0x0003183d	2.84202e-40
181	0x3d0572c4	0.032580152
182	0x3d899eb2	0.06719722
183	0xbd0b3b5e	-0.033992164
184	0x00014ef7	1.20163e-40
185	0xbdaa4268	-0.08313447
186	0x00027378	2.25093e-40
187	0x80062f03	-5.67878e-40
188	0x3dc7589f	0.097337
189	0x3e26c41a	0.16285744
190	0x3da9c687	0.08289819
191	0xbd57bc09	-0.05266956
192	0x3e23f134	0.1600998
193	0xbbe5021b	-0.0069887764
194	0xbce2445f	-0.027620493
195	0xbedee146	-0.43531245
196	0x3c7d9518	0.015477441
197	0xbc9fd86d	-0.01951238
198	0xbbcf18b2	-0.0063200826
199	0x3ca122ae	0.019669857
200	0xbc0bbbef	-0.008528694
201	0xbd048a5c	-0.032358512
202	0xbe9bf374	-0.30459177
203	0x800702ad	-6.43808e-40
204	0xbdee1341	-0.11624766
205	0x2cb4f7e1	5.143428e-12
206	0xbd715d65	-0.05892696
207	0x3d1ae469	0.037815485
208	0x3e1cb750	0.15304303
209	0x39ecb1d5	0.00045145923
210	0x80044839	-3.9325e-40
211	0x3e19ef1c	0.15032619
212	0x3e057989	0.13034643
213	0x00036384	3.11206e-40
214	0x3e33ab73	0.17545871
215	0xbd8a4210	-0.06750882
216	0xbd5f8ebe	-0.05457949
217	0x3c0e3245	0.008678977
218	0x395692f0	0.00020463369
219	0x3e069a80	0.13144875
220	0x3d7d20b8	0.06179878
221	0x3e004787	0.12527286
222	0xbdedf717	-0.11619394
223	0xbe131af3	-0.14365749
224	0x3dbfce12	0.09365477
225	0xba8c4239	-0.0010700888
226	0xbdd20341	-0.10254527
227	0xbd6af657	-0.057363834
228	0x3e19f131	0.15033413
229	0xbe126a55	-0.14298375
230	0x3e2f7ee2	0.17138246
231	0x3db6ca6f	0.0892533
232	0xbe184906	-0.14871606
233	0x80068842	-5.99893e-40
234	0x3dbfb1d8	0.09360093
235	0xbd59f57a	-0.05321262
236	0xbcf9ab73	-0.030477261
237	0xbd0e3b58	-0.034724563
238	0xba05b52b	-0.00051005435
239	0xbd78885c	-0.060676917
240	0x3d377807	0.0447922
241	0xbba6a318	-0.0050853603
242	0x0002569c	2.1474e-40
243	0x3e18f798	0.149382
244	0x3d2e1266	0.042498015
245	0x3d6dbf0d	0.05804353
246	0x3bd2235c	0.0064129066
247	0xbe5c4a0c	-0.21512622
248	0xbc7586a0	-0.01498571
249	0xb3105bc5	-3.3611077e-08
250	0xbdd4f834	-0.103989035
251	0x3e044e95	0.12920602
252	0xbbd1ddff	-0.006404638
253	0xbb47d2d3	-0.0030490651
254	0x397d1b5c	0.00024138152
255	0x3ccf6235	0.025315383

conv2.bias f4 [128]
0	0xbb1e2005	-0.0024127972
1	0xbd023631	-0.031789962
2	0x3db804cc	0.0898529
3	0x3d637d36	0.055539332
4	0xbd008ab1	-0.031382266
5	0x3da19440	0.078896046
6	0x80034172	-2.98984e-40
7	0x3d17f554	0.037099198
8	0xba0f215c	-0.0005459988
9	0x3da7782b	0.08177217
10	0xbc871e86	-0.016494047
11	0xbcd6ef16	-0.026237052
12	0x3d3fdb80	0.04684019
13	0xbad4950d	-0.0016218737
14	0xbbb827c7	-0.005619976
15	0x3d1f1417	0.03883752
16	0x3d770d1b	0.060315233
17	0x3d81fe32	0.06347312
18	0xbb438d24	-0.0029838765
19	0xb48b8bec	-2.5992574e-07
20	0x3d3834a6	0.044972084
21	0x937eb8a9	-3.2150352e-27
22	0xbc0fe6d3	-0.00878306
23	0xbca5826c	-0.020203792
24	0xbd9e838a	-0.07739933
25	0xb82b405d	-4.082952e-05
26	0xb941028e	-0.00018406866
27	0x3d2556a2	0.040365823
28	0x3dcc00f6	0.09961121
29	0xbd707702	-0.058707245
30	0xbb348b7a	-0.0027548955
31	0xbcf68b53	-0.030095732
32	0x3d17fe4f	0.037107762
33	0x3e025136	0.12726292
34	0xba18f5e5	-0.0005834981
35	0x3d5ab83f	0.053398367
36	0xbc41c719	-0.011827254
37	0x3d5ec6cd	0.05438881
38	0xbc849dba	-0.016188491
39	0xab470f4d	-7.0720236e-13
40	0x3e667d9c	0.22508854
41	0x3d8668e6	0.065629765
42	0xbbcf7950	-0.0063316002
43	0x3d6b5570	0.057454526
44	0x3d645377	0.05574366
45	0xbc15e92c	-0.009149831
46	0xbc96ca61	-0.018407049
47	0x3d244bce	0.040111355
48	0x3de23d73	0.11046877
49	0xbacdfc9b	-0.0015715541
50	0xbd107370	-0.03526634
51	0x3dc1952a	0.09452279
52	0xbc6a1827	-0.014287985
53	0x3d3fea91	0.04685456
54	0x3da4a8eb	0.08040031
55	0xb2de6733	-2.5891131e-08
56	0x3dccee9d	0.10006449
57	0x3d862a9f	0.06551098
58	0x3cc85b30	0.024457544
59	0xbd0a94f6	-0.033833466
60	0xbc8d0ea2	-0.017218892
61	0x3a8f37e8	0.0010926696
62	0xbd1f68b5	-0.038918216
63	0x3db81eed	0.089902736
64	0x3d8b734c	0.068091005
65	0xbb730305	-0.0037080657
66	0xbd06cad0	-0.03290826
67	0x3d20783d	0.03917717
68	0xbc01e2cb	-0.007927607
69	0x3d6829c9	0.056680474
70	0x39dc5f6e	0.0004203277
71	0xbdb158b3	-0.08659496
72	0x3d4287cc	0.047492787
73	0x3d8d95de	0.069133505
74	0xb8b07c2e	-8.415464e-05
75	0x3e2e5976	0.17026314
76	0x3d4675fa	0.048452355
77	0xba72bd0c	-0.00092597376
78	0x3d2873a6	0.041125916
79	0x3da0dbc1	0.07854415
80	0x3e283797	0.16427456
81	0x3a9cb2fe	0.0011955199
82	0xbc4852c0	-0.01222676
83	0x3d6bf4ee	0.05760663
84	0x3ccc10c9	0.024910348
85	0x3d81a6ef	0.06330668
86	0xba744bfc	-0.0009319184
87	0x3dc19e86	0.09454064
88	0x3e05f9af	0.13083528
89	0xbc2614c3	-0.010136786
90	0x3e0fc733	0.14040832
91	0x9c1273e8	-4.8457153e-22
92	0xbc950fad	-0.018195951
93	0x3d2a2109	0.04153541
94	0x3d203a73	0.03911824
95	0xb45392ee	-1.9704359e-07
96	0xbbec40b9	-0.007209864
97	0xbd76f363	-0.060290705
98	0x3d7ea205	0.062166233
99	0xb9c49f5b	-0.00037502762
100	0x3da03a6d	0.07823644
101	0x3d94896d	0.072527744
102	0xb9e03177	-0.00042761464
103	0xbdd135b2	-0.1021532
104	0xbb5faa62	-0.0034128656
105	0x3d449571	0.04799408
106	0xbbe21c2e	-0.006900332
107	0x3d52275f	0.05130708
108	0xbc9b8f98	-0.01898937
109	0xbc3a72ea	-0.011379937
110	0x3c335cd9	0.01094743
111	0xbd9ebce0	-0.07750869
112	0x3da5c2ff	0.08093833
113	0xbc37c6ec	-0.01121686
114	0xbc56836f	-0.01309286
115	0xbcf0baa2	-0.029385868
116	0x3dd7862c	0.10523638
117	0x3c2022ef	0.009773954
118	0x3d59a806	0.053138755
119	0x3d20074e	0.039069466
120	0x3cf88a37	0.030339343
121	0xba347f1f	-0.00068853976
122	0x3dd9a4c5	0.106271304
123	0x3c6ac2e8	0.014328696
124	0x3e1ddcd6	0.15416273
125	0x3d31aaa6	0.043375634
126	0xb6053d34	-1.985417e-06
127	0xbc050ba6	-0.008120453

conv2.lin.weight f4 [128, 128]
0	0x8002fc58	-2.74195e-40
1	0x3d46ee0c	0.048566863
2	0x8005ad75	-5.21402e-40
3	0xbc6ede34	-0.014579345
4	0xbe44b779	-0.19210614
5	0x3b85d37b	0.0040840483
6	0x3d723a81	0.059137825
7	0xbda250ae	-0.07925545
8	0x0004bee9	4.35828e-40
9	0x3de96603	0.1139641
10	0xbe0f61f8	-0.14002216
11	0x3cb452d3	0.02201215
12	0xbc93ad22	-0.018026892
13	0xbde2cb30	-0.11073911
14	0x3bd2624a	0.0064204084
15	0xbc19bd0a	-0.009383449
16	0x3db58e2f	0.0886501
17	0x0001199e	1.01025e-40
18	0x3e09ede0	0.13469648
19	0xbcb9596f	-0.022625653
20	0xbd8bf800	-0.068344116
21	0x3dbd6163	0.09247091
22	0xbdb6cb0a	-0.089254454
23	0x3da997e0	0.08280921
24	0xb8ac1939	-8.206297e-05
25	0xbd871f86	-0.065978095
26	0xbd8267cb	-0.06367453
27	0xb57d65b7	-9.439786e-07
28	0x3c6b0335	0.014344026
29	0xbe5f9676	-0.2183474
30	0x3dfe19c0	0.12407255
31	0x800431c4	-3.85195e-40
32	0x3d88179f	0.0664513
33	0x3af63c31	0.0018786249
34	0xbe3e0a05	-0.1855851
35	0xbe22c921	-0.15897037
36	0x3e18d0f7	0.14923464
37	0x3df356bf	0.1188178
38	0x3d7d16a8	0.061789185
39	0x3deaea6e	0.11470495
40	0x3d9122a7	0.070866875
41	0xbe54bd16	-0.20775256
42	0x3c8222b0	0.01588568
43	0x3dd5fe4a	0.104488924
44	0x3d3ac465	0.045597453
45	0x38774f96	5.896351e-05
46	0xbd348597	-0.044072714
47	0x800335be	-2.94786e-40
48	0x1904bc56	6.862274e-24
49	0x3cac2dcb	0.02101793
50	0x38166c47	3.5863628e-05
51	0x3c43e896	0.011957308
52	0x3d1424b4	0.036167815
53	0xbb65f8ed	-0.0035090998
54	0xbcfb1301	-0.03064871
55	0x3cb6d4c8	0.022318259
56	0x3b3923b5	0.0028250043
57	0x24807d3c	5.5723307e-17
58	0xbd392dda	-0.045209743
59	0xbc613c89	-0.013747343
60	0x3dccda77	0.10002606
61	0x3cd42ee5	0.025901267
62	0xbe162328	-0.14661849
63	0xbc954b94	-0.018224515
64	0x3a277880	0.00063885003
65	0xbe0426a5	-0.12905367
66	0xbdf1a3fc	-0.11798856
67	0xbdcbd73b	-0.09953161
68	0x3d2a5095	0.041580755
69	0x2c2b8602	2.437495e-12
70	0x3d16a1ac	0.036775276
71	0xbd00baf5	-0.031428296
72	0x3d47d4f4	0.048787072
73	0xbdd06473	-0.10175409
74	0xbd90fc46	-0.07079367
75	0x3e01ad4e	0.12663767
76	0x39998601	0.00029282275
77	0x3daf7e75	0.08569042
78	0xbc43587f	-0.011922955
79	0xb9dbda1b	-0.00041933436
80	0x3d5dba17	0.054132547
81	0xbcafe967	-0.0214736
82	0x8004f6b8	-4.55848e-40
83	0x00011ce8	1.02205e-40
84	0xbcb9a0e9	-0.022659736
85	0xbdff1a72	-0.12456216
86	0xbe06994b	-0.13144414
87	0x3d628208	0.05529979
88	0xaf8dba24	-2.5780011e-10
89	0xbddd8a85	-0.10817436
90	0x3dc9880e	0.098404035
91	0xa16bc855	-7.9886234e-19
92	0xbbafce69	-0.005365182
93	0x3712b5a7	8.744572e-06
94	0xbc0b9c29	-0.008521118
95	0x3d2d2cb1	0.04227895
96	0x8002ca96	-2.56345e-40
97	0xbd1b1c27	-0.037868645
98	0xb98e90a3	-0.00027192113
99	0x3dc549f7	0.09633248
100	0xbe3c3cf7	-0.18382631
101	0xbdfc5976	-0.12321751
102	0xbda5ac13	-0.08089461
103	0xbb138313	-0.0022508546
104	0xbd073aed	-0.03301518
105	0xbdf12708	-0.11775023
106	0xbd34f57b	-0.04417942
107	0xbd8f16b7	-0.069867544
108	0x3d5d6e16	0.054060064
109	0x8002c1c3	-2.5318e-40
110	0xbddfd05d	-0.10928414
111	0xb8744cfb	-5.8245827e-05
112	0x3de29676	0.110638544
113	0x3df854f1	0.12125576
114	0xbc1389ef	-0.009005054
115	0xb7153245	-8.892796e-06
116	0xbc5fa3a2	-0.013649853
117	0x800318b2	-2.84365e-40
118	0x3d949a95	0.07256047
119	0xbd9bd53c	-0.076090306
120	0x3d6462f0	0.055758417
121	0xbdffedfc	-0.12496564
122	0x3c658b0b	0.014010201
123	0x3b8c740c	0.004286295
124	0x3c297a09	0.010344037
125	0x3adbda2a	0.0016773392
126	0x3b1c6382	0.0023863022
127	0x0000af60	6.2913e-41
128	0x00026d50	2.22885e-40
129	0xbd56fcf9	-0.052487347
130	0x0002505e	2.12501e-40
131	0x000155f5	1.22671e-40
132	0xbc2b99fe	-0.010473726
133	0x0000c73e	7.1475e-41
134	0x3d210857	0.039314594
135	0xbc0ec621	-0.00871423
136	0x00054198	4.82708e-40
137	0xbe0db57a	-0.13838759
138	0x3d9dd470	0.07706535
139	0x00037bdb	3.19937e-40
140	0x8000b5ab	-6.517e-41
141	0xbcf2475e	-0.029575046
142	0x000003a6	1.309e-42
143	0x000169dc	1.2981e-40
144	0xbcd79798	-0.026317403
145	0x0006f9c7	6.40616e-40
146	0x3db55d64	0.088557035
147	0x3d26189f	0.040550824
148	0xb78b6714	-1.661809e-05
149	0x3c4d74ad	0.012540025
150	0xbda4b37f	-0.08042049
151	0xbc51dab7	-0.012808493
152	0x8000f4c7	-8.781e-41
153	0x3c2e97ce	0.01065631
154	0xbb6662d4	-0.003515412
155	0x000367e2	3.12773e-40
156	0xbd32a13f	-0.043610808
157	0x3c6ecbcd	0.014574957
158	0x3aa2609f	0.0012388414
159	0x8002e59f	-2.66044e-40
160	0xbafcf81e	-0.0019300019
161	0x80022514	-1.96972e-40
162	0xbbe4387e	-0.006964742
163	0xbd1148e4	-0.035469905
164	0x3b8707b0	0.0041207895
165	0xbdb6196f	-0.0889157
166	0xbc92502e	-0.017860498
167	0xbd507af3	-0.050898504
168	0xbdef6289	-0.11688716
169	0x3be78ec4	0.0070665795
170	0xbdc7ba60	-0.09752345
171	0xbccc6d5e	-0.024954494
172	0xbcdf7437	-0.027277095
173	0x0000c5b0	7.0917e-41
174	0xbd9d8a45	-0.076923884
175	0x0005501d	4.87917e-40
176	0x00018382	1.39012e-40
177	0x00045f1a	4.01458e-40
178	0x0000d8dc	7.7794e-41
179	0xbdbf8d49	-0.0935312
180	0x3d58ab0b	0.052897494
181	0x80074d4a	-6.70575e-40
182	0x0006166c	5.59056e-40
183	0xbd8705d4	-0.065929085
184	0x3da79cd2	0.08184208
185	0x8005bd5c	-5.27107e-40
186	0x3cc3df45	0.023910174
187	0x3da898c9	0.082322665
188	0xbdf48790	-0.11939919
189	0xbd17c2ba	-0.03705094
190	0x3da9d248	0.08292061
191	0x3bc2043e	0.005920916
192	0x0003e6ec	3.58346e-40
193	0x3dc14899	0.09437675
194	0xbce00fe8	-0.027351335
195	0xbd902cd0	-0.07039797
196	0xbc5ed0c3	-0.013599577
197	0x8006d547	-6.27522e-40
198	0xbc81da29	-0.015851097
199	0x3c1eec3c	0.009699877
200	0xbdc3d847	-0.09562736
201	0xbbc91912	-0.006137022
202	0xbda19157	-0.078890495
203	0xbe070262	-0.13184503
204	0x000503e3	4.60572e-40
205	0xbdb8aec0	-0.09017706
206	0xbdf10531	-0.11768568
207	0x0001fdaa	1.82833e-40
208	0xbbce06fc	-0.0062874537
209	0x3daf6691	0.08564485
210	0x00027153	2.24324e-40
211	0x8005eb4c	-5.43586e-40
212	0xb9c64eff	-0.0003782436
213	0xb9f449e8	-0.0004659437
214	0x3d2f2689	0.04276136
215	0xbd4b433b	-0.049624663
216	0x80065e3a	-5.84815e-40
217	0xbda7302c	-0.08163485
218	0xbdb6e006	-0.08929448
219	0xa9843da3	-5.87267e-14
220	0x80058b61	-5.09177e-40
221	0x00015747	1.23145e-40
222	0xbc9d8710	-0.019229442
223	0x3dfa15f1	0.12211216
224	0x8006c866	-6.22902e-40
225	0x3aea3821	0.0017869511
226	0xbd3a3c64	-0.04546775
227	0x3d2b85b9	0.041875575
228	0xb920eff1	-0.00015348174
229	0xbda4e1fa	-0.08050914
230	0xbdd7ec29	-0.10543091
231	0x00002b01	1.5427e-41
232	0xbd1bcc9d	-0.03803693
233	0xb95e0e04	-0.00021176791
234	0x3792f3a4	1.751801e-05
235	0x3cafe54d	0.021471644
236	0xbc9b411f	-0.01895195
237	0x0006cb83	6.24019e-40
238	0x3d338c17	0.043834772
239	0x8007d098	-7.17678e-40
240	0xbd2906fd	-0.04126643
241	0x3ce5f912	0.028072868
242	0x800052e7	-2.974e-41
243	0x00007a5b	4.3893e-41
244	0x800448f2	-3.9351e-40
245	0x8000ef1c	-8.5776e-41
246	0xbcf806b3	-0.030276632
247	0xba714c83	-0.00092048215
248	0x3d48b4dd	0.04900061
249	0xbaf23512	-0.0018478951
250	0x80064fd8	-5.79656e-40
251	0x3d8a6cf8	0.067590654
252	0xbdc5af6d	-0.096526004
253	0xbac844d2	-0.0015279299
254	0x00016ed2	1.3159e-40
255	0x800481d2	-4.13913e-40

lin1.weight f4 [128, 256]
0	0x3c1bb406	0.00950337
1	0x3d519562	0.051167853
2	0x3daa47fc	0.08314511
3	0xbd94baa4	-0.072621614
4	0x3c8cbbd1	0.017179402
5	0x3cbf6279	0.023362385
6	0x000367f0	3.12792e-40
7	0x3c8e9ee8	0.017409757
8	0xb8d12297	-9.9723395e-05
9	0x3d8d9036	0.06912272
10	0xbc9bb3cc	-0.019006632
11	0x3a9e48e4	0.0012076166
12	0x3c95f691	0.018306049
13	0xbb2d9800	-0.0026488304
14	0xbbfb6859	-0.0076723513
15	0x3d0fb29c	0.035082445
16	0x3cfff183	0.031243091
17	0x3ca16780	0.019702673
18	0x80004898	-2.6042e-41
19	0x00032588	2.8897e-40
20	0xbbd9db22	-0.006648437
21	0x800752ed	-6.72597e-40
22	0xb56a4b49	-8.728135e-07
23	0x3cfae04b	0.03062453
24	0xbd7a5520	-0.061116338
25	0xb963e90f	-0.00021735228
26	0x80063461	-5.69803e-40
27	0xbcc365c0	-0.02385223
28	0xbdd7f208	-0.10544211
29	0xbdf2cf73	-0.11855974
30	0x3c7d2879	0.015451544
31	0xba1c2ac2	-0.0005957299
32	0xbe208564	-0.15675884
33	0x3d3c5d24	0.045987263
34	0x1212391c	4.613987e-28
35	0xbd44ffe8	-0.048095614
36	0xbd39897f	-0.045297142
37	0xbdf961d3	-0.121768616
38	0x3bc3bc40	0.005973369
39	0x80040443	-3.68871e-40
40	0x3cb2a128	0.02180536
41	0x3d93e0d8	0.0722062
42	0x3bf67bfd	0.007522105
43	0x3d4f3d28	0.050595433
44	0xbb1d7b00	-0.0024029613
45	0xbcde1f83	-0.027114635
46	0x3be4a024	0.006977098
47	0x3c52e7db	0.012872661
48	0x3d1f7d90	0.038938105
49	0xbcc426fe	-0.023944374
50	0xbd822068	-0.06353837
51	0x3d5448fc	0.051827416
52	0xbe2bdb8f	-0.16782974
53	0xbc4d1207	-0.012516505
54	0x3dae71e8	0.0851782
55	0x00048114	4.13646e-40
56	0xbc9dc84e	-0.019260552
57	0x3bb20415	0.0054326155
58	0x3cc60f40	0.024177194
59	0xbce3f6fc	-0.027827732
60	0xbd629e55	-0.05532678
61	0xbc4dce70	-0.012561426
62	0x3c02c2d5	0.007981022
63	0xbc123f9b	-0.008926298
64	0x3dc966fa	0.09834094
65	0x3c023922	0.007948192
66	0x3a355ed7	0.0006918734
67	0x3ccbff23	0.024901932
68	0xbd254b86	-0.040355228
69	0x3d04ec46	0.03245189
70	0x3aa8cc4b	0.0012878267
71	0xbca8a1e6	-0.020585012
72	0x3c0addd1	0.008475737
73	0xbd14dc25	-0.03634276
74	0xac0fd9e7	-2.0442482e-12
75	0xbd76d86c	-0.06026499
76	0x3c358510	0.011079088
77	0xbb414e2b	-0.0029496055
78	0xbdcdb607	-0.100444846
79	0x3d9d1844	0.07670644
80	0xbd587bb0	-0.052852333
81	0x3c264d41	0.010150255
82	0x3a271510	0.0006373683
83	0x3cbd1b0f	0.023084192
84	0xbd4ea47f	-0.050449844
85	0x3d131e20	0.0359174
86	0x3bc960ca	0.0061455714
87	0x3c1ddfaf	0.00963585
88	0xbd6dfabd	-0.05810045
89	0x3d0bd0a7	0.034134533
90	0xbd22b8ab	-0.039726894
91	0x9a49612f	-4.164433e-23
92	0x3cb46a06	0.022023212
93	0xbc302308	-0.01075054
94	0xbd6eb741	-0.058280233
95	0x1a6cb5b5	4.8950438e-23
96	0xbd0eac2f	-0.034832176
97	0x3bbcaa0b	0.0057575754
98	0x3dc312f2	0.09525098
99	0x00047153	4.07995e-40
100	0x3a4e4f9d	0.00078701397
101	0x3caa541a	0.020792056
102	0xb3947af2	-6.914151e-08
103	0xbcc25936	-0.02372418
104	0x3cc7362f	0.024317829
105	0xbc95b5e1	-0.018275203
106	0xbac1c573	-0.0014783576
107	0x3d14f6de	0.036368243
108	0xbb92a057	-0.0044746804
109	0x39e91d3b	0.00044463002
110	0x3b49c2c4	0.0030786255
111	0xbce481d1	-0.027893933
112	0x3c14f7ca	0.009092281
113	0xb9d6c931	-0.0004096716
114	0x3c26c9df	0.010179966
115	0xbd3bcd9e	-0.04585039
116	0xbd25b86d	-0.040459085
117	0xbdbb69b0	-0.09151018
118	0xbd40d2cb	-0.047076028
119	0x3cbae093	0.022812163
120	0xbd7a74c4	-0.061146513
121	0x393e87b5	0.00018170367
122	0x3a975104	0.001154453
123	0x3a865848	0.0010249699
124	0xbd50aa3f	-0.05094361
125	0x3bacbff5	0.0052719065
126	0x800527f2	-4.73507e-40
127	0x39d4b158	0.00040567922
128	0xbc873534	-0.016504861
129	0xbc09ea05	-0.008417611
130	0x3d0bf510	0.034169257
131	0x3d2e72cf	0.04258996
132	0x3c565906	0.013082748
133	0xbda500fe	-0.0805683
134	0x0007199e	6.52038e-40
135	0x3b2b8ac0	0.002617523
136	0x900e68a6	-2.808518e-29
137	0x3cb5e7b5	0.022205213
138	0xb92bca91	-0.00016383293
139	0x3a1c28fe	0.0005957036
140	0x3d8b0787	0.06788545
141	0xb928c8c1	-0.00016096515
142	0xbba86b66	-0.005139756
143	0x3d1ca339	0.0382416
144	0x3dd23d62	0.10265614
145	0xbc8466cc	-0.016162299
146	0x000515f3	4.67051e-40
147	0x80057f31	-5.04805e-40
148	0xbcd6633b	-0.026170364
149	0x00068821	5.99847e-40
150	0xa82d70ce	-9.62789e-15
151	0xbd14f125	-0.036362786
152	0xbd837f19	-0.06420726
153	0x3a0a9b3d	0.00052874145
154	0x0001feb9	1.83213e-40
155	0x3c2e8406	0.010651594
156	0x3c0f1abc	0.008734401
157	0x3c83c1ea	0.016083676
158	0x3c33e4cf	0.010979845
159	0x37921f7e	1.7419221e-05
160	0xbd3c235f	-0.04593217
161	0xbd2557bd	-0.040366877
162	0x0003a81e	3.35816e-40
163	0x3b025118	0.0019884761
164	0xbd4225ec	-0.047399446
165	0xbe0a5366	-0.13508376
166	0x36af679b	5.2274677e-06
167	0x0003be3b	3.43748e-40
168	0xbc42c347	-0.011887378
169	0x3e08dd79	0.13365735
170	0x3b8bc3d2	0.004265287
171	0x3c9ae5e2	0.018908445
172	0x3d55be0b	0.052183192
173	0xbbdfce76	-0.006830032
174	0x3b632204	0.0034657726
175	0xbc9ff40b	-0.019525548
176	0x3c86e44a	0.016466279
177	0xbced936c	-0.02900096
178	0xbd4c5ddd	-0.049894203
179	0xb9ee409a	-0.0004544303
180	0xbd339b1c	-0.043849096
181	0x3cdc96f9	0.026927458
182	0x3ceabf88	0.028655782
183	0x8000c18a	-6.9429e-41
184	0xbd68baed	-0.05681889
185	0x3d2c2cc4	0.04203488
186	0x3cf16b3c	0.029470079
187	0x3d714a6a	0.058908857
188	0x3caae710	0.020862132
189	0xbbe18e67	-0.0068834308
190	0x3a35d641	0.00069365284
191	0xbb6776e5	-0.003531867
192	0x3d89aa7d	0.06721971
193	0x3a3265dc	0.00068053394
194	0x3621e9ae	2.412689e-06
195	0xbd168686	-0.036749385
196	0x3b086e3c	0.0020817658
197	0x3dd4fef7	0.10400193
198	0xb8d85343	-0.00010315191
199	0x3d72d9eb	0.059289854
200	0x3b383a05	0.0028110754
201	0xba9d1bb7	-0.0011986409
202	0xa2eb1630	-6.372037e-18
203	0x3d0bf1ab	0.03416602
204	0x3d1407f8	0.036140412
205	0xba218372	-0.00061612495
206	0x3cbe3be0	0.02322191
207	0x3d5bed65	0.053693194
208	0x3b478bba	0.0030448274
209	0x3ab41246	0.0013738356
210	0x3814ac0a	3.5446174e-05
211	0x3d691188	0.056901485
212	0x3d1dd23d	0.038530577
213	0x3d22dba2	0.03976024
214	0xbc25e238	-0.0101247355
215	0x3d837f1d	0.06420729
216	0x3d35e25d	0.04440533
217	0xba8ee2c1	-0.0010901318
218	0xbc68f254	-0.014217932
219	0x80056ec2	-4.9891e-40
220	0x3da29e95	0.07940403
221	0xbcc6e9a7	-0.024281336
222	0x3d0bcf99	0.034133527
223	0x800721ff	-6.55044e-40
224	0x3c7abe5d	0.015304175
225	0x3894ffb9	7.104822e-05
226	0x3d360e46	0.044447206
227	0x0001cd6c	1.65527e-40
228	0x3c3db818	0.011579536
229	0x3dd837de	0.10557531
230	0x15300b26	3.555171e-26
231	0x3d20e442	0.039280184
232	0xbab9aa25	-0.0014165087
233	0x3cbad7ac	0.022807918
234	0xba95e8b3	-0.0011437148
235	0x3c81aa24	0.0158282
236	0xbbc29029	-0.0059375954
237	0x361f6b78	2.3755401e-06
238	0x3ca3a9b8	0.01997839
239	0xbdb56f90	-0.088591695
240	0x3d68aff5	0.05680843
241	0xb593e321	-1.1018457e-06
242	0xbb919298	-0.004442524
243	0x3ba6e63c	0.005093364
244	0xbbfcdb7e	-0.007716595
245	0x3c7c3e28	0.015395679
246	0xbc3dc9d6	-0.011583766
247	0xbb37d5fd	-0.002805113
248	0xbd309d0e	-0.04311853
249	0x37f27078	2.890102e-05
250	0xbc18d1c5	-0.009327357
251	0x3d1567f4	0.03647609
252	0x3cdfb101	0.027306082
253	0xbc71119e	-0.014713673
254	0x00037409	3.17132e-40
255	0x2081222e	2.1876068e-19

lin1.bias f4 [128]
0	0x3dbb40fe	0.09143256
1	0x3da5ccb4	0.08095685
2	0xbc795da9	-0.015220084
3	0xbc115741	-0.008870901
4	0x3db21b54	0.08696619
5	0xbc017714	-0.007901926
6	0xbcc68132	-0.024231527
7	0xbbf5626a	-0.0074885385
8	0xba5269ec	-0.0008026648
9	0xb86059bb	-5.348933e-05
10	0xbdd7889a	-0.105241016
11	0xbe0f5b78	-0.13999736
12	0xba1aabb5	-0.000590022
13	0x3d11b7d6	0.03557571
14	0x3c8635f5	0.01638315
15	0x3b024213	0.001987581
16	0xbc1eb9d4	-0.00968786
17	0x39f8502c	0.0004736198
18	0x3d3c118a	0.045915164
19	0xbcb3b127	-0.021935059
20	0x3dc3c1b9	0.09558434
21	0x3c7818a3	0.015142593
22	0xbbac76ae	-0.005263171
23	0xbae8d876	-0.0017764706
24	0xbdba15db	-0.090862
25	0x3d3bf44f	0.045887288
26	0x3dccf12b	0.10006937
27	0xa10b0d0a	-4.711229e-19
28	0x3ca9d43a	0.02073108
29	0xbd39389e	-0.04522001
30	0xbae0d33b	-0.0017152795
31	0x3d3dd884	0.046349064
32	0x00041e4d	3.78212e-40
33	0x89eac42d	-5.6517934e-33
34	0xbda52ce4	-0.08065203
35	0xb5a7c4b8	-1.2499722e-06
36	0x3dbf4beb	0.09340652
37	0xbdd82a3d	-0.10554931
38	0x3d97a37d	0.0740423
39	0xbbe948fe	-0.007119297
40	0xbca457ff	-0.020061491
41	0x3e95eae9	0.29280785
42	0xbc828b8e	-0.015935685
43	0x3db24a27	0.0870555
44	0x80018bb4	-1.41952e-40
45	0xbd182b6d	-0.03715079
46	0xbdb1ec99	-0.086877055
47	0xbd3e3459	-0.04643664
48	0xbd05846d	-0.032596994
49	0x3d2a0e94	0.04151781
50	0xbc4e4f94	-0.012592215
51	0xbe56edd0	-0.20989156
52	0x3d946086	0.07244973
53	0xa292c814	-3.978522e-18
54	0x3915c5ea	0.00014283476
55	0x3e0a8b57	0.13529716
56	0xb3fc68b5	-1.17537105e-07
57	0xbd9ddeba	-0.07708497
58	0xbd01c3d1	-0.031680886
59	0xbe450b2f	-0.19242547
60	0xb68649ce	-4.002103e-06
61	0xbb7d6da4	-0.0038670087
62	0xb864dc60	-5.4564676e-05
63	0xbcaa916c	-0.020821296
64	0xbd2d3ca0	-0.042294145
65	0x3da63daa	0.0811723
66	0xb5e8fb11	-1.7358417e-06
67	0xbceccd93	-0.02890662
68	0xbd4fb0ee	-0.050705843
69	0x3c4f5b65	0.0126560675
70	0x3e3522d4	0.17689067
71	0xbd5fe2ea	-0.05465976
72	0x3e1bdb40	0.15220356
73	0x3b94714e	0.0045301085
74	0xbda20d61	-0.07912708
75	0xbd5ca30b	-0.053866427
76	0x3df5dac0	0.12004614
77	0x3c9e176c	0.019298278
78	0x3d9e8859	0.0774085
79	0x3daa6bed	0.083213665
80	0xbd153139	-0.036423896
81	0x3a070bd3	0.0005151603
82	0x3de75fd8	0.112975776
83	0x3dfd66a3	0.12373092
84	0xbc12d0ae	-0.008960886
85	0x3d9bc2cf	0.07605516
86	0xbe0da254	-0.13831455
87	0x3cb7c987	0.022434963
88	0x3caaf823	0.020870274
89	0x3e2d132a	0.16901842
90	0xbd22299c	-0.039590463
91	0xbdbe1232	-0.09280814
92	0xbb21ee8a	-0.002470883
93	0xbcb29624	-0.021800108
94	0x00018e98	1.42988e-40
95	0xb4548453	-1.9792178e-07
96	0xbc7a426a	-0.015274623
97	0x3dcb0117	0.09912317
98	0xbdd84bb2	-0.10561313
99	0xbd92b656	-0.07163684
100	0xbb5a2439	-0.003328575
101	0xbd052508	-0.03250602
102	0xbe1c67a7	-0.15273915
103	0x3d93b608	0.07212454
104	0x3c61906a	0.013767341
105	0x3dc467fb	0.09590145
106	0xbbfb6cc8	-0.00767288
107	0x3c591aec	0.013251048
108	0xbdadea69	-0.08491976
109	0x3df72c83	0.12069037
110	0xbe000c88	-0.1250478
111	0xbdab5018	-0.08364886
112	0xbc322d6f	-0.01087509
113	0x3d52813d	0.051392782
114	0x37e53a86	2.732618e-05
115	0x3e1f1b5a	0.15537778
116	0xb9dd416d	-0.0004220115
117	0x3d92fea0	0.07177472
118	0xbd09e57e	-0.033666126
119	0x83a3aef4	-9.620446e-37
120	0xbd04c5d7	-0.032415237
121	0x3d9e4f65	0.07729987
122	0x3e131b26	0.14365825
123	0xbc2b194f	-0.010443046
124	0x3bf3cfca	0.007440542
125	0xad919f84	-1.655543e-11
126	0x3e8f2e95	0.27965227
127	0xb72d1261	-1.0315883e-05

lin2.weight f4 [128, 128]
0	0xbc985cab	-0.018598875
1	0xbdfa4593	-0.122203015
2	0x3db1a812	0.08674635
3	0x3bd3357f	0.006445586
4	0x3e172757	0.147611
5	0xb96d9652	-0.0002265808
6	0xbd39de03	-0.045377742
7	0x3b1490e8	0.0022669379
8	0x3d21f205	0.03953745
9	0x800401c1	-3.67971e-40
10	0x3d589322	0.05287469
11	0xbe5e19d0	-0.21689534
12	0x8002a07e	-2.41245e-40
13	0x3dab3d07	0.083612494
14	0x3d5f332f	0.05449217
15	0xb1bff2e0	-5.5864433e-09
16	0x3d36267c	0.044470295
17	0x1d28b1c5	2.232652e-21
18	0xb5f7268f	-1.8414156e-06
19	0x3a2898bf	0.00064314523
20	0xbe901b53	-0.28145847
21	0x3da2d0bd	0.0794997
22	0xb701132e	-7.693465e-06
23	0x820ea3cc	-1.047952e-37
24	0x3bc5638b	0.0060238293
25	0xb2d3e714	-2.4668715e-08
26	0xbd7fa2ad	-0.062411
27	0x800590cc	-5.11121e-40
28	0x3c0a725d	0.008450118
29	0x3c008ce8	0.007846095
30	0x3c9a6541	0.01884711
31	0x3a1a567b	0.00058875204
32	0x80031a74	-2.84996e-40
33	0x0005b465	5.23891e-40
34	0x3ca67d23	0.020323342
35	0x0007cbc0	7.1594e-40
36	0xbca2dbf9	-0.019880282
37	0xbe543364	-0.20722729
38	0x3c3b14da	0.011418546
39	0x3ae5de18	0.0017537503
40	0xba3e4588	-0.0007258286
41	0x3dde4263	0.10852506
42	0xbc9e19eb	-0.019299468
43	0x3ddd6b37	0.10811465
44	0x0002f9ce	2.73284e-40
45	0x8002d275	-2.59169e-40
46	0xbcbcf844	-0.023067601
47	0xbcef786e	-0.02923223
48	0x3bcdf5a7	0.0062853876
49	0xb49ccbd6	-2.9205574e-07
50	0xbd11d4bd	-0.035603274
51	0xbde7a8c8	-0.11311489
52	0xbe9dd83a	-0.3082903
53	0x85070862	-6.349209e-36
54	0x065599cb	4.0173837e-35
55	0xbc9b023a	-0.01892196
56	0x8006b209	-6.1488e-40
57	0x3de6dfe8	0.112731755
58	0x3bad5dee	0.0052907383
59	0xbe0d0bde	-0.13774058
60	0xa9cc5834	-9.074721e-14
61	0xbc29ea1e	-0.010370759
62	0x2e8c6daa	6.385943e-11
63	0x3a86689d	0.0010254566
64	0xbbc065ad	-0.0058714957
65	0xbe1ef397	-0.1552261
66	0x0006e522	6.3321e-40
67	0xbc4f0f41	-0.012637914
68	0x3dbffe98	0.09374732
69	0x8005b0bb	-5.22576e-40
70	0xbd426947	-0.04746368
71	0xb9e6db3b	-0.00044032358
72	0xbe124ea8	-0.14287817
73	0xba912934	-0.0011074902
74	0x3cff22a2	0.031144444
75	0x3cc5f267	0.024163438
76	0xbe039fce	-0.1285393
77	0x3da539f4	0.08067694
78	0xbe57a56e	-0.210592
79	0xbebadaf0	-0.3649516
80	0xbd886a20	-0.06660867
81	0x8002b2eb	-2.47855e-40
82	0xbeff329e	-0.49843305
83	0xbdfc5a11	-0.12321866
84	0x2de89cc2	2.644496e-11
85	0xbcaabbb4	-0.020841457
86	0xbc53d14e	-0.01292832
87	0xbc6969a6	-0.01424638
88	0x3d2a84e9	0.04163066
89	0xbd40c124	-0.047059193
90	0x3a5e090c	0.0008469976
91	0x3c020a42	0.007937016
92	0xae18247a	-3.4593196e-11
93	0xbd2184e9	-0.039433394
94	0x0002ce11	2.57594e-40
95	0x80062de5	-5.67477e-40
96	0xa84a27c0	-1.1221872e-14
97	0xbe07fb7e	-0.1327953
98	0x3d7ea2e5	0.062167067
99	0x3dcad1f1	0.099033244
100	0x1003634d	2.5911693e-29
101	0xbdb9e267	-0.09076386
102	0x3da6be87	0.08141809
103	0xb4b2551d	-3.3217012e-07
104	0xbb2a3f4e	-0.0025977674
105	0x3c06e871	0.008234129
106	0xb602adee	-1.947275e-06
107	0xbd06ae7e	-0.032881252
108	0x3bb88fa6	0.0056323586
109	0xbe2d10d2	-0.16900948
110	0xbe02ce58	-0.12774026
111	0x3dcd8ab3	0.100362204
112	0x3d0a7e58	0.033811897
113	0x3d3b6de3	0.045759093
114	0x0003fc07	3.65917e-40
115	0xbdae2eef	-0.085050456
116	0xb87087ec	-5.7347046e-05
117	0xbe6579bb	-0.22409718
118	0x3e68de47	0.22741042
119	0x80062312	-5.63594e-40
120	0xbcb6d452	-0.02231804
121	0xbed36116	-0.41285008
122	0xbc1775d0	-0.009244397
123	0xba3da34c	-0.0007234111
124	0xbd0c22cb	-0.03421287
125	0x00067626	5.93397e-40
126	0x3d5025e6	0.050817393
127	0x13c1a16e	4.887923e-27
128	0x3ce68ed7	0.028144283
129	0x3e226ab4	0.15861017
130	0xbda5a745	-0.08088545
131	0x000104a6	9.3503e-41
132	0x3cce8c50	0.02521339
133	0xbc525c9b	-0.012839462
134	0x3c5e359d	0.013562587
135	0xb93c396c	-0.00017950468
136	0xbd5897d7	-0.05287918
137	0x00088f5e	7.86114e-40
138	0xba0d752f	-0.0005396185
139	0xbb8cdff5	-0.0042991587
140	0x80040244	-3.68155e-40
141	0xbd036b0b	-0.032084506
142	0x3d49eb7d	0.049296845
143	0xba608349	-0.0008564485
144	0xbc4ce929	-0.012506762
145	0xb91f8364	-0.00015212368
146	0x3dab9f73	0.08380022
147	0xbb28cb2a	-0.002575586
148	0x3df38afc	0.118917435
149	0x3dab88be	0.08375691
150	0xb5d2fe64	-1.5720257e-06
151	0xb781b988	-1.5464393e-05
152	0xbd8a3d72	-0.06750001
153	0x3e081d1c	0.13292354
154	0x3df59607	0.11991506
155	0x046c7884	2.7797005e-36
156	0xbccb1d98	-0.024794385
157	0x3b49f046	0.003081338
158	0x3d03abe3	0.032146346
159	0x3d625ca9	0.05526415
160	0x000614eb	5.58517e-40
161	0x858dcc37	-1.3334593e-35
162	0xbd68d144	-0.056840196
163	0x29cc4232	9.070903e-14
164	0x3d431fe0	0.04763782
165	0x3cbd7bf7	0.0231304
166	0x3e17062c	0.14748448
167	0xbaa972b9	-0.0012927867
168	0x353de565	7.07418e-07
169	0x3cc0d1ce	0.023537543
170	0x3cf61160	0.030037582
171	0xb996e476	-0.00028780446
172	0x8003a055	-3.33023e-40
173	0x3c365ba0	0.011130244
174	0xbcc8cf66	-0.024512958
175	0xbadbac69	-0.0016759756
176	0xbb3a3c5f	-0.0028417332
177	0x3dab7c6b	0.0837334
178	0x3e27600c	0.16345233
179	0xbe4ae7d7	-0.19815002
180	0x3db7f5a7	0.08982401
181	0x2936347d	4.0457644e-14
182	0xb68aa354	-4.1317344e-06
183	0x3d9c7cc0	0.07640982
184	0x8002f398	-2.71056e-40
185	0xbdafb870	-0.085801005
186	0xbc7c367e	-0.015393851
187	0xbddc6c97	-0.10762899
188	0x37a23d95	1.9340581e-05
189	0xba4c9f11	-0.0007805685
190	0xb8cc6d54	-9.747842e-05
191	0x3d565837	0.052330222
192	0xbb4ef511	-0.0031579176
193	0x3d7595a7	0.059957173
194	0x80019af9	-1.47429e-40
195	0xb8cd303b	-9.7841454e-05
196	0xbd135df9	-0.03597829
197	0xbb0e045d	-0.0021670081
198	0x3d4fcc8c	0.05073218
199	0xbcacb9ae	-0.021084633
200	0x3da26aed	0.07930551
201	0xbce4708c	-0.027885698
202	0xbd9f69c9	-0.07783849
203	0xbd99c411	-0.075081
204	0x3d441b8c	0.047877833
205	0x3d68f384	0.05687286
206	0x3d60ee29	0.054914627
207	0x3d97e464	0.07416609
208	0x3a609943	0.00085677597
209	0x0001c9c5	1.64217e-40
210	0x3e43b6c1	0.19112684
211	0x3dbe390e	0.09288226
212	0xbb9f7d72	-0.004867249
213	0x3e27ab13	0.16373853
214	0xbdeb811d	-0.11499236
215	0xbcf6bafe	-0.030118462
216	0xbd6cd81b	-0.05782328
217	0x3d711bf1	0.058864538
218	0xbbaac31b	-0.0052112467
219	0x3bebae6e	0.0071924245
220	0x3a5f7822	0.0008524676
221	0xbb9ceecc	-0.004789209
222	0x00007171	4.0695e-41
223	0x00011fed	1.03288e-40
224	0x3b686578	0.003546087
225	0x3e03d602	0.12874606
226	0x3bb84bb1	0.0056242575
227	0x3c948038	0.018127546
228	0xb00d95f5	-5.1508603e-10
229	0x3cc15fd4	0.023605265
230	0xbdeab908	-0.11461073
231	0x3dafd341	0.08585215
232	0xbd013b57	-0.03155073
233	0x3df20742	0.118177906
234	0xbc197c5d	-0.009368029
235	0x3cc13bea	0.02358814
236	0x3c320b74	0.010866988
237	0x3dbae38c	0.09125432
238	0x3d0eb1df	0.0348376
239	0xbcd264c2	-0.02568281
240	0xbc0f0f11	-0.008731619
241	0x3dc1760f	0.09446346
242	0xb7465d46	-1.1823437e-05
243	0x3d7fcc21	0.062450532
244	0x390416d7	0.0001259701
245	0x3de33a3a	0.1109509
246	0xbde8100a	-0.11331184
247	0x00001335	6.89e-42
248	0x3d75d04d	0.060013104
249	0x3e4cb633	0.19991378
250	0x3d29a56f	0.041417535
251	0xbc0f9f93	-0.008766073
252	0x3d9626d6	0.07331626
253	0x800754e0	-6.73296e-40
254	0xbd307458	-0.043079704
255	0x3157b30c	3.1388394e-09
