gcn_model.pth (torch, 336274 bytes, 11 tensors)

initial_conv.bias f4 [128]
0	0xbd97c71e	-0.074110255
1	0xbd925bac	-0.07146391
2	0xbda84566	-0.08216362
3	0xbd7b5870	-0.061363637
4	0xbc8b7265	-0.017022321
5	0xbbe85549	-0.007090245
6	0xbc0c0a8f	-0.008547439
7	0xbdc8abba	-0.09798379
8	0x3d90e277	0.07074445
9	0xbda725b3	-0.081614874
10	0xbc44f560	-0.012021393
11	0xbdaf7933	-0.08568039
12	0xbb2f7b0d	-0.0026776225
13	0xba1bc1bb	-0.0005941649
14	0x00000000	0.0
15	0xbd49e649	-0.049291883
16	0xbda66da8	-0.08126384
17	0x3df26208	0.11835104
18	0x00000000	0.0
19	0xbdae598b	-0.08513173
20	0x00000000	0.0
21	0xb9292c64	-0.00016133633
22	0xbbccba75	-0.0062478133
23	0xbb9f67dc	-0.004864676
24	0x3d954841	0.07289172
25	0xbcc99b09	-0.02461006
26	0xbb3ca290	-0.0028783418
27	0x3d02dc6c	0.031948492
28	0xbd3c54dc	-0.045979366
29	0x3d0d232a	0.034457363
30	0x3d99cd05	0.075098075
31	0x3da4d6a7	0.08048754
32	0x00000000	0.0
33	0x3d8820ea	0.06646903
34	0x00000000	0.0
35	0x00000000	0.0
36	0x00000000	0.0
37	0x3cb29dc9	0.021803753
38	0x00000000	0.0
39	0xbdb890c9	-0.090119906
40	0x3d8e4581	0.069468506
41	0x00000000	0.0
42	0xbb3333d0	-0.0027344115
43	0x00000000	0.0
44	0x00000000	0.0
45	0xbda52c63	-0.08065107
46	0xbc376ce8	-0.011195399
47	0x3d53472e	0.051581554
48	0x3d6c7fe3	0.05773915
49	0x00000000	0.0
50	0xbd941eea	-0.07232459
51	0x3d756cba	0.059918143
52	0xbba229d9	-0.0049488363
53	0x00000000	0.0
54	0x3d17b5ed	0.037038732
55	0xbd6ca4a2	-0.057774194
56	0x00000000	0.0
57	0xbdb4c4e2	-0.08826615
58	0x00000000	0.0
59	0x00000000	0.0
60	0x3c683918	0.014173768
61	0xbd34dfac	-0.044158623
62	0x3c452c36	0.0120344665
63	0x3d53fc8a	0.051754512
64	0x3d8ac897	0.06776541
65	0x00000000	0.0
66	0x3d6beee9	0.05760089
67	0x3daac63a	0.0833859
68	0x3d9ab051	0.07553161
69	0xbdac3b86	-0.08409791
70	0x00000000	0.0
71	0xbd9ca988	-0.07649523
72	0x3d0df4b3	0.03465719
73	0x3d649090	0.055801928
74	0xbaac19d3	-0.0013130255
75	0x00000000	0.0
76	0xbba65ed5	-0.005077223
77	0x3ba3b43b	0.0049958504
78	0x3d85da46	0.06535773
79	0xbd58e05a	-0.052948333
80	0xbd1c70af	-0.0381934
81	0x00000000	0.0
82	0xbb4cbb74	-0.003123966
83	0xbc13baa3	-0.009016666
84	0xbd9c8363	-0.076422475
85	0xbb19637f	-0.0023405252
86	0xbd3ca619	-0.04605684
87	0xbd92bec5	-0.07165293
88	0x3d98f264	0.07468107
89	0xbd0200f1	-0.03173918
90	0xbc5efd35	-0.013610174
91	0xbceefe9f	-0.029174147
92	0x3d20446b	0.03912775
93	0x3d975c44	0.07390645
94	0xbd93e060	-0.072205305
95	0x3d7cd80a	0.06172947
96	0xbd8cf37e	-0.0688238
97	0xb98d7398	-0.0002697974
98	0xbacbc4e1	-0.0015546345
99	0xbd6d662e	-0.057958774
100	0x3cf69f05	0.030105123
101	0x3c90d9e9	0.017682033
102	0xbd2fd41e	-0.0429269
103	0xbdab3ce4	-0.08361223
104	0xbd8c415c	-0.06848404
105	0x00000000	0.0
106	0x3d3c29d3	0.045938324
107	0x3cceb7c1	0.025234105
108	0xbd8efe8d	-0.069821455
109	0x3d985ad8	0.07439202
110	0x00000000	0.0
111	0xbd471dd6	-0.04861244
112	0xbd751ff5	-0.05984493
113	0xbb0e49ab	-0.002171139
114	0x00000000	0.0
115	0xbd65385f	-0.055961963
116	0x3d84ade9	0.06478483
117	0xbc19a695	-0.009378095
118	0x3cdc0b93	0.026860988
119	0x3dab7009	0.083709784
120	0x3cb21816	0.02174
121	0x3d5e48aa	0.054268517
122	0x3bd79785	0.006579342
123	0x3d310151	0.043214146
124	0xbd495489	-0.049152885
125	0x00000000	0.0
126	0xbad13c54	-0.0015963414
127	0x3cee88f5	0.02911804

initial_conv.lin.weight f4 [128, 2]
0	0x3dec4877	0.11537259
1	0xbe361c2b	-0.17784183
2	0x3dd696ca	0.104779795
3	0x3d9d0c43	0.07668354
4	0x3e1b15b7	0.15145002
5	0xbe588884	-0.21145827
6	0x3e185e0c	0.14879626
7	0xbe0b3eb7	-0.13598143
8	0x3d97219c	0.07379457
9	0x3e3b9a60	0.18320608
10	0xbbebddad	-0.0071980567
11	0xbbee5be3	-0.0072741373
12	0xbc0bee92	-0.008540766
13	0xbc66e066	-0.014091587
14	0x3dc78bc9	0.09743459
15	0xbe81f083	-0.25378808
16	0x3defb45f	0.11704325
17	0x3e2bc9ae	0.16776153
18	0x3e505b92	0.20347431
19	0xbd6706b1	-0.056402866
20	0xbe3781c5	-0.17920597
21	0x3d7331ac	0.059373543
22	0x3dde8771	0.10865677
23	0xbe8c200f	-0.2736821
24	0xbb2dca31	-0.002651822
25	0xbadd3b91	-0.0016878714
26	0xbbb7d511	-0.0056101163
27	0xba75c009	-0.0009374624
28	0xb542bb98	-7.2543617e-07
29	0xb4a80360	-3.1294894e-07
30	0xbe381c89	-0.17979635
31	0x3e5f6d2b	0.21818988
32	0x3e3b93ec	0.18318146
33	0xbd4a35d3	-0.049367737
34	0x3c3d9111	0.011570231
35	0xbd137abe	-0.036005728
36	0xbca51bdc	-0.020154886
37	0xbce078d6	-0.027401369
38	0x3d8ca1d9	0.068668075
39	0xbe3f6f5c	-0.18694824
40	0xbb412723	-0.002947279
41	0xb1575e1b	-3.134011e-09
42	0xbbc0dabf	-0.0058854516
43	0xbb127eea	-0.0022353479
44	0x3bd4d66b	0.006495287
45	0xbc884b18	-0.01663737
46	0xbc7551f4	-0.014973152
47	0xbc92bf01	-0.017913343
48	0xbe17d622	-0.14827779
49	0x3e49e9c3	0.1971808
50	0xbdef4843	-0.11683705
51	0x3d2c2b67	0.04203358
52	0xbba62557	-0.005070369
53	0xbb29f65c	-0.0025934195
54	0x3e497e15	0.19677003
55	0x3dc3d4cd	0.09562073
56	0xbe58b98d	-0.21164532
57	0x3dabec85	0.08394722
58	0x3e4a27ef	0.19741796
59	0x3d2a9255	0.04164346
60	0x3e05c33b	0.13062756
61	0x3e695fbc	0.22790426
62	0xbc0f4df0	-0.008746609
63	0x3d65b843	0.05608393
64	0xbba5d8d9	-0.0050612506
65	0x330411da	3.074988e-08
66	0x3e12826d	0.14307566
67	0x3dea4667	0.114392094
68	0xbb2b677c	-0.002615421
69	0xbc3ccbf7	-0.011523238
70	0xbb946a48	-0.0045292713
71	0xbcecfff0	-0.028930634
72	0xbc1a1aca	-0.009405801
73	0xb3195d93	-3.5708194e-08
74	0x3df58a88	0.11989313
75	0xbcc31ae5	-0.023816535
76	0xbc0e5d9d	-0.008689311
77	0xbc3d34bb	-0.011548216
78	0x3db4c853	0.08827271
79	0xbe492e6f	-0.1964662
80	0xbbdc586e	-0.006724409
81	0x3dedc056	0.11608951
82	0xb89a3b91	-7.354387e-05
83	0x2f3dd8a8	1.7266422e-10
84	0xbbb88c55	-0.0056319633
85	0xbc11bb3a	-0.008894736
86	0xb99a006b	-0.0002937348
87	0xbc9c0b4a	-0.019048352
88	0xbc44b0eb	-0.012005071
89	0xba13c71c	-0.00056372746
90	0x3e58b279	0.21161832
91	0xbe098f5a	-0.1343359
92	0xbe25bec2	-0.1618605
93	0x3d592c42	0.053020723
94	0x3d3dcfb0	0.046340644
95	0x3e01110a	0.12604156
96	0x3e1c5001	0.15264894
97	0x3de831c3	0.11337616
98	0xbcf14793	-0.029453075
99	0xb18b5d35	-4.056029e-09
100	0x3e00e76f	0.12588285
101	0xbcf5e29f	-0.030015288
102	0xbde84cbf	-0.11342763
103	0x3e561e0a	0.20909896
104	0xbba40f06	-0.0050066737
105	0xba8ae1fd	-0.0010595914
106	0xbca3eb7b	-0.020009747
107	0xafac6cdd	-3.136397e-10
108	0x3dc4b372	0.09604539
109	0x3d7cb851	0.061699215
110	0x3d6fc479	0.05853698
111	0xbe4db4f7	-0.20088564
112	0xbcbe3f52	-0.023223553
113	0xafa59788	-3.0120995e-10
114	0x3e3d0d6d	0.18462153
115	0x3dd2e80f	0.10298168
116	0xbaab1bed	-0.0013054587
117	0xb20abccf	-8.075587e-09
118	0xbbee3016	-0.007268916
119	0xb9197656	-0.000146353
120	0x3cfc0819	0.03076558
121	0x3dc52faf	0.096282355
122	0x3e373ea2	0.17894986
123	0xbe53ab32	-0.20670775
124	0x3e04c1db	0.12964575
125	0xbe006baa	-0.1254107
126	0x3d92e26b	0.07172092
127	0x3e353d56	0.17699179
128	0xbc0a4735	-0.008439829
129	0x3e4d59d3	0.20053796
130	0xbc7e33af	-0.015515252
131	0x3611cdbe	2.1726441e-06
132	0x3dee0af2	0.116231814
133	0xbd8201e1	-0.063480146
134	0x3ac34ad1	0.0014899616
135	0xbcc0ba18	-0.023526236
136	0x3e0e0bbb	0.13871662
137	0x3df69800	0.120407104
138	0x3d874fe8	0.06607038
139	0xbe3785e9	-0.17922176
140	0xbc48e4dc	-0.012261596
141	0x3093b978	1.0748371e-09
142	0x3d620ded	0.055189062
143	0xbe0e7387	-0.13911258
144	0xbd994721	-0.0748427
145	0x3dfbcf1f	0.122953646
146	0x3c42122b	0.011845152
147	0x3c3390a9	0.010959783
148	0xbc4be54c	-0.012444805
149	0xbdbce513	-0.0922338
150	0xbcc3a303	-0.023881441
151	0xb90519c5	-0.00012693468
152	0xbe0481d1	-0.12940146
153	0x3d3a273c	0.045447573
154	0xbc71cd3e	-0.014758406
155	0xbbc9de54	-0.006160537
156	0x3e38adbe	0.18035027
157	0x3d91cd10	0.07119191
158	0x3e20d2c4	0.157054
159	0xbdffbd5d	-0.1248729
160	0xbe04a580	-0.12953758
161	0x3d443fbb	0.04791234
162	0xbb79d3fe	-0.0038120742
163	0xbb5a492e	-0.0033307779
164	0xbba04ba1	-0.004891828
165	0xbc91a6bf	-0.017779706
166	0xbe0ee799	-0.13955535
167	0x3e2b6b1c	0.16740078
168	0x3e2dc4f7	0.16969667
169	0x3c6a6103	0.014305356
170	0xbb164006	-0.0022926345
171	0xbcb7e435	-0.022447685
172	0xbd665618	-0.05623445
173	0x3dc1df4e	0.0946642
174	0x3dddd2ad	0.10831199
175	0xbc8fc3e9	-0.017549472
176	0xbd934247	-0.07190376
177	0x3dfdee9e	0.12399028
178	0xbe14e03c	-0.14538664
179	0x3e331149	0.17487063
180	0xbca4a1b7	-0.020096643
181	0xbc43b360	-0.011944622
182	0xbc9ce97e	-0.019154307
183	0x3d94aad0	0.072591424
184	0xbd7f6c11	-0.06235892
185	0x3e2bd9bd	0.1678228
186	0xbc1636d9	-0.00916835
187	0x3e3738ab	0.17892711
188	0x3e4eab44	0.2018252
189	0xbe051c73	-0.12999134
190	0xbe0f754f	-0.14009593
191	0x3e39ba78	0.18137538
192	0x3e2334bb	0.15938084
193	0xbe531a98	-0.20615613
194	0xbb836cd7	-0.0040107775
195	0xbcebebd8	-0.028798983
196	0xbe2bc822	-0.16775563
197	0x3d59b895	0.053154547
198	0x3d73fa40	0.05956483
199	0x3d0dccf1	0.034619275
200	0xbd8b34b0	-0.06797159
201	0x3e3f0dc2	0.18657592
202	0x3bedd89e	0.007258489
203	0xbe1a5063	-0.15069728
204	0xbc8a9d48	-0.0169207
205	0x3d9ab6e2	0.075544134
206	0x3d91586c	0.07096943
207	0xbe58e0df	-0.21179532
208	0x3d5ce83d	0.053932417
209	0xbe25e2a0	-0.16199732
210	0xbc618280	-0.013764024
211	0xba372e6b	-0.0006987813
212	0x3e3a379f	0.1818528
213	0x3e2d7fc1	0.16943265
214	0x3e3d1b1e	0.18467376
215	0x3dc448bc	0.095841855
216	0x3e24f58a	0.1610929
217	0xbd352a52	-0.044229813
218	0xbdc19930	-0.09453046
219	0x3dfb08ec	0.12257561
220	0xb9ca211b	-0.00038553108
221	0xbb886e0c	-0.0041635092
222	0xbdb7b85e	-0.08970712
223	0x3d2eceac	0.042677566
224	0x3dc8c9e5	0.09804133
225	0xbe0e072e	-0.13869926
226	0xbe1782d4	-0.14796
227	0x3d408443	0.047001135
228	0xbabf0de7	-0.0014576287
229	0xbb53fa80	-0.0032345355
230	0x3dd572a1	0.10422254
231	0xbd38f40f	-0.045154627
232	0x3e2ca1d6	0.1685861
233	0x3e5918db	0.21200888
234	0x3d7da711	0.061926905
235	0x3d86f020	0.06588769
236	0x3d287435	0.04112645
237	0xbc94ff84	-0.018188246
238	0xbbb445e4	-0.0055014957
239	0x3c862a32	0.016377542
240	0x3d9da8e6	0.076982304
241	0x3e4817a1	0.19540264
242	0xbc067fbb	-0.008209164
243	0xbc4e57db	-0.012594189
244	0xbc48e3cb	-0.012261341
245	0xbd593654	-0.053030327
246	0x3cab4fb8	0.020912036
247	0x3e138abd	0.14408393
248	0x3e26f26e	0.16303417
249	0x3dcea875	0.100907244
250	0xbbebd3ca	-0.007196878
251	0xba179d1b	-0.00057836034
252	0xbbc58f0b	-0.006029015
253	0xbabdbb08	-0.0014475295
254	0x3cbf481d	0.023349816
255	0xbe1f0d0f	-0.15532325

conv1.bias f4 [128]
0	0xbbe4641d	-0.0069699422
1	0xbd88495c	-0.06654617
2	0xbcae38a8	-0.02126725
3	0x00000000	0.0
4	0x3da0cc0b	0.07851418
5	0x00000000	0.0
6	0xbd1f11c6	-0.03883531
7	0x3d6290ea	0.055313982
8	0xbbfdb74a	-0.007742797
9	0xbd70a742	-0.05875326
10	0xbd5188b1	-0.05115575
11	0x00000000	0.0
12	0x00000000	0.0
13	0x3d3a7505	0.045521755
14	0xbb1798bc	-0.0023131808
15	0x00000000	0.0
16	0xbd90db78	-0.0707311
17	0xb4aa0671	-3.1669654e-07
18	0xbd7691b5	-0.06019755
19	0xbaa62955	-0.0012677113
20	0x3daa0a27	0.08302718
21	0xbc8e7a04	-0.017392166
22	0xbcecded1	-0.02891484
23	0xbc70e3b6	-0.014702728
24	0xbd3d3bf8	-0.04619977
25	0x3d893e4d	0.06701336
26	0x3d9e67e9	0.07734663
27	0x00000000	0.0
28	0xbd530207	-0.051515605
29	0x3d5a083a	0.0532305
30	0x3d97fd34	0.074213415
31	0xbc0b1377	-0.0084885275
32	0x3d619f7f	0.055083748
33	0xbba0dc58	-0.0049090795
34	0x3d94a210	0.072574735
35	0xbd87d44f	-0.066322915
36	0x3d3d673f	0.04624104
37	0xbd841fe4	-0.06451395
38	0xbd384cfe	-0.0449953
39	0x3d67a7e0	0.056556582
40	0xbd31e89b	-0.04343472
41	0x3d910622	0.07081248
42	0x3da1292e	0.078691825
43	0xbd664f5c	-0.056228027
44	0x3da81c15	0.08208481
45	0x33c2cbce	9.070901e-08
46	0x3d9d1834	0.07670632
47	0xbaa8e8c6	-0.0012886755
48	0x00000000	0.0
49	0x3d94c0ca	0.07263334
50	0x00000000	0.0
51	0xbce69a0c	-0.028149627
52	0x3d35fa79	0.044428322
53	0x00000000	0.0
54	0x00000000	0.0
55	0xbd52910b	-0.051407855
56	0x3da2ba70	0.079457164
57	0x00000000	0.0
58	0xbbdb6719	-0.00669564
59	0x3d85b680	0.0652895
60	0x3c58194f	0.013189628
61	0xbd4eeae9	-0.050516997
62	0xbd9649ea	-0.07338317
63	0xbbfd21ed	-0.0077249915
64	0x00000000	0.0
65	0xbd0a42fe	-0.033755295
66	0x3d880028	0.06640655
67	0xbd74ec13	-0.05979545
68	0x3d1b87ca	0.037971295
69	0x00000000	0.0
70	0xbd7fc78b	-0.06244616
71	0x3d132ee8	0.035933405
72	0x3d152174	0.036408857
73	0x3d9dcd0f	0.077051274
74	0x3d75f944	0.06005217
75	0xbd6b396b	-0.057427805
76	0xbbce5fb8	-0.0062980317
77	0xbd3cf483	-0.046131622
78	0xbcecadf6	-0.028891545
79	0x34278f5c	1.5605241e-07
80	0x3d9a5d99	0.075373836
81	0x3d2d12ec	0.042254373
82	0xbbfe8f98	-0.0077685826
83	0xbbcdbaf2	-0.006278389
84	0x3d4161ad	0.04721229
85	0xbd227145	-0.039658803
86	0xbd4b5d10	-0.0496493
87	0xbd382d71	-0.04496521
88	0xbb34a78c	-0.0027565686
89	0x3d9e09a7	0.07716685
90	0xbd14a49a	-0.03628979
91	0xb3dc57c8	-1.02605156e-07
92	0xbb8225e6	-0.003971803
93	0x00000000	0.0
94	0x3d78ab81	0.060710434
95	0x3d6b9d37	0.05752298
96	0x00000000	0.0
97	0xbd360bfe	-0.04444503
98	0x3d7af2ab	0.061266582
99	0x3c8487a9	0.016177969
100	0x3da50f7c	0.08059594
101	0x3d5166fe	0.05112361
102	0xbd2712bb	-0.040789347
103	0x00000000	0.0
104	0xbce74653	-0.028231775
105	0x3d90782e	0.070541725
106	0x3d8fd291	0.07022584
107	0xbcde95e3	-0.027171081
108	0x3d880011	0.06640638
109	0xb486e2bc	-2.5124416e-07
110	0xbda581cd	-0.08081398
111	0x00000000	0.0
112	0x3da8388a	0.08213909
113	0xbd547c95	-0.051876623
114	0xba88e152	-0.0010443127
115	0x00000000	0.0
116	0x00000000	0.0
117	0xbad25338	-0.001604653
118	0xbcf584cd	-0.02997055
119	0x3d8533d1	0.06504024
120	0x3d6ab847	0.057304647
121	0x3d9ed606	0.077556655
122	0x00000000	0.0
123	0xbd7f0178	-0.06225726
124	0xbbcf24a8	-0.0063215084
125	0xbbd314ce	-0.006441689
126	0xbc480f27	-0.012210644
127	0x3dc0d316	0.094152614

conv1.lin.weight f4 [128, 128]
0	0xbaf733cb	-0.001886004
1	0x3ad5e7bd	0.0016319674
2	0xb9f573b1	-0.00046816238
3	0x3505aefb	4.980099e-07
4	0xbb27c70a	-0.0025600814
5	0xaed0e8ee	-9.5001215e-11
6	0xb143ec2b	-2.851048e-09
7	0x3a044a96	0.00050465146
8	0xbb03da46	-0.0020119115
9	0xbb68192f	-0.0035415401
10	0xbb650045	-0.0034942788
11	0xbba97a22	-0.00517203
12	0x3ac9960d	0.0015379802
13	0x311c2bd5	2.2725903e-09
14	0x34d9f927	4.0600682e-07
15	0xb90ce1d0	-0.00013435562
16	0xb84ad5fd	-4.8359845e-05
17	0x3913daaa	0.00014100471
18	0x354c770b	7.616915e-07
19	0x3a98ea35	0.0011666479
20	0x3b2d11fa	0.002640842
21	0xb8f138e7	-0.000115023744
22	0xb0e99d03	-1.6997607e-09
23	0xb84d755f	-4.898512e-05
24	0xba195516	-0.00058491656
25	0xb78bf1da	-1.6682712e-05
26	0xb5b688e0	-1.3599893e-06
27	0xbb73dccd	-0.0037210465
28	0x383f0bf0	4.5549066e-05
29	0xbb2c69cb	-0.0026308175
30	0xbb9724fe	-0.004612564
31	0x37dac8ca	2.6081125e-05
32	0x3a0f55c7	0.0005467799
33	0xbc101dff	-0.008796214
34	0xb302395e	-3.032016e-08
35	0x3a21240d	0.00061470346
36	0x382947e7	4.0359704e-05
37	0xbb80a005	-0.003925326
38	0xb8f5e311	-0.00011724805
39	0xb32b7a61	-3.9925343e-08
40	0xba7c2d6f	-0.0009619807
41	0x3715e21e	8.933739e-06
42	0x3aa85e34	0.0012845458
43	0xb0dbbec6	-1.5988568e-09
44	0x32ee086f	2.7710682e-08
45	0xb793c91e	-1.7617418e-05
46	0xb7f1b822	-2.8815182e-05
47	0xbb06bb15	-0.0020558287
48	0xbb5fef05	-0.0034169566
49	0x31cd6c16	5.978573e-09
50	0xb902fb64	-0.00012491416
51	0xba9b2fac	-0.0011839769
52	0x30a91a78	1.2303891e-09
53	0xb2ffd48c	-2.9782562e-08
54	0xba68fc71	-0.00088877144
55	0xb31f666e	-3.711323e-08
56	0x3802dcae	3.119994e-05
57	0xbb121df6	-0.002229569
58	0xaf48c0ec	-1.8258434e-10
59	0xb86bf821	-5.6259454e-05
60	0xba7e2780	-0.0009695217
61	0x39472076	0.00018990212
62	0xb7a8acbe	-2.01076e-05
63	0xbb525e7c	-0.0032099774
64	0xbb29242e	-0.0025808918
65	0xb0146c96	-5.3996396e-10
66	0x397c2dd7	0.0002404967
67	0x374bc959	1.2146623e-05
68	0xbb585719	-0.0033010899
69	0x323071ac	1.0270394e-08
70	0x32a17577	1.8796284e-08
71	0xbb8c70f0	-0.004285924
72	0x389934d2	7.305447e-05
73	0xbad00bdd	-0.0015872676
74	0xbb6f2cc5	-0.003649519
75	0xbbb81f31	-0.0056189527
76	0xb7aae46e	-2.037195e-05
77	0x322d8136	1.00993045e-08
78	0xbb533a8a	-0.0032230937
79	0x35c0aa0d	1.4354606e-06
80	0xb7a64fe3	-1.9825942e-05
81	0xb8d89f13	-0.000103293125
82	0x326f413c	1.39264635e-08
83	0xba73c1d9	-0.00092986
84	0xb8860a8a	-6.391581e-05
85	0xb24bc336	-1.1860541e-08
86	0xb770fd8c	-1.4364148e-05
87	0xbb59f785	-0.0033259105
88	0x3b6ab86a	0.0035815486
89	0x3b0876fa	0.0020822869
90	0xb4b0bc11	-3.291939e-07
91	0xbb15a95f	-0.0022836549
92	0xba2ee3a3	-0.0006671494
93	0xbb09fc7a	-0.0021055029
94	0xb6eb2f21	-7.0090323e-06
95	0xb9d05cd4	-0.00039742014
96	0x360b4ed1	2.0758491e-06
97	0xb7931b14	-1.7536375e-05
98	0x37242ca2	9.785554e-06
99	0x391654ce	0.00014336707
100	0xba5acba9	-0.0008346388
101	0xb3ab04f1	-7.963707e-08
102	0x3accbeac	0.001562079
103	0xb1756e0c	-3.5714747e-09
104	0x33597e42	5.063908e-08
105	0x39a0c6b7	0.00030665632
106	0xbba85c9e	-0.005137994
107	0xbb3c175f	-0.0028700454
108	0xb984ec47	-0.00025353042
109	0xb99ff7e0	-0.00030511525
110	0x3a5ffd2a	0.0008544499
111	0xb7309d33	-1.0527018e-05
112	0x33c793fa	9.2935764e-08
113	0x39c6c092	0.0003790898
114	0x34b31947	3.335974e-07
115	0x36e5eb88	6.8521513e-06
116	0xbc05686c	-0.008142572
117	0xba8834c6	-0.0010391704
118	0x38b6f676	8.724343e-05
119	0xb9fc49ad	-0.00048120078
120	0xbb43b486	-0.002986224
121	0x3941ac50	0.00018470106
122	0x33a2f49e	7.5882085e-08
123	0xbaf0ad84	-0.0018362259
124	0xbb076975	-0.0020662223
125	0xb2721158	-1.40901975e-08
126	0x38cc9d55	9.7567834e-05
127	0x3497f045	2.830076e-07
128	0xbcc2b894	-0.023769654
129	0xbcaeaa28	-0.021321371
130	0xbde85e14	-0.11346069
131	0xbd16476f	-0.036689218
132	0x3d904b15	0.07045571
133	0xbb9453c1	-0.004526586
134	0xb1945d5c	-4.3179806e-09
135	0x3e160f50	0.14654279
136	0x3d7b9b12	0.061427183
137	0x3d939211	0.07205594
138	0x3cc513e8	0.024057344
139	0xbc3187f1	-0.010835634
140	0xbafaeb9e	-0.0019143706
141	0xb0f280a0	-1.7644375e-09
142	0x32a7960e	1.9509596e-08
143	0x3dfc5cb2	0.12322368
144	0x3db00113	0.08593955
145	0xbd8dd1e0	-0.06924796
146	0xb304bccc	-3.0905355e-08
147	0xbda8f9a2	-0.08250739
148	0xb9ee8a03	-0.00045497724
149	0x350135c8	4.8134507e-07
150	0xbdcb1705	-0.099165
151	0x3c7e7a13	0.015532034
152	0x3d3de774	0.04636331
153	0x3d9d539e	0.07681964
154	0xb809984b	-3.280518e-05
155	0x3cce1a34	0.025158979
156	0x3d5ff0f7	0.05467316
157	0x3d2d1d27	0.04226413
158	0xbe1883bb	-0.14894001
159	0xbdc03be6	-0.09386425
160	0xbaa9eae8	-0.0012963684
161	0xbdbe9e4d	-0.09307537
162	0xb03a9fde	-6.789359e-10
163	0x3b848148	0.004043732
164	0x3955506b	0.00020343221
165	0xbd87e405	-0.06635288
166	0x3186fd4e	3.9287107e-09
167	0x3dd69687	0.104779296
168	0x3b929f05	0.004474523
169	0xbaac8f66	-0.0013165295
170	0x30251e47	6.0069677e-10
171	0xb376ebb8	-5.7490723e-08
172	0xb200f6d1	-7.5067e-09
173	0x3e0abafa	0.13547888
174	0x3d80434d	0.062628366
175	0xbdb666d8	-0.08906335
176	0x3de3f655	0.111309685
177	0xbb35ef14	-0.002776091
178	0xbdb8bd88	-0.09020525
179	0x3d9a7c90	0.0754329
180	0xae57c920	-4.9063975e-11
181	0x3b099e47	0.0020998882
182	0x3daf36f5	0.08555404
183	0xbcd9b804	-0.026577003
184	0x3b91ad61	0.004445717
185	0xbde8125d	-0.113316275
186	0x322c72a7	1.0037787e-08
187	0x3308cf55	3.1853535e-08
188	0x3de9fe4c	0.114254564
189	0x3e165e38	0.14684379
190	0x3d9367e1	0.07197548
191	0xbd9517df	-0.07279944
192	0x3de79024	0.113067895
193	0x3944bc7d	0.00018762234
194	0xbbfdbbd2	-0.007743337
195	0x3c9370cd	0.017998124
196	0x3c9f85ae	0.019472923
197	0xbc37613e	-0.011192618
198	0x3181a831	3.7735153e-09
199	0x3b1199c7	0.0022216903
200	0xbccb2cca	-0.02480163
201	0x3c7bd126	0.015369689
202	0x3be5f1f7	0.00701737
203	0xb93f06ef	-0.00018217762
204	0xbd53da3d	-0.0517218
205	0xb73e89a8	-1.1356933e-05
206	0xbd828498	-0.063729465
207	0x38d10f2f	9.968725e-05
208	0x3de61530	0.1123451
209	0x39efec6d	0.00045761783
210	0xb5bd789f	-1.4116703e-06
211	0x3df6908d	0.120392896
212	0x3dcb4c67	0.09926682
213	0xb90485ce	-0.00012638347
214	0x3e3d946d	0.18513651
215	0xbdee9ac4	-0.11650613
216	0xbda9dad8	-0.08293694
217	0x3c573610	0.013135448
218	0x3bac614e	0.005260623
219	0x3dd98a5f	0.10622095
220	0x3d7341a6	0.05938878
221	0x3d8a0170	0.067385554
222	0xbe193882	-0.14962962
223	0xbde7aa57	-0.113117866
224	0x3d3a4dc8	0.045484334
225	0x3287897c	1.5778589e-08
226	0x3d3f62b8	0.046725005
227	0xbde6dbb0	-0.11272371
228	0x3e23c9f7	0.15995012
229	0xbdffe794	-0.12495342
230	0x3dffb97b	0.124865495
231	0x3dac341b	0.08408376
232	0xbda2ad7b	-0.07943245
233	0x3b2516be	0.0025190557
234	0x3d9ac566	0.07557182
235	0xbd981cad	-0.074273445
236	0xbd957119	-0.07296962
237	0x3e008e34	0.12554246
238	0xb2aa1a1d	-1.980248e-08
239	0x3cc1490c	0.023594402
240	0x3d8b9586	0.06815629
241	0x3d3dcc68	0.046337515
242	0x352fd278	6.549885e-07
243	0x3de50d19	0.11184139
244	0x3d2db474	0.04240842
245	0x3d337471	0.04381222
246	0xbd9ad883	-0.075608276
247	0x3bee0a92	0.0072644437
248	0xbcc2be40	-0.023772359
249	0x3d22dc2c	0.039760754
250	0x3c0de769	0.0086611295
251	0x3ddbd96f	0.107348315
252	0xbccd440a	-0.025056858
253	0x389c440e	7.451336e-05
254	0x3a3dc776	0.00072395
255	0x3d238747	0.039923932

conv2.bias f4 [128]
0	0xbd24ff56	-0.04028257
1	0xbc95a750	-0.018268257
2	0xbc036ca8	-0.008021511
3	0x3d737872	0.059441037
4	0x00000000	0.0
5	0x3d19eb4d	0.037577916
6	0x00000000	0.0
7	0x3d7e61b5	0.0621049
8	0xbc3b984e	-0.0114498865
9	0xba1e5924	-0.00060405047
10	0xbc03362a	-0.008008519
11	0x00000000	0.0
12	0xbc6d6182	-0.01448858
13	0x3d941abf	0.07231664
14	0xbbfd6b0c	-0.0077337082
15	0x3d93db16	0.07219522
16	0x3d8d2dd8	0.068935096
17	0x3d91d219	0.07120151
18	0x00000000	0.0
19	0x00000000	0.0
20	0xbbb76da9	-0.0055977893
21	0xbb041d40	-0.0020159036
22	0x00000000	0.0
23	0x3c9b3ed9	0.018950867
24	0x3c3d03d3	0.011536556
25	0x3c75514d	0.014972997
26	0x3c0a4781	0.008439899
27	0x3d936718	0.07197398
28	0xbc784a82	-0.015154483
29	0x3d48b473	0.049000215
30	0x00000000	0.0
31	0xbbc010ef	-0.0058613936
32	0x3d5071b1	0.050889675
33	0x3d895432	0.06705512
34	0xbc3b9b8b	-0.011450659
35	0x3d85e626	0.06538038
36	0xbc5d3a08	-0.013502605
37	0x3d8702ee	0.06592356
38	0xbd0f3168	-0.034959227
39	0x00000000	0.0
40	0xbd050ba2	-0.032481797
41	0x3d853ab5	0.06505338
42	0x00000000	0.0
43	0x3da49ab3	0.08037319
44	0xbd61b5da	-0.055105068
45	0xbcc19e05	-0.02363492
46	0x34203e01	1.4923718e-07
47	0xbca80816	-0.020511668
48	0xbb2b56aa	-0.0026144185
49	0xbd40ffc5	-0.04711892
50	0x00000000	0.0
51	0x3b031175	0.001999942
52	0x3c626f64	0.013820503
53	0xbb45cb3c	-0.0030180952
54	0xbb606b77	-0.0034243742
55	0xbb0dd53a	-0.0021641986
56	0xbd4b2b8f	-0.049602088
57	0x3da0ad88	0.078455985
58	0x3d580864	0.052742377
59	0xbd7888f6	-0.06067749
60	0x3d05e0f3	0.03268523
61	0xb9d1a66a	-0.00039987575
62	0xbbbc2917	-0.005742203
63	0xbcd51345	-0.026010165
64	0x3d96257a	0.07331367
65	0x00000000	0.0
66	0xbba8c74e	-0.005150712
67	0xbd113583	-0.035451423
68	0x3d6ce72a	0.057837643
69	0x3d8b9245	0.06815008
70	0x3d9f1ac0	0.07768774
71	0xbd80dade	-0.062917456
72	0x3d853be7	0.06505566
73	0x3d913554	0.0709025
74	0xbc71bb12	-0.014754074
75	0xbcfa8d0e	-0.030584838
76	0x3d67be77	0.056578126
77	0xb91a00ca	-0.00014686878
78	0xbc454bdd	-0.012042013
79	0x3d7a1fd9	0.06106553
80	0xbc4a06e9	-0.012330749
81	0x3da8dcb7	0.08245223
82	0xbd0c4580	-0.034245968
83	0xbc91223e	-0.017716523
84	0xbbc2cfd4	-0.005945185
85	0x3da105e4	0.07862452
86	0xbd845f6b	-0.06463512
87	0xbc165787	-0.009176142
88	0x3d8fa8ba	0.07014604
89	0xbd77cbe2	-0.060497172
90	0x3ac7c2c0	0.0015240535
91	0x396c27d7	0.00022521555
92	0xbc1bb5a3	-0.009503755
93	0x3d875aef	0.06609141
94	0x3d7a2ab0	0.061075866
95	0x00000000	0.0
96	0x3bb486e1	0.005509243
97	0x00000000	0.0
98	0x3d5aee77	0.053450074
99	0x00000000	0.0
100	0x3d949556	0.07255046
101	0x3d9417dd	0.07231114
102	0xbbb43f7e	-0.005500733
103	0xbd14cf31	-0.036330406
104	0xbbb26907	-0.005444649
105	0x3d8ee9b4	0.06978169
106	0xbc037367	-0.0080231195
107	0x3d8fee34	0.070278555
108	0xbc10a951	-0.008829431
109	0xbb12521d	-0.0022326775
110	0x3db2357d	0.08701608
111	0xbd45da9f	-0.048304196
112	0xbd16f985	-0.036859054
113	0x3da5c88d	0.08094893
114	0xbbc06339	-0.0058712033
115	0xbbf3c71d	-0.0074395076
116	0xbcd5db63	-0.026105588
117	0x3d8effcb	0.069823824
118	0x3d90d6b2	0.070722
119	0x3d94520a	0.0724221
120	0xbcbe15f4	-0.023203827
121	0x00000000	0.0
122	0xbbc0e162	-0.0058862427
123	0x3d8b1589	0.06791217
124	0xbd23be5e	-0.03997647
125	0xbce4c10d	-0.027924085
126	0x00000000	0.0
127	0xbbbe562a	-0.0058086114

conv2.lin.weight f4 [128, 128]
0	0xb8a6c91d	-7.952957e-05
1	0x3d7b8152	0.061402626
2	0x3d47731a	0.048693754
3	0xbb87f1b5	-0.004148687
4	0xbd747ba5	-0.05968823
5	0xbb03dd02	-0.0020120745
6	0x3d820f4f	0.06350576
7	0x3cdb6778	0.026782736
8	0x36f8907a	7.4077952e-06
9	0x3e0c2c2f	0.1368873
10	0xbdc56323	-0.096380495
11	0xb2aa26d4	-1.9808262e-08
12	0xb0f7ec39	-1.8038754e-09
13	0x3d86dee8	0.06585485
14	0x31a15fed	4.696622e-09
15	0xb21d455d	-9.154374e-09
16	0x3e01db5a	0.12681332
17	0x3439e6ce	1.7313434e-07
18	0x3e1dc69b	0.15407793
19	0xbd95f84f	-0.07322752
20	0x3cecf791	0.028926643
21	0x3e1499a9	0.14511742
22	0xbdfa9b6c	-0.122366756
23	0x3e1d97ef	0.1538999
24	0x3cb22f86	0.021751177
25	0xbcb203fa	-0.021730412
26	0xbd385847	-0.045006063
27	0x3b69ca92	0.003567372
28	0x3d16fd33	0.036862563
29	0xbe1548b4	-0.14578515
30	0x3e191594	0.14949638
31	0xbc33aff2	-0.010967242
32	0x3dd0ce2f	0.101955764
33	0x3882e541	6.241585e-05
34	0xbe0b47a3	-0.13601546
35	0xbe16d25c	-0.14728683
36	0x3e195f82	0.1497784
37	0x3e196cb7	0.14982878
38	0x3dabb9c6	0.08385043
39	0x3e02a16e	0.12756893
40	0x3dbd05f3	0.0922965
41	0xbe21d057	-0.15802132
42	0x3d1c81ab	0.0382096
43	0x3df9c894	0.1219646
44	0x3dfcaaac	0.123372406
45	0x3b1becc4	0.0023792246
46	0xbd007f5a	-0.031371452
47	0x3b9381b3	0.0045015453
48	0xb3f06824	-1.1194814e-07
49	0x39fe363c	0.00048487063
50	0xb5d18d34	-1.5612809e-06
51	0x3d2993a3	0.041400563
52	0x3da12d64	0.07869986
53	0x3a6210a8	0.0008623698
54	0xb22c1874	-1.0017278e-08
55	0x3d81d877	0.063401155
56	0x3c5b0d56	0.013369879
57	0xbb0d2e4c	-0.0021542488
58	0xbe0ea2e3	-0.13929324
59	0x3cdc8a6d	0.026921475
60	0x3de2e642	0.110790744
61	0x3d234942	0.039864786
62	0xbdfc460e	-0.12318049
63	0xbd5c1a12	-0.0537358
64	0xba30d84d	-0.00067460985
65	0xbdf86967	-0.12129479
66	0xbde6151e	-0.112344965
67	0xbdb40a58	-0.087910354
68	0x3dbcba1a	0.092151836
69	0x33005aae	2.9884795e-08
70	0x3d72dd05	0.059292812
71	0x3d1dad1c	0.038495168
72	0x3d53667b	0.051611405
73	0xbd1cef14	-0.03831394
74	0xbd0d119d	-0.034440625
75	0x3e16e4d2	0.14735726
76	0x3dcd0caf	0.10012185
77	0x3df691c7	0.120395236
78	0xbb83a423	-0.0040173694
79	0x3b9ff7ee	0.0048818504
80	0x3de7e102	0.11322214
81	0x3cde4ee8	0.027137235
82	0x3aa782f8	0.0012780121
83	0xb4797f3d	-2.3236221e-07
84	0x3d8cc0bf	0.06872701
85	0xbde41cc8	-0.11138302
86	0xbdee0be6	-0.11623363
87	0x3d8f4224	0.06995037
88	0xb8244e0b	-3.917333e-05
89	0xbe3263a1	-0.17420818
90	0x3e0c8531	0.13722683
91	0xb3348724	-4.2032426e-08
92	0x3b7a061f	0.003815062
93	0x308af967	1.0111706e-09
94	0xbcc81ebe	-0.024428722
95	0x3d0e68b9	0.03476784
96	0xb0ba422c	-1.3552088e-09
97	0x3d20a467	0.039219286
98	0xbbc3dd26	-0.0059772907
99	0x3e11a8d6	0.14224562
100	0xbe07ed13	-0.1327403
101	0xbdde0d66	-0.10842399
102	0xbd83253b	-0.064035855
103	0xb736bfc3	-1.0892693e-05
104	0xbd1a8aea	-0.037730135
105	0xbd7d0544	-0.0617726
106	0xbdc81434	-0.097694784
107	0xbd90dd61	-0.07073475
108	0x3dbab1a2	0.09115912
109	0xb26f81ad	-1.3941116e-08
110	0xbdc923dd	-0.098212935
111	0xb6904e80	-4.300673e-06
112	0x3e033a4f	0.12815212
113	0x3dfa779a	0.122298434
114	0x37ec7409	2.8187425e-05
115	0xb285834b	-1.5542943e-08
116	0x32eb1270	2.7365985e-08
117	0xbc526780	-0.012842059
118	0x3da54c47	0.080711894
119	0xbde322d8	-0.1109063
120	0x3e035baf	0.12827943
121	0xbd2f3f35	-0.04278489
122	0x33f58dae	1.1434473e-07
123	0x3b78bb06	0.0037953272
124	0x3d322e87	0.043501403
125	0x3c6d1d8a	0.014472375
126	0x3b2adbf3	0.0026071041
127	0x3d1ea36d	0.038730074
128	0x319291f1	4.265751e-09
129	0xbd089252	-0.033342667
130	0xbd972106	-0.073793456
131	0x31584934	3.1473748e-09
132	0xbc9fd4ec	-0.019510709
133	0x32400dcd	1.1179009e-08
134	0x3da66050	0.08123839
135	0xbbfb8018	-0.007675182
136	0xb4880b6e	-2.534029e-07
137	0xbe1a00aa	-0.15039316
138	0x3db863c1	0.090034015
139	0xb304d0f3	-3.0923683e-08
140	0x3b30510d	0.0026903779
141	0xbd278503	-0.040898334
142	0x3aa4a8fb	0.0012562567
143	0xbb500835	-0.0031743173
144	0xbc797287	-0.015225059
145	0xb4b797d1	-3.4196867e-07
146	0x3ddde02b	0.10833772
147	0x3e112fa1	0.14178325
148	0xbe1f32b5	-0.15546687
149	0x3cae75ac	0.021296345
150	0xbe226825	-0.1586004
151	0xbccd6400	-0.025072098
152	0x3c5cefcb	0.0134849055
153	0x3a9ed8bf	0.0012119039
154	0x3bdaf06e	0.0066814935
155	0xba5737cc	-0.00082099135
156	0xbd16affa	-0.036788918
157	0x3d085e36	0.03329297
158	0x3ba87a24	0.0051415134
159	0xbae76f63	-0.0017657097
160	0x3c19c4b3	0.009385276
161	0xb29ccb18	-1.8253147e-08
162	0xbd15e565	-0.03659572
163	0xbc81a6a4	-0.01582653
164	0x3bd2c4b5	0.0064321407
165	0xbda6a702	-0.08137323
166	0xbc93ee77	-0.018058045
167	0xbd39eec1	-0.04539371
168	0xbdfe2377	-0.12409108
169	0x3d453756	0.048148476
170	0xbe054cc2	-0.13017562
171	0xbc0003dd	-0.007813421
172	0x398b459f	0.00026564018
173	0x31c36a4c	5.6873315e-09
174	0xbdcc1cb6	-0.09966414
175	0x3533e8df	6.702157e-07
176	0x3bb6b72f	0.0055760364
177	0xbd80dde8	-0.06292325
178	0x3761f93a	1.3469073e-05
179	0xbe19c662	-0.15017083
180	0x3d9f4782	0.07777311
181	0xb25bb5cf	-1.2788816e-08
182	0xba292670	-0.0006452566
183	0xbd709bb5	-0.058742244
184	0x3dbaeffc	0.09127805
185	0x325795ae	1.254868e-08
186	0x3d9a1d98	0.07525176
187	0x3dd23660	0.102642775
188	0xbe012585	-0.12611969
189	0xbceb3e87	-0.028716339
190	0x3de40079	0.11132903
191	0x3ca31cc5	0.01991118
192	0xbb80a863	-0.0039263233
193	0x3e035502	0.12825397
194	0xbcb166d7	-0.021655483
195	0xbd6b5f57	-0.05746397
196	0x3bb29e00	0.005450964
197	0xbb194914	-0.0023389505
198	0x3b4c6530	0.0031188242
199	0x3d5834ae	0.052784614
200	0xbdbcd004	-0.09219363
201	0xbdbbf6e6	-0.091779515
202	0xbde7b12c	-0.1131309
203	0xbe079901	-0.1324196
204	0x3d156405	0.03647234
205	0xbdc2fcc0	-0.095208645
206	0xbe15f382	-0.14643672
207	0xbb0245bc	-0.001987799
208	0x3bab8ed2	0.0052355314
209	0x3dd5e3d4	0.104438454
210	0xbb88cf99	-0.004175138
211	0x3b58654d	0.0033019364
212	0x3b7690cd	0.003762293
213	0x3cb90847	0.022586955
214	0x3da4dfdf	0.080505125
215	0xbd577e0e	-0.05261045
216	0xb538d491	-6.8854666e-07
217	0xbe0b0041	-0.13574316
218	0xbdc785e1	-0.09742332
219	0xb1f23114	-7.0487065e-09
220	0x30787950	9.039427e-10
221	0x33f22708	1.1276103e-07
222	0x3ae187b3	0.0017206579
223	0x3e11cb05	0.14237602
224	0x310c5c46	2.0425133e-09
225	0x3d409a4f	0.04702216
226	0xbd4bf3a8	-0.049792916
227	0x3d95e3f5	0.0731887
228	0x3d795108	0.060868293
229	0xbda6e1ea	-0.081485584
230	0xbdadb0af	-0.08480965
231	0xb4510ecd	-1.9470026e-07
232	0xbd5632f8	-0.0522947
233	0x3d3d6906	0.046242736
234	0x3ba1dbb5	0.004939521
235	0x3d0de801	0.034645084
236	0xbd1dc774	-0.03852029
237	0x3a053de0	0.00050827675
238	0x3d7bc65a	0.06146846
239	0xb2951f9d	-1.7360259e-08
240	0xbd2ceaea	-0.04221622
241	0x3d5a5392	0.053302355
242	0xaf393e3b	-1.684776e-10
243	0xb1bdc42a	-5.5229252e-09
244	0xb2dcadb3	-2.569036e-08
245	0xb97592f8	-0.00023419771
246	0xbcdc2244	-0.026871808
247	0xbc6dda1e	-0.014517335
248	0x3dd5ee7a	0.104458764
249	0xbdbd927c	-0.09256455
250	0xb10eed53	-2.0798623e-09
251	0x3da6505a	0.081207946
252	0xbdc1d771	-0.0946492
253	0xbc372a73	-0.011179554
254	0xb3ee680a	-1.1101663e-07
255	0x3c8b7a12	0.017025981

lin1.weight f4 [128, 256]
0	0x3c724586	0.0147870835
1	0x3d5b583f	0.053550955
2	0xbc414113	-0.0117953
3	0xbcff92c2	-0.03119791
4	0x33017135	3.0138114e-08
5	0x3c7fcaa2	0.015612276
6	0x31f54462	7.1382127e-09
7	0x3d120077	0.035644975
8	0x3c3d9078	0.011570089
9	0xba2e2b58	-0.0006644032
10	0xbd81e778	-0.06342977
11	0x2feb754e	4.28296e-10
12	0x3cf4dcdd	0.029890472
13	0x3c01f015	0.007930775
14	0x39ac5e21	0.00032876528
15	0x3d133d2e	0.035947017
16	0x3d57673e	0.052588694
17	0x3c94100e	0.018074062
18	0xb1f9f601	-7.274821e-09
19	0xb32d9ce1	-4.0422382e-08
20	0xbc13c8e5	-0.009020065
21	0x38ae7d92	8.320356e-05
22	0xb101e386	-1.8901303e-09
23	0x3d093fbd	0.03350805
24	0xbd24c9b5	-0.040231425
25	0xbd4965c0	-0.049169302
26	0x3b020d10	0.0019844212
27	0x3cf7c768	0.030246451
28	0xbd4ad79f	-0.04952204
29	0xbd7ffd7e	-0.06249761
30	0x32ca715c	2.3567445e-08
31	0xbc019fb9	-0.007911616
32	0x3d8a00d9	0.06738443
33	0x3d33b2ce	0.043871693
34	0xbc20f536	-0.009824088
35	0xbd42a099	-0.04751644
36	0xbd37b09f	-0.044846173
37	0xbc35e556	-0.011102041
38	0x3d45c29c	0.048281297
39	0x328c5014	1.633456e-08
40	0x3d6bbc7b	0.057552796
41	0x3d496c57	0.049175587
42	0xb134f11a	-2.6330498e-09
43	0x3d66e775	0.05637308
44	0x3c8676bd	0.01641404
45	0xbce39672	-0.027781699
46	0x387eb55c	6.0727223e-05
47	0x3c52c993	0.012865442
48	0x3b989634	0.0046565775
49	0xbcd41c20	-0.025892317
50	0x335e20fe	5.171841e-08
51	0x3ce368d7	0.027759952
52	0xbd579664	-0.052633658
53	0xb9a4807a	-0.0003137624
54	0xbb8ce2b6	-0.004299487
55	0x39ec7865	0.0004510313
56	0x3d176c4c	0.036968514
57	0x3aeed679	0.0018221877
58	0x3c9e4d92	0.019324098
59	0xbc993922	-0.018704
60	0x3c45453a	0.012040431
61	0xb9956169	-0.0002849207
62	0x3c7db5fb	0.015485282
63	0x39c2e970	0.00037176488
64	0x3dccf7ee	0.10008226
65	0x2f2d4fbf	1.576259e-10
66	0x3d212f80	0.03935194
67	0x3d389e47	0.04507282
68	0x3d520ea0	0.05128348
69	0x3c87b119	0.016563939
70	0x3db9074a	0.090345934
71	0xbd873c02	-0.066032425
72	0x3d5129e1	0.05106533
73	0x3c19a0ae	0.009376688
74	0xbc159ead	-0.00913207
75	0xbd5dadb8	-0.05412075
76	0x3ceaeaa3	0.028676337
77	0x3bda61d5	0.0066644945
78	0xbb3b8c3d	-0.0028617524
79	0x3d96b0e3	0.07357957
80	0xbd04c6b6	-0.032416068
81	0x3c3f6978	0.011682861
82	0x3b02b496	0.0019944063
83	0x3d1cf98c	0.038323924
84	0x3bf10bc0	0.007356137
85	0x3ce38058	0.02777116
86	0xbb84720b	-0.0040419153
87	0x3b894c7b	0.0041900254
88	0xbd5fbeff	-0.054625507
89	0x3d44c146	0.048035882
90	0xbc8b2279	-0.016984211
91	0x3c47e056	0.012199482
92	0xbbeb4032	-0.0071792835
93	0x3cfed1a0	0.031105816
94	0xbd3ad4cc	-0.045613095
95	0x33e9354c	1.08596026e-07
96	0xbd37eaf6	-0.04490181
97	0xb1934a68	-4.286722e-09
98	0x3d936c88	0.07198435
99	0x30539fea	7.6988604e-10
100	0x3d31d575	0.04341646
101	0x3b72b929	0.0037036634
102	0xbb24e98d	-0.0025163621
103	0xba4fb18f	-0.00079228816
104	0x3d60e174	0.05490251
105	0xbb89f19a	-0.0042097094
106	0x3b35d29b	0.002774394
107	0x3d4d77c0	0.05016303
108	0xb8fc0d36	-0.00012018757
109	0xb1696526	-3.3963459e-09
110	0x3d830c11	0.06398786
111	0x3d28b708	0.041190177
112	0x3d3966ad	0.045263935
113	0x3dd7b692	0.105328694
114	0x3d41d493	0.047321867
115	0xbd484895	-0.048897345
116	0xbcf633b1	-0.030053945
117	0xbd4193d5	-0.047260124
118	0xbd2249e1	-0.039621238
119	0x3d03299b	0.0320221
120	0xbd0c2b7e	-0.034221165
121	0x2fa17fbc	2.937649e-10
122	0xbd1737d5	-0.03691848
123	0x3d75ff5c	0.060057983
124	0xbc4a94f1	-0.012364612
125	0x3ccf935d	0.025338823
126	0x31f5332e	7.136257e-09
127	0x3cb75877	0.02238105
128	0xbd0a721c	-0.03380023
129	0xbc0e1e19	-0.008674168
130	0xbc29e3fa	-0.010369295
131	0x3cfb18bb	0.03065144
132	0x31011a98	1.8787087e-09
133	0xbcc135e4	-0.023585267
134	0x31fc4243	7.3416984e-09
135	0xbc1f934a	-0.009739706
136	0x39003a94	0.00012228853
137	0x3a8037f0	0.0009782296
138	0xbcbdbd59	-0.023161577
139	0x333b32d0	4.3585544e-08
140	0x3d3d0600	0.0461483
141	0x3d58d524	0.05293764
142	0x3a94a5be	0.0011340899
143	0x3c2c6cf3	0.010524022
144	0x3db7c9a8	0.0897401
145	0xbd3d5a08	-0.04622844
146	0xafa6334b	-3.023167e-10
147	0x322dd81f	1.0119066e-08
148	0xbc6638ca	-0.0140516255
149	0xb504d371	-4.948152e-07
150	0x3304f514	3.0956542e-08
151	0xbd507b83	-0.05089904
152	0xbd7a2f78	-0.061080426
153	0x3ca1eafc	0.01976537
154	0xbb550e48	-0.0032509733
155	0x3d460b7c	0.048350796
156	0x3a0cd9d2	0.0005373034
157	0x3c102318	0.0087974295
158	0x3213df1f	8.607258e-09
159	0xbce44a7a	-0.027867544
160	0x3da46d44	0.08028653
161	0xbd06957e	-0.03285741
162	0xbc2f7c32	-0.010710763
163	0x3a82c506	0.000997693
164	0xbd7072cf	-0.05870324
165	0xbc97c068	-0.018524364
166	0xbd335332	-0.043780513
167	0xb09d1602	-1.1429508e-09
168	0xbb851c96	-0.0040622456
169	0x3d9bfb31	0.0761627
170	0xb39ef4ae	-7.401955e-08
171	0x3d1de791	0.038550917
172	0x3d35299f	0.044229146
173	0xbbd17b9d	-0.0063929097
174	0x35e7f1be	1.7281197e-06
175	0x3bb6128c	0.00555641
176	0x3b971ffe	0.004611968
177	0xbd2eaa2b	-0.042642754
178	0x311c7296	2.2766122e-09
179	0xbb7cd64a	-0.0038579875
180	0xbd5dcdd8	-0.054151386
181	0x3294964a	1.7297811e-08
182	0xbb1febb7	-0.0024401972
183	0x39b1418f	0.00033808916
184	0xbd3461d4	-0.04403861
185	0x3b82b565	0.003988909
186	0x3d365c59	0.044521663
187	0x3d41df01	0.047331814
188	0x3d2af881	0.041740898
189	0xba085e4d	-0.000520204
190	0xb9c32afb	-0.0003722532
191	0xbd531c9d	-0.05154096
192	0x3ca4d4da	0.020121027
193	0xb2e6ecdb	-2.6883233e-08
194	0xbb88f1f5	-0.004179234
195	0xbd76a41a	-0.060215093
196	0x3ce38e64	0.027777858
197	0x3d2ea2ed	0.042635847
198	0x3dccb92d	0.09996257
199	0x3c89241e	0.016740855
200	0x3d282c7c	0.04105805
201	0x3cf745a3	0.030184573
202	0xbc37b6fe	-0.011213062
203	0x3c8f26df	0.01747459
204	0x3c5d9aa0	0.013525635
205	0xb9d7f614	-0.00041191338
206	0x3b58a157	0.003305515
207	0x3d48951b	0.048970323
208	0xbd007430	-0.031360805
209	0x3d4db0f4	0.050217584
210	0xbd00aa84	-0.031412616
211	0x3d58d64b	0.05293874
212	0x3cfa7fbf	0.030578492
213	0x3d0aa7cf	0.03385144
214	0xbcf80add	-0.030278618
215	0x3886c478	6.426213e-05
216	0x3d474693	0.04865129
217	0xbc3f2e04	-0.011668686
218	0xbc9b2f93	-0.018943584
219	0x3c243583	0.010022524
220	0x3935807e	0.00017309372
221	0xbbeff0b3	-0.0073223948
222	0x3d41bc11	0.047298495
223	0xb3a956e0	-7.885478e-08
224	0x3ceb286d	0.0287058
225	0xb2c0f154	-2.2461485e-08
226	0x3cda18ad	0.026623094
227	0x2e04cb50	3.0193903e-11
228	0x3d0c502a	0.034256138
229	0x3da7eec5	0.081998385
230	0xb9b02d7b	-0.00033603222
231	0x3d540b95	0.051768858
232	0xbcbbe25b	-0.022935083
233	0xbc82afb0	-0.015952915
234	0x396df631	0.00022693795
235	0x3cc58e79	0.024115788
236	0x36d58cb0	6.364273e-06
237	0x3099f85e	1.1202805e-09
238	0x3d9f8283	0.07788565
239	0xbd68804f	-0.05676299
240	0x3d4a0e05	0.049329776
241	0x3d982ac8	0.07430035
242	0xbd1a2552	-0.037633248
243	0x3bd0de1c	0.0063741338
244	0xbd3058cd	-0.043053437
245	0x3caca2ea	0.021073777
246	0xbcee8942	-0.029118184
247	0x390c849d	0.00013400843
248	0xbd17c090	-0.037048876
249	0xb2a89f4d	-1.9630216e-08
250	0xbd50add9	-0.050947044
251	0x3d59ca34	0.05317135
252	0x3cffcf7f	0.031226872
253	0xbcb4557a	-0.022013415
254	0x2fc9efb9	3.673202e-10
255	0xb794e173	-1.7747958e-05

lin1.bias f4 [128]
0	0x3db8c71e	0.090223536
1	0x3dcb957e	0.09940623
2	0xbcc923d4	-0.024553217
3	0xbd59708a	-0.05308584
4	0xbb085b4a	-0.0020806366
5	0x3b432633	0.0029777407
6	0x3cbc5711	0.022990735
7	0x3b7a464c	0.0038188873
8	0x3cb2810e	0.021790054
9	0xbcf71ca0	-0.030165017
10	0xbd8e2c0a	-0.069419935
11	0xbd3ebbf0	-0.04656595
12	0xbbef0df0	-0.0072953627
13	0xbc258875	-0.010103335
14	0xb7c24958	-2.3160756e-05
15	0x3d2a5b7d	0.041591156
16	0xbc7540ee	-0.014969094
17	0x3c9049c0	0.017613292
18	0xbac0e346	-0.001471617
19	0xbd76bfe9	-0.060241614
20	0x3dd03254	0.10165849
21	0xbc0c996b	-0.0085815
22	0x3c11c7d9	0.008897745
23	0xbc8986e6	-0.016787957
24	0xbd9b6c61	-0.07589031
25	0x3d7a2e4b	0.061079305
26	0x3e0b92d1	0.13630225
27	0xb64da5a7	-3.0643803e-06
28	0x3ce74058	0.028228924
29	0xbc935397	-0.017984195
30	0x3bb72bae	0.005589924
31	0xbc2e8396	-0.01065149
32	0xbbe2aa16	-0.0069172485
33	0x343a8e31	1.7374329e-07
34	0xbd52ba14	-0.05144699
35	0xb8bf5698	-9.123719e-05
36	0x3d560f04	0.052260414
37	0xbd4e2e88	-0.050337344
38	0x3d7dffe7	0.062011626
39	0xbccd18e3	-0.025036281
40	0xbd43ecfa	-0.04783342
41	0x3e090b90	0.13383317
42	0xbc0113c0	-0.007878244
43	0xb9ebeb92	-0.00044998206
44	0xb5811e3b	-9.620047e-07
45	0xbc8c22ef	-0.017106501
46	0xbd91fd45	-0.071283855
47	0x3d6d8735	0.05799027
48	0x3ccc6986	0.024952661
49	0x3d57121b	0.0525075
50	0xbb5d4b48	-0.0033766795
51	0xbd63391d	-0.05547439
52	0x3d23898f	0.039926108
53	0x33bb686c	8.72686e-08
54	0x3c8ef966	0.017452907
55	0x3d6e3a57	0.058161106
56	0xbb5e14c7	-0.0033886896
57	0xbd41bd93	-0.047299933
58	0xbc8d216c	-0.01722785
59	0x3d14aadf	0.036295768
60	0xbbfc2842	-0.007695229
61	0xbc1de527	-0.009637154
62	0x3bc762e5	0.006084787
63	0x3c0220b9	0.007942372
64	0xbcc7901d	-0.02436071
65	0xbb53a643	-0.0032295145
66	0xbb12c884	-0.0022397349
67	0xbd9f5642	-0.07780124
68	0xbd2757fb	-0.04085539
69	0x3d0a02d2	0.033694096
70	0x3e0fda6a	0.14048162
71	0xbd502f7c	-0.050826535
72	0x3dd70a96	0.10500066
73	0x3c7f018b	0.015564333
74	0xbd253be0	-0.040340304
75	0xbd67b62f	-0.05657023
76	0x3d8520b9	0.06500382
77	0xbca896a7	-0.02057965
78	0x3d525373	0.051349115
79	0x3ddf0e6b	0.10891422
80	0xbcfded8a	-0.030997057
81	0x3b38c8e1	0.0028195905
82	0x3e00dcef	0.1258428
83	0x3df467d7	0.119338684
84	0xbc1fa459	-0.009743773
85	0x3d2356da	0.03987775
86	0xbdaf5e25	-0.085628785
87	0x3d0821a3	0.033235203
88	0xbd0f35d4	-0.034963444
89	0x3e061bde	0.13096568
90	0xbca4bc9f	-0.020109473
91	0xbd0eb768	-0.03484288
92	0x321e9f97	9.233097e-09
93	0xbccbaf2a	-0.024863798
94	0xbbfbee20	-0.007688299
95	0xbd0bb39a	-0.03410683
96	0xbc7b4fff	-0.015338897
97	0x3d3b520b	0.04573254
98	0xbda09b7e	-0.07842158
99	0xbd11cc6a	-0.035595335
100	0xb6c443e6	-5.8491596e-06
101	0x3a0a356e	0.0005272244
102	0xbdba41b8	-0.09094566
103	0x3df0b6fc	0.117536515
104	0x3b8ce183	0.004299344
105	0x3d3af324	0.045642033
106	0x3b824c91	0.0039764126
107	0x3d3419ff	0.043970104
108	0xbd4e9c0e	-0.050441794
109	0x3d97f2ee	0.07419382
110	0xbd9107f4	-0.07081595
111	0xbda731c6	-0.081637904
112	0x3c231999	0.009954833
113	0x3d4db41a	0.050220586
114	0x3ceea352	0.029130612
115	0x3d920908	0.07130629
116	0x3b1fafce	0.0024366262
117	0x3d800176	0.06250279
118	0xbc8e0c83	-0.01733995
119	0xbc619ac0	-0.013769805
120	0x3d32edf7	0.043683972
121	0x3dbf0219	0.09326572
122	0x3dd0e374	0.10199633
123	0xb948ab7c	-0.00019137369
124	0x3cd13276	0.025536757
125	0xb9bc3ed3	-0.00035904962
126	0x3db3dbb9	0.08782143
127	0xbc341015	-0.010990162

lin2.weight f4 [128, 128]
0	0x3d993eeb	0.07482704
1	0xbd1cdb17	-0.038294878
2	0x3c5faf1b	0.013652588
3	0x3cd2144e	0.025644448
4	0x3d8d3c0a	0.06896217
5	0xb27925d8	-1.4502312e-08
6	0xbd1c585d	-0.038170207
7	0x3d07b9e8	0.03313628
8	0x3d7ba27c	0.061434254
9	0xb80b010e	-3.3141165e-05
10	0xbcc21ec7	-0.023696316
11	0xbd85021c	-0.06494543
12	0x3a85bbe8	0.0010203095
13	0x3d89fbba	0.06737466
14	0xb38cdf24	-6.559847e-08
15	0xbc033003	-0.008007052
16	0xbc8036d8	-0.015651152
17	0x3a1dc9c1	0.00060191384
18	0x34932d2f	2.741376e-07
19	0x3d104565	0.03522243
20	0x3c058da9	0.00815145
21	0x3d9a1b8d	0.07524786
22	0xbcede7a3	-0.029041117
23	0x36fe9c42	7.5879807e-06
24	0x3b68f92c	0.0035548909
25	0xbd547f84	-0.05187942
26	0xbd0e5b91	-0.034755293
27	0xb60128a6	-1.9246158e-06
28	0x3d0c598a	0.03426508
29	0x3c65b30e	0.014019741
30	0x3d27d57d	0.040975083
31	0xbc27ff28	-0.010253705
32	0x3ac6a6af	0.0015155877
33	0xafaf4c3e	-3.1886488e-10
34	0x3d0a83ce	0.033817105
35	0x32517b8e	1.2193494e-08
36	0xbd01eb2b	-0.031718414
37	0xbd1b278d	-0.037879515
38	0x3cdfde28	0.027327612
39	0xbc647084	-0.013942841
40	0xbc3f378f	-0.011670961
41	0x3d673daa	0.05645529
42	0xbd6eaf25	-0.0582725
43	0xb4fa8b20	-4.6667355e-07
44	0xb463572d	-2.1172737e-07
45	0xb120ba8e	-2.3389108e-09
46	0xbd2a7f4e	-0.041625313
47	0x3cafe2da	0.021470476
48	0xbda77706	-0.08176999
49	0xb7b5b791	-2.1662361e-05
50	0xbdb7cc9b	-0.08974572
51	0xbaa65955	-0.0012691418
52	0xb9817f09	-0.00024699446
53	0xb3651510	-5.3337374e-08
54	0x3365175b	5.333946e-08
55	0xbc9e824d	-0.019349242
56	0x32550d4e	1.2401257e-08
57	0x3d57a215	0.052644808
58	0x3b98db06	0.0046647815
59	0xbdb695a6	-0.08915262
60	0xb4c06cfb	-3.584208e-07
61	0xbd06c361	-0.03290117
62	0x388f92df	6.846128e-05
63	0x3c66d9cf	0.014090016
64	0xbd20cb53	-0.039256405
65	0x3bfa59b3	0.0076400875
66	0x31eb2939	6.8440866e-09
67	0xbd0e2e81	-0.03471232
68	0x3c09e1fd	0.008415696
69	0xbc685e27	-0.014182604
70	0x3bc0be58	0.0058820657
71	0xbdb5b41f	-0.08872246
72	0xbd9f8b8d	-0.07790289
73	0x3885e827	6.385176e-05
74	0x3d776490	0.06039864
75	0x3c67d0ca	0.0141489
76	0xbd74f7ab	-0.059806507
77	0x3d823c2a	0.06359132
78	0xbc8972c4	-0.016778357
79	0xbda70ef6	-0.081571504
80	0xbdb7c26f	-0.08972632
81	0x3a8f515d	0.0010934282
82	0x3d6694fd	0.05629443
83	0x3b7d721b	0.0038672748
84	0xb9a51adf	-0.00031491273
85	0xbbaaba2a	-0.0052101808
86	0x3d2d2eb2	0.04228086
87	0xbd8a50d2	-0.067536965
88	0x3c41f6fc	0.011838671
89	0x3caef392	0.021356378
90	0xbcc99b27	-0.024610115
91	0x3d914d1d	0.07094786
92	0xb2b450ae	-2.0991447e-08
93	0xbd717b31	-0.058955375
94	0xb3c58a5a	-9.1986934e-08
95	0x332c4013	4.0105146e-08
96	0xb9cefea3	-0.000394811
97	0xbd854e8c	-0.06509122
98	0x3ce06fb5	0.027397016
99	0x3d3c045c	0.045902595
100	0xb1eb4770	-6.8475217e-09
101	0xbc37ecf9	-0.011225932
102	0x3d5c19d4	0.05373557
103	0xbc30777b	-0.010770674
104	0xbc08fdfa	-0.008361334
105	0xb51a259a	-5.742419e-07
106	0x3d433ea6	0.047667168
107	0xbd508b51	-0.050914112
108	0x3c6196a9	0.01376883
109	0xbd9d2417	-0.07672899
110	0xbdce4e43	-0.10073521
111	0xbb5227ed	-0.0032067255
112	0x3c1aaad1	0.00944014
113	0x3c6b05b7	0.014344624
114	0xbc70b41b	-0.014691378
115	0x3bee6c48	0.0072760917
116	0xb18bee83	-4.072548e-09
117	0xbda32b05	-0.0796719
118	0x3d244f42	0.04011465
119	0x3c26bb13	0.010176438
120	0xbda152e6	-0.0787714
121	0xbd770a62	-0.060312636
122	0x3d08c98d	0.03339534
123	0xb9cb3c46	-0.00038764084
124	0x3d1d04d4	0.038334683
125	0xb85af2e6	-5.2201467e-05
126	0xbbe69afa	-0.0070375176
127	0x3ae2e8ce	0.0017311813
128	0x3ca3a135	0.01997433
129	0x3dcc7df3	0.099849604
130	0xbda00299	-0.078129955
131	0xaf6ad54e	-2.1357957e-10
132	0x3d2220de	0.039582126
133	0xbb0ac8cf	-0.002117682
134	0x3d1730cb	0.036911767
135	0x316fd8fb	3.4902417e-09
136	0xbd84221b	-0.064518176
137	0xb1bcbc8b	-5.492955e-09
138	0x3cd6a109	0.026199834
139	0xbd0442ec	-0.032290384
140	0x3c59167a	0.013249988
141	0xbcd1d8eb	-0.02561613
142	0xb508e4c5	-5.099685e-07
143	0x3aeba89e	0.0017979329
144	0xbb16ebb5	-0.0023028676
145	0xb2a3c972	-1.9067304e-08
146	0x34526536	1.9594594e-07
147	0xbc591bf8	-0.013251297
148	0x3ce44a74	0.027867533
149	0x3db2c7c1	0.08729506
150	0x31b2d084	5.2041873e-09
151	0x346e15bf	2.2173388e-07
152	0xbd870622	-0.065929666
153	0x3d8fa625	0.070141114
154	0x3da00e06	0.07815175
155	0xb6087eee	-2.0339462e-06
156	0xbca52194	-0.020157613
157	0xb11286d7	-2.1322444e-09
158	0x323a8040	1.0855786e-08
159	0xbc2b2cc9	-0.010447689
160	0x3c3a2965	0.011362408
161	0x34bb5c1e	3.4898488e-07
162	0xbd4e57bb	-0.050376635
163	0x31b1291f	5.156053e-09
164	0xbc926828	-0.017871931
165	0x3b982a76	0.0046437336
166	0x3deec7ff	0.1165924
167	0xbcc22318	-0.023698375
168	0xb116fede	-2.1972748e-09
169	0x3cc44176	0.023956995
170	0xbc654d38	-0.013995461
171	0xb6136ac9	-2.1966864e-06
172	0xb6154f85	-2.2249017e-06
173	0xb601966c	-1.9310055e-06
174	0xba6f8d8a	-0.00091382174
175	0x3b9121c6	0.004429075
176	0x3d093b7f	0.033504006
177	0x3d809976	0.0627927
178	0x3df8b190	0.12143242
179	0x3374ba45	5.6980088e-08
180	0x3d220afe	0.039561264
181	0x33559942	4.9732314e-08
182	0xb936884e	-0.0001740765
183	0x3d4ef240	0.050523996
184	0x3111e881	2.123244e-09
185	0xbd88ee96	-0.06686132
186	0x3c5d60cf	0.0135118505
187	0xbd4f90e5	-0.05067529
188	0xbb6e90df	-0.0036402268
189	0xbcd4a580	-0.025957823
190	0x3ba9ce12	0.005182036
191	0x3d91c703	0.071180366
192	0xb19ee2e7	-4.624201e-09
193	0x3225e540	9.6563895e-09
194	0xb0c3fe93	-1.4260472e-09
195	0xbc4811a5	-0.012211238
196	0x3a59fbde	0.0008315424
197	0x3beafa7f	0.0071709747
198	0x3c8c63cc	0.01713743
199	0x34aa8ae6	3.176603e-07
200	0x3a3e5ddc	0.0007261911
201	0xb45a655d	-2.0339708e-07
202	0x3d64f6ca	0.05589942
203	0xbd8fd5d8	-0.07023209
204	0xbcfcd627	-0.030863835
205	0x3d883200	0.06650162
206	0x3c5f218c	0.013618838
207	0x3d1572da	0.036486484
208	0x3baa711e	0.005201473
209	0x3211962e	8.474258e-09
210	0x3d9471bd	0.07248256
211	0x3d8b7fa4	0.06811455
212	0xb210d463	-8.430194e-09
213	0x3a973047	0.0011534774
214	0xbd9c87a9	-0.076430626
215	0xbd157ff5	-0.036498982
216	0xbd52f53e	-0.051503412
217	0xbace7b16	-0.0015753235
218	0xbd21f447	-0.0395396
219	0x3aeff1c8	0.0018306309
220	0x3a438d9b	0.00074597605
221	0x3abf8d81	0.0014614315
222	0x3c34b5b7	0.011029652
223	0xb019cc8b	-5.595175e-10
224	0x33b5dab9	8.468255e-08
225	0x3dc74392	0.09729685
226	0x3d925c55	0.07146517
227	0x3d26fba9	0.040767346
228	0xb39a65e2	-7.189716e-08
229	0xbc84e51a	-0.016222525
230	0xbd9101b7	-0.07080405
231	0x3da00190	0.07812798
232	0xbce5d0b3	-0.028053617
233	0x34d45fe7	3.9557855e-07
234	0x3d1c81d0	0.038209736
235	0x3b9d45eb	0.0047995946
236	0x3bc12275	0.005894
237	0x3ccac065	0.024749944
238	0x3d405128	0.046952397
239	0x3da063cb	0.07831534
240	0x3be61825	0.007021921
241	0x3d9725bd	0.07380245
242	0xbad7da66	-0.0016468286
243	0x3b097a48	0.0020977426
244	0x3c27fe10	0.010253444
245	0x3d93d499	0.07218284
246	0x3c5776e0	0.013150901
247	0x3cb2adbc	0.021811359
248	0x3da1d0bc	0.07901141
249	0x3dc93fe4	0.09826639
250	0x3b279f22	0.0025577028
251	0xbcd2e170	-0.025742263
252	0x3c94357a	0.018091906
253	0xb97ebf9a	-0.00024294705
254	0xbd573931	-0.052544776
255	0x3b5aac19	0.0033366738
